approx-error/weights/w_10_1881.npy (npy, 150608 bytes, 1 tensors)

array f8 [10, 1881]
0.04136773627418268 0.011992900983710038 0.01694887050628123 0.002974468914858958 0.009479254484792103 0.007618911565306029 0.024873667419888095 0.006823057546055529
-0.003988111472186814 0.003984569209272335 1.6847449580743327e-05 -0.00470427200820052 0.011351301176408271 0.008845762788532809 0.0027675523412882975 -0.011407394557693558
0.013414250444259477 0.018156866167550363 -0.014956289528787891 0.018463710418216834 0.043413993534365786 -0.026749411471729587 -0.009790591169580346 0.025532359349045106
-0.016510015175142938 0.00025359198513319996 0.009468952208941133 -0.04286143448941045 0.017115176623524905 0.03469158182274557 0.027903367253564557 0.01901221263799896
0.038580352680817755 0.025964866979860845 -0.029281420265459792 0.0075697935165105245 0.021202582772764593 0.011738134081312874 0.00903017983068016 0.02245525200797638
0.03979375498865564 -0.026790053561838577 -0.004290447659490145 0.008318684954424659 -0.03250348459091795 -0.004043007641876995 -0.0011316890747880288 -0.020047354034524005
0.017097790946787036 0.02937227853227364 0.024645378533508806 -0.0016361588721955855 -0.019041443319873425 -0.004274806912372185 0.0001365043841676494 0.046615682046331014
0.015884209563075 -0.0053170230091971315 0.020412978046534993 0.0007154416976324898 0.00869242098930097 0.018545584073575098 0.004926778375621045 0.014224310001028357
0.01926986851127297 0.0354232054152559 -0.025417308202490177 -0.035436350876805106 -0.03902830470358434 -0.023298702901885845 -0.016074930989846865 -0.0015360282408829608
-0.0008509801862537052 -0.040507872600664144 0.004249845068858075 0.002648269049084387 0.0005973623507813023 -0.020656639564440752 -0.01163877487087303 0.06463948614907573
0.0012507531357572323 0.03431861083737411 0.010565856196897561 0.05595783275445673 -0.027498958427549968 0.04055021405841717 0.027809823036195103 -0.0106127878258555
-0.008373651150261048 -0.04392534926761545 -0.028012552726766175 0.012938331072385323 0.04552791454543468 0.00456201124850575 0.02426931393961464 -0.023780787780612284
-0.003956898572889173 0.007836629654089187 0.02746847171080828 -0.00829900822472126 -0.005027282128281185 0.038038761109835825 0.035824723928897975 -0.05066098727394926
-0.010916318668100335 -0.01749572795200549 0.028768351232305176 0.041785149216058505 -0.0023429919016989217 -0.05211888416806421 0.037781860914568026 0.007516139546805839
-0.00023392295403250216 0.007789257634713806 -0.024531209807616156 0.009972252986115525 0.005541815722969951 -0.01704276783195537 -0.005112715740817518 0.05017868368714967
0.00430550620709049 -0.04176789295838547 0.00011119454601812204 0.00828437382657034 0.0012085437476510427 0.018797612710235 -0.0031686899318000322 0.05381622403705132
-0.01939042738119266 -0.00022355028659881845 0.008840806794354433 -0.013667786486159164 -0.03235176252630544 -0.011100167584641872 0.03893011680565994 0.02889561056929431
-0.018728450702538264 -0.02583800880473967 -0.011233039898349423 0.047274862761924705 0.029951522112478927 0.002301050343957252 -0.02916584439795597 0.007353353084903695
0.006930740347743887 -0.050312309385989074 -0.034707713479298345 -0.013041255253603048 0.0002924921991351166 -0.015687453625314915 -0.014333555232715216 0.014823464823922258
-0.02431072263739758 0.015959438098295885 0.020909979728360957 0.011481613114366409 0.0014935677183389082 0.01764564406661362 -0.04200692691500747 -0.08669319400362764
0.003106202894701098 -0.061383378906952654 0.011027933443335334 -0.01537378864008935 0.005620082276127959 0.023547630952964985 -0.010291756202801126 -0.052272038368601996
-0.02821660357925399 -0.024290258578500194 0.024464789604237362 0.026479861306952845 -0.026260754848730996 0.010493794644509068 -0.01249644391672832 0.04976048855283177
-0.015128940569126916 0.013446055742268755 0.003854335574245406 -0.02534414536971791 0.006005839030620886 0.03110385998080727 -0.018242947218440025 -0.02905709196981398
0.007570473851262414 -0.01297162011579708 0.009698509722478346 0.0030572324482894334 -0.003941176815555445 -0.03228405600260437 0.00567893801536153 0.029016997468439328
-0.0025016245580216996 0.005350809768524096 -0.02089279707319787 0.04876717577219129 -0.01244427998383211 0.001846633213168307 0.019857698222806686 -0.011643817686872462
-0.004370530420532025 0.008417297410777529 0.056814905107895296 0.033466983236938835 0.01509341030612202 0.0011573860628568287 0.007093690455864171 -0.007923001938176216
-0.03030415421645357 -0.002738379303153538 -0.031363581261060015 -0.012771531069373758 0.028781688890799673 -0.03910440277435538 -0.017178693738354064 0.006207007627381513
-0.030271273243568965 0.05055505521306766 0.011326026845971606 -0.0142678565148261 0.010705195675435325 -0.00690011960317765 -0.000923656248406107 -0.022060647365109542
0.017177018351359253 -0.08615850584099692 0.03554611831031209 -0.012615984475541906 -0.007157842556538639 -0.007705059335243221 -0.02930752218696201 0.018802977853658795
0.008536950195737757 -0.03141823446455478 -0.027963073122079202 -0.0014641043596896656 -0.024211061728742878 -0.007962711016284795 -0.010335572391890563 -0.02638108778493175
-0.015929092790171767 0.03444951714419604 0.04042558445359197 0.019839668805392802 -0.003906529983903272 -0.011106520239033638 -0.011610888450904302 -0.012384915373026478
0.020643599342234677 -0.022330061831042622 -0.02501501866081923 -0.014541303407566568 0.009468509656240645 -0.014350264828569242 0.043331193350987174 0.01415355966540693
00000000: 4278 d0e4 262e a53f e4d7 12ec bb8f 883f
00000010: bc4d 1d72 0b5b 913f db0f cbd6 e95d 683f
00000020: e969 0500 dc69 833f ffd0 1000 0235 7f3f
00000030: 6b66 6690 7b78 993f 22f7 4d90 7ef2 7b3f
00000040: 8994 8885 d655 70bf d75e 14a7 1f52 703f
00000050: 97fa 65eb 73aa f13e 51cd d366 c944 73bf
00000060: 48c9 8eda 593f 873f 1452 142f ba1d 823f
00000070: a434 7759 faab 663f 7780 7694 c25c 87bf
00000080: bfe6 aa37 ee78 8b3f f2c6 8ca9 b697 923f
00000090: 334b 2a33 67a1 8ebf 85df a2a1 26e8 923f
000000a0: 5c74 d6e4 5b3a a63f 5c53 d59d 3264 9bbf
000000b0: 7509 0ee7 160d 84bf 4952 93a1 2725 9a3f
000000c0: be4f ef5c 00e8 90bf 6160 5d48 919e 303f
000000d0: 29b0 8440 7564 833f 3a88 c816 eff1 a5bf
000000e0: bf05 740f a486 913f 411a c052 18c3 a13f
000000f0: dc97 3547 b392 9c3f 30eb 04fe ef77 933f
00000100: 2584 10d2 cdc0 a33f 730e 18ba 8896 9a3f
00000110: e7ac aed9 f2fb 9dbf 6544 74f9 8001 7f3f
00000120: ae26 663e 21b6 953f ca60 f6af 290a 883f
00000130: deed 6538 6a7e 823f 40a4 fd73 82fe 963f
00000140: cbca 85d8 d85f a43f f6ee 9f0f da6e 9bbf
00000150: 6f94 1f46 dc92 71bf b98f 99fe 6209 813f
00000160: 98e7 a5f6 4ba4 a0bf 4de5 9699 668f 70bf
00000170: 836a 30e4 a58a 52bf ae67 cc27 4b87 94bf
00000180: 2f1a cd53 1582 913f 7f0a d23e c413 9e3f
00000190: c522 325b a33c 993f e18b 3736 8cce 5abf
000001a0: 985a 4fa1 997f 93bf 3168 2abe 7582 71bf
000001b0: adfb 44bb 53e4 213f bc4c bdbb 02de a73f
000001c0: dc86 6242 f343 903f 8e3c fc7e 4dc7 75bf
000001d0: 47ce 7ec4 23e7 943f f877 c558 8f71 473f
000001e0: aa15 fafe 54cd 813f 412c 5314 9dfd 923f
000001f0: f587 f7ff 192e 743f ddc4 1992 a221 8d3f
00000200: da6f 37fc 7abb 933f e057 8e89 fd22 a23f
00000210: f49d edad fe06 9abf b4fe 35a0 b624 a2bf
00000220: 94f3 a398 84fb a3bf 3fe3 027c 9ddb 97bf
00000230: 3222 8c5b f275 90bf 3e5c dcc3 912a 59bf
00000240: e57e e508 8ae2 4bbf 52cc 19a8 72bd a4bf
00000250: 914b 5719 4968 713f 8752 9e9e d2b1 653f
00000260: b1fe 56e1 0993 433f 8185 7f9d 0327 95bf
00000270: 6fbc 7ceb 11d6 87bf dd5f 0a9f 368c b03f
00000280: 0183 0ff4 097e 543f e39f 617e 3592 a13f
00000290: 0d2f 8f36 8da3 853f fc56 454b 81a6 ac3f
000002a0: b347 7bdc af28 9cbf 2d12 7466 ffc2 a43f
000002b0: edc1 caa1 2d7a 9c3f 7c2e 0d45 28bc 85bf
000002c0: 1737 b56e 3426 81bf fbba 2325 627d a6bf
000002d0: 2112 5b97 52af 9cbf 53d3 9066 697f 8a3f
000002e0: ed31 0e50 6f4f a73f 826e dc91 9daf 723f
000002f0: 8502 ab16 0eda 983f 95d3 29a7 fd59 98bf
00000300: 8726 6ddf 1b35 70bf 52f6 99a0 a60c 803f
00000310: 4c14 adee b120 9c3f adb7 5007 12ff 80bf
00000320: 807d 42c5 7c97 74bf 7eea e405 d179 a33f
00000330: 7a60 5343 9e57 a23f 6aa3 0ca7 3cf0 a9bf
00000340: 21ad 607d 4b5b 86bf e08a 7e6d 66ea 91bf
00000350: 4974 cf5e 7375 9d3f b5d2 aef2 dc64 a53f
00000360: b57e f632 9c31 63bf 81fe 028e 53af aabf
00000370: 8f2a 05e2 2458 a33f 6d33 bb58 3ec9 7e3f
00000380: d6c5 ecdf 26a9 2ebf e3c5 d1ec a0e7 7f3f
00000390: e58b 6b9f b51e 99bf 19dd 8a23 556c 843f
000003a0: 6d5b a6d4 03b3 763f 05e3 e2c9 a873 91bf
000003b0: 0bad 682e 12f1 74bf a807 c93a 05b1 a93f
000003c0: 1786 a285 a6a2 713f 72e5 8eec 9962 a5bf
000003d0: 2336 2bc1 2326 1d3f 0942 39d5 65f7 803f
000003e0: b7f8 cdf7 ffcc 533f 5055 556f ae3f 933f
000003f0: 8996 1a74 39f5 69bf ef78 77d4 cc8d ab3f
00000400: 7bab d48d 15db 93bf 3420 0457 1a4d 2dbf
00000410: 9682 6a00 211b 823f f5ee bb3f dbfd 8bbf
00000420: ff70 0904 6990 a0bf 999b 0c46 afbb 86bf
00000430: 8000 05f5 a5ee a33f 3481 9299 cf96 9d3f
00000440: 82ae 160d 8d2d 93bf 4b8f 3d6b 4775 9abf
00000450: 300e fc17 5901 87bf 6e80 f82a 6934 a83f
00000460: d10a c19f 9cab 9e3f 43ed 28ff a6d9 623f
00000470: 18d5 65af a6dd 9dbf f8e7 3fb0 8c1e 7e3f
00000480: 080d 1772 6863 7c3f 3051 ccf6 88c2 a9bf
00000490: 3f03 a09c 35c5 a1bf 1b0d 81a6 5fb5 8abf
000004a0: 029b fb6d 342b 333f 0cec 1c31 5f10 90bf
000004b0: 56eb ad37 e95a 8dbf f8a5 0ec5 c35b 8e3f
000004c0: ced2 adfa e8e4 98bf f663 c7c2 ab57 903f
000004d0: c292 5ffc 6c69 953f 61f8 a606 ac83 873f
000004e0: d6ce 4b20 7a78 583f 605a bb20 b311 923f
000004f0: ea5f 9c92 ee81 a5bf 7907 0871 8631 b6bf
00000500: 0b92 1efb 2d72 693f bebf d869 a46d afbf
00000510: d24b da2b d095 863f 95fd 65fb 4a7c 8fbf
00000520: 6891 3a59 1505 773f c473 5dc3 de1c 983f
00000530: 92b9 7922 d813 85bf 87a9 938e 66c3 aabf
00000540: 51f1 4e36 d0e4 9cbf 9efc d2a8 8bdf 98bf
00000550: 3ecf 033d 4c0d 993f d08f 4369 891d 9b3f
00000560: 376b f96c 19e4 9abf c60c 7946 c57d 853f
00000570: fb58 824f bc97 89bf 604e efed 347a a93f
00000580: 2e7f bd07 ecfb 8ebf 3eca 620d 9b89 8b3f
00000590: ea78 a7a7 2093 6f3f 5133 08ce d0f3 99bf
000005a0: 677f 8b23 9499 783f ed74 96b5 b0d9 9f3f
000005b0: 8850 be76 47ae 92bf 1eab e86e 24c1 9dbf
000005c0: 7ecb b399 3702 7f3f ae4b 6361 dd90 8abf
000005d0: 4eb5 9ff0 cfdc 833f 90aa 362c 7b0b 693f
000005e0: bd30 7d98 9f24 70bf 2845 6d29 8987 a0bf
000005f0: 55f2 d450 cc42 773f 7fc8 9ebc a1b6 9d3f
00000600: d1fe 3b75 497e 64bf 8727 680f bbea 753f
00000610: 54fb 9ae0 eb64 95bf 06a4 1ee2 02f8 a83f
00000620: 3530 6cfc 627c 89bf 146b 8750 5741 5e3f
00000630: fd5e c391 9355 943f 685c 53c1 b6d8 87bf
00000640: 72c7 8e53 d5e6 71bf 29ca cc88 163d 813f
00000650: eb3d bade d716 ad3f 8c32 ff9c 9522 a13f
00000660: 9100 333d 4be9 8e3f 47f7 7bd2 6df6 523f
00000670: 860f 4108 460e 7d3f 1055 af51 ef39 80bf
00000680: 96a1 2b5d 0d08 9fbf b482 a231 cc6e 66bf
00000690: 4577 9a27 e30e a0bf 2f3b 1ae2 f527 8abf
000006a0: bddc 0972 f278 9d3f 9647 1706 7e05 a4bf
000006b0: cf4a 2d9f 4a97 91bf 3501 40ec 846c 793f
000006c0: ea8d 5bc2 6eff 9ebf 4c40 9329 5ae2 a93f
000006d0: fb30 2d97 1932 873f 44ed eb48 7738 8dbf
000006e0: 6311 960a 9bec 853f b8d2 8bc0 4c43 7cbf
000006f0: 6461 98b0 3044 4ebf d0d0 d8fb 1097 96bf
00000700: 6d5d 3f30 da96 913f 87fb dbdc 7b0e b6bf
00000710: a3fa 48cf 1933 a23f 3f99 d5c5 68d6 89bf
00000720: 1844 0bbb 8a51 7dbf efdc bc1d 578f 7fbf
00000730: aa78 4785 ca02 9ebf 5ca6 cb7b 1641 933f
00000740: 86aa 2f0f d27b 813f f9f0 0b03 0d16 a0bf
00000750: 754e 3812 5aa2 9cbf 9667 f015 e6fc 57bf
00000760: a038 4ed9 c8ca 98bf 9333 38fb c04e 80bf
00000770: 90d5 440b d12a 85bf bea5 13d5 a403 9bbf
00000780: e8dd 5a52 b74f 90bf da9f fefa 5da3 a13f
00000790: eaba 4c86 a9b2 a43f 4504 bba2 d950 943f
000007a0: 72ea 5828 4b00 70bf 6293 97e9 03bf 86bf
000007b0: 81a2 6411 73c7 87bf 9650 ed33 435d 89bf
000007c0: 7abe 2f80 9823 953f ecc0 2015 b1dd 96bf
000007d0: df6a 3a7c 899d 99bf 0f1b 9db4 d4c7 8dbf
000007e0: a8f7 85da 3964 833f 306a 05f1 ab63 8dbf
000007f0: 18a4 ad94 812f a63f 5e4a 149f 8afc 8c3f
