approx-error/weights/w_10_4689.npy (npy, 375248 bytes, 1 tensors)

array f8 [10, 4689]
0	0x3f7053804617178d	0.003985882825366616
1	0xbf73cd1274a478c2	-0.004834243862459954
2	0x3f97eb50fe28f261	0.023358598244373478
3	0xbf8266a83306a4f0	-0.00898486524313788
4	0x3f6287d4f0351aab	0.0022620352698681976
5	0xbf694dd53f364ae8	-0.003088871477026845
6	0x3f642ecb66ccad1b	0.0024637196242075616
7	0x3f777c5a9b39da99	0.00573382752519671
8	0xbf671f3062ab535c	-0.002822489264284673
9	0xbf78a31d08580308	-0.00601493206841109
10	0xbf563145ca69cb57	-0.0013545209455087714
11	0x3f761481532ac389	0.005390649009016432
12	0xbf8b6cf4bd055daa	-0.013391410845243385
13	0x3f8b4d8de3220afd	0.013331516737030475
14	0x3f734bb564444025	0.004710873185345609
15	0xbf80fbf6d4891ffd	-0.00829308353526414
16	0xbf827297192f7c41	-0.009007626014804983
17	0x3f81b652dc2f795c	0.008648536057020699
18	0x3f723d3eb195f56c	0.004452938935512445
19	0x3f8acb1ec3c659c8	0.013082733487675649
20	0xbfa496cae04f20d1	-0.04021295536182524
21	0x3f95770980865e42	0.020961903066192507
22	0x3f97e6b7b26831e3	0.023341055168247037
23	0xbf92c1184434ea34	-0.018314723170286665
24	0x3f773b0ad39269d8	0.005671541491347708
25	0xbf8e6598b61969b5	-0.014842217499951052
26	0xbf83252cb677f434	-0.009348248785494652
27	0x3f5f8e9cdb4bfa1f	0.0019260913661011193
28	0x3f928bff7cbbde73	0.01811217497649271
29	0xbf3275cf7a2eb9a5	-0.00028168025363131184
30	0x3f9bd484b3fb8684	0.027177880749951658
31	0x3f78760c5345ce98	0.005971954484596552
32	0x3f9f52e750a607e6	0.030589689538380947
33	0xbf8d61301a31a1c6	-0.014345527457593554
34	0xbf9170822eab58b4	-0.017030748461217285
35	0xbf6f92b601aa6b2e	-0.003854136926134364
36	0x3f8020dbe915e611	0.007875173617082816
37	0x3f68c33fee0ce37f	0.0030227898245382408
38	0x3f967e79ce4d9105	0.02196684190438793
39	0xbf9390dc24f961d2	-0.019107284313891366
40	0x3f84322fb4936d7a	0.009861347864378745
41	0xbf9b6ca5b52d4c07	-0.02678164404217045
42	0xbf9c43a6c5059657	-0.02760181977773465
43	0xbf8313a159bab9e4	-0.009314785528968757
44	0xbf7bc0ec5876572f	-0.006775782799555859
45	0x3f5912db3a2db6b4	0.0015303746119700702
46	0xbf413e47074efbac	-0.0005262228793226817
47	0xbfa0a7bd542ed2c0	-0.0325297513258298
48	0xbf701ded3ff95b8e	-0.003934790379921517
49	0xbf8a2163df1ff2c0	-0.012758999106148194
50	0x3f89a64b64bc7c62	0.012524212848403053
51	0xbf989c8a2b614121	-0.024034651658724763
52	0x3f533daf0d9f6fa4	0.0011743745330852007
53	0x3f7d08d891d851c8	0.0070885143045597634
54	0x3f770c9475669ed7	0.005627231518168427
55	0xbf74d4a28ebc3b8f	-0.005085597029178226
56	0xbfa119bf71682829	-0.03339956530915373
57	0xbfa004c84e8d4de3	-0.03128648718725537
58	0xbf82371d47b0728e	-0.008894184828073717
59	0xbf4d7e07d8f5c66a	-0.0009000337903854576
60	0x3f93b1b6349bc535	0.019232603989569347
61	0x3f942d72489b4f5e	0.01970461433559422
62	0xbf8901aa69494e33	-0.012210208261570354
63	0xbf90d70bfde05cd0	-0.016445338602434856
64	0xbf9c33130e273c4d	-0.027538583506437942
65	0x3f71f6e8405f7b58	0.004385859710935268
66	0x3f84cbf52985ced3	0.01015464337317643
67	0x3f8a3a225a377678	0.012806194666093548
68	0xbf8e5380ebdc6992	-0.014807707975297988
69	0x3f908ebfb60ed1ee	0.016169543730670748
70	0x3f878bb9c46a2e18	0.011496974283793412
71	0x3f6c1374136d5af2	0.003427244864194428
72	0xbf85c57d3c5ba217	-0.01063058700988599
73	0x3f994e370cf55570	0.024712429204858777
74	0xbf64adab1bde1a13	-0.002524217793453029
75	0x3f667bcc836cedd7	0.002744578781315825
76	0xbf4ece7eea514189	-0.0009401435569405407
77	0x3f477788ca54522a	0.0007161539003016127
78	0x3f537afeb2206afc	0.0011889922393552568
79	0x3f8bd88161ca1a77	0.013596545025632551
80	0xbf85bfaa892c1bc2	-0.010619480429807985
81	0x3f7d1fe03cfab9b6	0.007110477381202454
82	0xbf7e010f6f48378d	-0.0073252299230385344
83	0xbf9bc07576c3c0d4	-0.0271013597238728
84	0xbf946c5886281c5f	-0.019944556415819267
85	0xbf85a425f6945f86	-0.010566994273673701
86	0x3f6dfaccdc3f4af3	0.003659629934170788
87	0xbf760f5ca4778a0c	-0.005385743984762669
88	0xbf7381f73d856859	-0.0047626169037703
89	0xbf86257f064ca5c7	-0.010813705806486674
90	0x3f87571432e1b216	0.011396558573516773
91	0x3f88f5ad9890e5cc	0.012187343805737515
92	0x3f744e7559757590	0.004957636257441847
93	0xbf94f4e867fa2c65	-0.020465499254481396
94	0xbf600c2b3170f301	-0.001958927499371988
95	0xbf9180b9c8e9aee1	-0.017092612159486435
96	0xbf85b42731a995bb	-0.010597521021916792
97	0xbf7d0eb9884ae83b	-0.0070941207274533525
98	0xbf83c923a947d5c2	-0.009660986522230245
99	0x3f88d780d52e6afb	0.012129789834764084
100	0x3f77b3cf3e0ec1b9	0.0057867141157860675
101	0x3f56205aba9ba7a1	0.0013504873299390113
102	0x3f8b89c1923ec669	0.013446342731046461
103	0x3f8bc69b97a569f6	0.013562408032773181
104	0x3f78d82c8ce5ee47	0.006065534615455065
105	0x3f85157f79439bb0	0.010294910324274514
106	0x3f4296e16febe421	0.0005673027770561925
107	0x3f829b32d6f9d04f	0.009085080323736032
108	0x3f92e31278d8e8f9	0.01844433653443731
109	0x3f847954885f8bbb	0.009997044002323699
110	0xbf95a140ca931844	-0.021122944225475018
111	0x3f62b0a24a9286b3	0.002281491255943313
112	0x3f74d76d033b84ca	0.005088258581708869
113	0x3f8ab3d50d381ace	0.013038315263668745
114	0xbf315c5514194a94	-0.0002649028502662934
115	0xbf69709b0efd1df5	-0.0031054523932743058
116	0x3f851cf30803fdf7	0.01030912273608829
117	0x3f57f2f6ef69a81d	0.0014617358662243403
118	0x3f9770e82c5fd479	0.022891643246073266
119	0xbf85c14cef1ec61a	-0.010622597739572238
120	0xbf988ce91c29b18d	-0.02397503122704019
121	0xbf74dd5e2604a9e1	-0.00509392525445171
122	0xbf96893f646dbab6	-0.022007933144261492
123	0xbf7a1ab1e82e6b5d	-0.00637311453729236
124	0xbf760cd4f9a5cb7a	-0.005383331236191386
125	0xbf85bf869c83fca3	-0.010619212771869896
126	0xbf5bbc4183e3dd40	-0.0016928329274018133
127	0x3f8b5c10287472a8	0.01335919021090011
128	0x3f75f27216d9f836	0.005358167325196608
129	0x3f92779636f4c488	0.018034312347655873
130	0x3f9164fb55c6b5a3	0.016986777410854647
131	0xbf98132f446d7e47	-0.023510683585639815
132	0x3f8144d876e2841e	0.008432093742444077
133	0x3f68a8e7064d78d5	0.0030102264594652297
134	0x3f92e0f5a15a47ed	0.018436277363953413
135	0xbf824f13805842f8	-0.00893988833834801
136	0xbf73dd80fc392657	-0.00484991440641521
137	0x3f94cb4f4362feb5	0.020306814659078316
138	0xbfafc8324b9b11a6	-0.06207425282403571
139	0x3f7896f633502e1b	0.006003343315579747
140	0xbf95e3bcc5ca5e10	-0.021376561710523545
141	0x3f7e9a5446973c86	0.0074713985463424944
142	0x3f7fbb9d5d5cca10	0.007747282701347405
143	0x3f9a947f8e7328e1	0.02595710093445625
144	0xbf470ddf8ee124f8	-0.0007035581200024723
145	0x3f906aa89da656f6	0.016031870481660847
146	0x3f62e812623715a5	0.0023079260879252544
147	0xbf81b1f020ba3405	-0.008640171049842502
148	0x3f9771204e6b8071	0.02289247969281444
149	0xbf64ba4d743d3da5	-0.0025302422308539235
150	0x3f8d2d3429a01aa0	0.01424637558012637
151	0xbf89b2bbd708db7c	-0.012547938823542763
152	0xbf73f2439f5e6ef7	-0.004869712973142751
153	0x3f7dc2f1893c5844	0.007265990734387332
154	0x3f93799b8dba37c1	0.019018583798746883
155	0xbf9a864d3a883a44	-0.02590294523002458
156	0xbf458911ac07138a	-0.000657209042451799
157	0x3f96b54e50130115	0.02217600215658518
158	0xbf6fa88bd04e62d4	-0.0038645487533809173
159	0xbf9f9c76bdb35037	-0.03087029965247742
160	0xbf6df3dc6a5ccf03	-0.0036563210477654775
161	0x3f43d88e13c767ba	0.0006056493507984242
162	0xbf92750756cfd36b	-0.018024553941319448
163	0x3f8333e9844df7a0	0.009376358366121995
164	0x3f60625c79d1f153	0.0020000272912154365
165	0x3f72fa1ae6eebe04	0.004633050047160751
166	0x3f73bbb2f58be24f	0.004817675647011812
167	0xbf8f9d2bb7fc472d	-0.015436498214998895
168	0x3f9328f04ecfec81	0.018710856256785483
169	0xbf7e3ecdc1cd0df3	-0.0073841130623040095
170	0xbf98cb738245b53f	-0.02421360476130485
171	0xbf70471b908bb025	-0.003974063562719042
172	0xbf653e7e4e09e7b0	-0.0025932757274036086
173	0xbf6d785da23a4e9f	-0.003597433927845575
174	0x3f7d6005d447bdce	0.007171652574910549
175	0xbf53a3193458df05	-0.0011985536706457533
176	0x3f814ddcb59a50a2	0.00844929150779478
177	0x3f831d27a9c12ef2	0.009332952373504597
178	0xbf8af2ffff06d881	-0.013158798189447875
179	0xbf91816152a759d9	-0.017095108670980828
180	0xbf827d04f7ad56d8	-0.009027518089776462
181	0xbf8a152fa731eb8f	-0.012735721864592068
182	0x3f932997fd662139	0.01871335491299073
183	0xbf94216ce5ef9271	-0.019658757719201284
184	0x3f97449563456eb0	0.022722562965425908
185	0x3f971feca14a1b1c	0.02258271917755926
186	0x3f8023e51ae19cb4	0.007880964167453854
187	0xbf9add234a3f1d22	-0.026234198958062234
188	0x3f7b4f3e83ed68c3	0.006667370033790645
189	0xbf911acf283d4a28	-0.01670383151151547
190	0xbf874e68b0d74cd7	-0.01138002195049241
191	0x3f6858e5c7086ed5	0.0029720771638162926
192	0xbf72f0572ea1d631	-0.004623737864780917
193	0x3f734dd5567b0131	0.004712899542653568
194	0xbf8f9c533565bebd	-0.015434885088978384
195	0x3f794c9e6fc18cbd	0.006176585095178652
196	0xbf85e126d4d1b12c	-0.010683349008296782
197	0x3f56b7a4a33d5bf9	0.001386557368240336
198	0x3fa02daf45e60db3	0.03159854629759753
199	0xbf7e7c92c8ea531a	-0.007443021181320808
200	0xbf899c0b3452acc9	-0.012504661115903553
201	0xbf91bec92cfaee7a	-0.017329352732061022
202	0xbf843ccc7f697844	-0.009881589544587517
203	0x3f63cc75bc9a52e9	0.002416830019522077
204	0x3f7b230eb56baabc	0.00662523027015521
205	0x3f86fe83fee80d2f	0.011227637497546709
206	0xbf9956944eace5ba	-0.0247443364162103
207	0xbf9134824e4cc9e6	-0.016801868466424973
208	0x3fa0a067ad666526	0.032473792950620514
209	0xbf92da555a9bfa1f	-0.01841100087676228
210	0xbf5ea1520cd42dd0	-0.00186951649385746
211	0xbf9f51d19141607a	-0.03058555077618095
212	0x3f617d15f4e185a6	0.002134840854566905
213	0xbf80fc76b0acb8c5	-0.008294036165889538
214	0x3f858941d5eee221	0.010515703526707889
215	0x3f89b62952380ac4	0.01255447656786169
216	0x3f8d17c48943a0d3	0.014205489577264896
217	0x3f83c7d53e19d0dd	0.009658494908969245
218	0x3f7bea1aee1c8fb4	0.006815056987566171
219	0xbf6c31e79ebcd490	-0.003441765196749609
220	0x3f2972e8443412d5	0.0001941593674034322
221	0xbf57741d941f60d6	-0.0014314926961472205
222	0x3f89030ee11106f6	0.012212864154324415
223	0xbf9e7db79f0e6880	-0.02977644832899573
224	0xbf565484f71ac5bf	-0.0013629244316856052
225	0x3f92b311e02191e9	0.01826122217643614
226	0xbf8b2f0d8602678a	-0.013273339893476583
227	0xbf77fa7b837d0279	-0.005854113078215145
228	0xbf76fbaadcda72d0	-0.005611102516607416
229	0x3f84a1df3cc4d557	0.010074371377963116
230	0xbf90fa808085472f	-0.016580589145923582
231	0xbf6f2e97b53e2a8d	-0.003806396774910076
232	0x3f833e3e84aa6092	0.009396065162306653
233	0x3f630cc41de5c4d8	0.002325423279380883
234	0x3fa1d6fb50ec8d71	0.03484330523340418
235	0x3f48f84ea5e893fb	0.0007620224021748218
236	0x3f85ca14b5094b05	0.010639344954289873
237	0x3f72eddd20e78e58	0.004621375830967965
238	0xbf97d101d790f4fb	-0.02325823667728331
239	0x3f82a759c3022c2c	0.009108258498846743
240	0xbf886b3a07f48aa3	-0.011923268668913528
241	0x3f91060398ea5432	0.01662450428792201
242	0xbf8674eba71abc33	-0.010965195691225648
243	0x3f8cd9ee4e2e648b	0.0140875451668754
244	0x3f83163c1e05a246	0.009319753328513102
245	0x3f8edf8073f3af91	0.015074733294077965
246	0x3f91c96100a8eb25	0.017369762101434056
247	0xbf911e4524e8b788	-0.01671703374648062
248	0xbf7713619f65482f	-0.005633717859682404
249	0x3f99f56fbe31ddef	0.025350328429764642
250	0xbf84cad736e1b386	-0.010152512895922571
251	0xbf926556d6524888	-0.017964703398839293
252	0xbf618bcf4d677b2e	-0.0021418618082259732
253	0x3f793a4b4e6692cf	0.006159109273003962
254	0xbf9ee60ed8a0cb98	-0.030174476596765837
255	0x3f81eb4e72525076	0.008749592651192222
