approx-error/weights/w_10_11689.npy (npy, 935248 bytes, 1 tensors)

array f8 [10, 11689]
0	0xbf7c3210b5ca70cc	-0.006883683465869161
1	0x3f76fc6b432bc454	0.005611819261262491
2	0x3f41db5899c79ca7	0.0005449469204536109
3	0x3f5bf037ecda1b09	0.0017052217621384444
4	0x3f837c9733ddac38	0.00951498152763551
5	0x3f90fd16aca46063	0.016590456282841958
6	0x3f89c6319c6ae03d	0.012585055910094062
7	0x3f541c7177ac1ca8	0.001227484520031111
8	0xbf95f1c548ecc7cc	-0.02143009431456004
9	0x3f73a410270f467d	0.004795134635928397
10	0xbf75a071acf02409	-0.005279964490008567
11	0xbf93ad3686e7e1ef	-0.019215442642208144
12	0xbf85a893f8f1daee	-0.010575443300905953
13	0x3f59f70091444fee	0.001584768823765788
14	0x3f6cc46511482ca3	0.003511617085910483
15	0xbf6c82f3c4d4e79f	-0.0034804116354764793
16	0x3f6b0c44f9d354b6	0.0033017489609884166
17	0x3f6ce8f952f83e22	0.00352905937302929
18	0x3f8912488f162228	0.012241904131557638
19	0x3f102fe10c73e7c7	6.174861038124513e-05
20	0xbf95c04962e44506	-0.021241327916020424
21	0x3f8854393671280d	0.011879393552721518
22	0xbf52bd29d6d15dc2	-0.0011437328896784925
23	0x3f83f53419ff373b	0.009745032351840535
24	0x3f7eb3d7a71022d0	0.007495729821137956
25	0xbf8ebb3d83ab735a	-0.015005570011845815
26	0x3f628d1e6fd6ee4e	0.0022645563574011157
27	0x3f8a3e5fb9d358db	0.0128142813286271
28	0x3f886c4efbd51156	0.01192533212691475
29	0xbf82cf377ac2a9c2	-0.009184297021722968
30	0x3f8fd9d4e6463b4c	0.015552199628272277
31	0x3f8676934184fe0e	0.010968351780888088
32	0x3f75e9836b82f94c	0.005349648818251684
33	0xbf84a61e6f63b81a	-0.010082471632326718
34	0x3f86e06f6daf85ab	0.011170263800468335
35	0xbf8d803a2a6d2cbf	-0.014404730243447237
36	0x3f910dba3b813cb3	0.01665392864407229
37	0xbf57c45b3e13a792	-0.0014506236114421906
38	0x3f3b50ca8fa38add	0.00041680283869831113
39	0xbf609e94df97bd8b	-0.0020287425693294495
40	0x3f9512d35e8bbfca	0.02057962669908856
41	0xbf7a4bc98e2497b5	-0.006419932675532471
42	0xbf94b1d08c073aa8	-0.020209559008260186
43	0x3f85ea9b71f6e834	0.01070138398687357
44	0x3f780ba20dbb8591	0.005870469114343095
45	0xbf87b7e01ffb6e4e	-0.011581183410661524
46	0xbf68ecfe558b43b0	-0.003042694803618372
47	0xbf8dbbe7cd8bb03a	-0.014518557510619801
48	0xbf558a9ff48aeaa5	-0.0013147890150963318
49	0x3f91a066c3d783cd	0.017213445380438053
50	0xbf761c88cd3a0f73	-0.005398306256782936
51	0xbf730cff8b826270	-0.0046510679459507015
52	0x3f80539113580cf7	0.00797189083369297
53	0x3f86defbc17b460e	0.011167494623268073
54	0xbf8af75bd13baaaf	-0.013167111704622895
55	0x3f78270a5d1a95d4	0.005896606906082142
56	0xbf7238dcfc34bac2	-0.0044487602456643755
57	0x3f7c43ddd24dcc31	0.00690066002867966
58	0x3f80df4c9bc3b97a	0.008238409522587576
59	0x3f7e3bf82aa10e6e	0.007381410026997421
60	0xbf96a6769d2292cf	-0.022119382229578485
61	0x3f93bc3fae5a4ccb	0.019272799507757548
62	0x3f7a2bdb6e561883	0.006389481689785484
63	0xbf8594242a548d67	-0.010536463300531108
64	0x3f7615a4bade0894	0.005391734577530855
65	0xbf44ee6c22982c49	-0.000638773727759009
66	0x3f8e0213ab953aa5	0.014652398752017357
67	0x3f7226d08c8b4e5f	0.004431547779592287
68	0xbf5350999e75f2b7	-0.001178884523908836
69	0x3f5657996c6a780a	0.0013636587406504774
70	0xbf6006b929037194	-0.0019563309107139635
71	0xbf01e7c75f3ee3da	-3.415181336614117e-05
72	0xbf8002af4509ce22	-0.007817620558149111
73	0x3f90b8350d597e8e	0.016327694835466526
74	0x3f871e31f181257e	0.011288061316139016
75	0x3f960e16ccb981a7	0.021538120503807125
76	0x3f7109cf7f829d44	0.004159746684457236
77	0x3f8f438740ccfb61	0.015265518822727921
78	0x3f7866f3d79e05ba	0.00595755816346027
79	0x3f81880ee71e75d8	0.00856029169863863
80	0x3f915c74fc6e1362	0.016954257876494856
81	0x3f778285b661112c	0.005739710153708704
82	0x3f85d31a3dc7ba54	0.010656552324659042
83	0xbf91ad077a9a550d	-0.0172616165715072
84	0xbf88f6f4b8498ec8	-0.012189781068804875
85	0xbf7ace86dfbd54bd	-0.006544615603918999
86	0xbf8415667bcc5eab	-0.00980644288351525
87	0x3f7969bb6bad5d1c	0.006204349624417984
88	0xbf7a99e9afb114d1	-0.00649443896970077
89	0xbf8093c177997188	-0.008094321691878972
90	0xbf85d6a708232762	-0.010663323341208734
91	0x3fa1681a523f9769	0.03399736646660651
92	0xbf853701ba6f14b8	-0.01035882330132619
93	0x3f73b057bf2d2f66	0.004806845436927753
94	0x3f73e2b162b7583d	0.004854863083400271
95	0xbf9891120ed29512	-0.02399090018720524
96	0xbf4d2163662d38c4	-0.0008889899585058582
97	0xbf8bfd7cb8fe6f47	-0.013667082210126259
98	0xbf744c6c3c4edde4	-0.004955694956997079
99	0x3f88ef1ced987c93	0.012174821854442441
100	0xbf8233cecbfaad2a	-0.008887878036452596
101	0xbf25c8b0e647cd9a	-0.0001661983434498693
102	0xbf55b3fcd703e9c4	-0.0013246506824190355
103	0x3f8d1c84da0ec38c	0.01421455183467104
104	0x3f7b7ad9d8216c3a	0.006708956674709882
105	0x3f91dbbc4c921026	0.017439787076469447
106	0xbf8209f51a76522a	-0.008808054800092686
107	0xbf7b85624bbf43c4	-0.006719001739797063
108	0x3f90d6a76b327e62	0.016443839948463775
109	0xbf82b63e56573ea6	-0.00913666440001688
110	0x3f8cbb6802a09cb3	0.014029324131185161
111	0xbf8337dd4e17ae8d	-0.009383896775907697
112	0x3f8b8d265dd4e6b7	0.013452815760149546
113	0xbf91ceae03eedd67	-0.017389983167701042
114	0x3f57ab5f758b869a	0.0014446670740472568
115	0x3f72e0f134e118a4	0.004609052861331762
116	0x3f69eb0864414035	0.003163830175289229
117	0xbf87f6ac1c2f2e17	-0.011700958833805548
118	0x3f7826040d5051dd	0.00589562971892518
119	0xbf78b542dd18db57	-0.0060322391378154405
120	0x3f7438a51ed911fe	0.00493683338351447
121	0x3f86fdfec19af71f	0.011226644786229976
122	0xbf946c54dd759d4e	-0.01994450189286328
123	0x3f8b624f58fa7a39	0.01337110510149585
124	0x3f50c5accaa3add7	0.00102369188476358
125	0x3f9739c08ef27ac8	0.022681244587711175
126	0xbf87b8ad96dc2e32	-0.011582714239486955
127	0xbf73187bd9e41c6d	-0.004662021440032677
128	0x3f8b85138823d26a	0.013437416641388828
129	0xbf79c7f10bfcf2c2	-0.006294194783376285
130	0xbf689ee25fa3bf1d	-0.0030054494246697498
131	0xbf753e2da4b39b70	-0.005186250967404202
132	0x3f746bbc6dcc9f35	0.004985557604221748
133	0xbf70e75011138be0	-0.004126847038807363
134	0x3f558b3ffb07b03a	0.001314938050309257
135	0x3f72a674e7561657	0.004553276686583971
136	0x3f94c17b79fe5b63	0.02026932651605352
137	0x3f84a0d163c2308d	0.01007236085595078
138	0x3f3017e2005f4526	0.0002455641518937672
139	0x3f86ea8837f73f2c	0.011189521987858685
140	0x3f8427fdee7e300e	0.00984190353462824
141	0x3f8776cbe183cb6a	0.011457054919878213
142	0xbf8fffac4b522f9b	-0.015624376343360604
143	0xbf923290a73cbbbc	-0.0177710153649817
144	0x3f75b09d6d727d5a	0.005295386267931102
145	0xbf8c1ce57d534cac	-0.01372699059212431
146	0x3f78b237e23601e6	0.006029337211089536
147	0x3f837fb3a577f5a1	0.009520915496063877
148	0xbf7d2ad38e773807	-0.007120920555690808
149	0xbf8710ab11bf3125	-0.011262260893908202
150	0x3f68dc8ba13347c8	0.003034851755367083
151	0x3f7d5ab555d36f70	0.007166584339952084
152	0xbf8269a6b642531b	-0.008990576207261783
153	0xbf7a073a0b0f5f39	-0.006354548197997017
154	0x3f9ae236480dbf06	0.026253555438812824
155	0x3f7d61568c78cd11	0.00717290695279195
156	0xbf69a0ed508e4abd	-0.0031284937908336572
157	0xbf4a834dcec52519	-0.000809109680212891
158	0x3f977f9371dc0ef7	0.022947601150931054
159	0xbf8e59c3695ae7d2	-0.014819647457773675
160	0x3f8c61b8dff83c4f	0.013858265242587956
161	0x3f6900c434eb3a5d	0.0030521232759846265
162	0x3f4c3187ccd84174	0.0008603966795722021
163	0xbf73f65fb687b8f3	-0.0048736323155777915
164	0xbf90176262eba762	-0.01571420410883862
165	0xbf729259381bd8b3	-0.004534100067522018
166	0x3f76c421e3415793	0.005558140157594499
167	0xbf8db1496b4ad9d7	-0.014498303973010813
168	0x3f797168536b2944	0.006211669466845319
169	0xbf89229bab0fede7	-0.012273040922074109
170	0xbf730a82b71b04ae	-0.004648695570439161
171	0xbf73c79d44bfcfe7	-0.004829038934975194
172	0xbf86bf5d5612dc5f	-0.011107186497936348
173	0xbf6fd7430104e686	-0.003886824481153908
174	0x3f7c3903f7256128	0.0068903117083538926
175	0xbf587bcad745831b	-0.0014943581455428348
176	0xbf63d0749b2adaee	-0.002418735262235009
177	0xbf8b0b87b6549957	-0.013205585719856456
178	0x3f9378f77f5e753d	0.01901613917254007
179	0x3f7894ca88f77683	0.006001273300595525
180	0xbf8e2af648e21997	-0.01473038110658535
181	0xbf7e5a51ea82dfe5	-0.00741035459957826
182	0x3f446c653fb73551	0.0006232733134596079
183	0x3f834fc11b013320	0.009429463039987207
184	0x3f7ba0bcbac86c32	0.006745087838250051
185	0xbf822f77fd7e231a	-0.008879601882442457
186	0x3f630ed9780bc76b	0.002326416725161919
187	0x3f888e426b3f2f7a	0.011990088365471985
188	0x3f6775a507db01d6	0.0028637145286156502
189	0x3f8285d9115cb4ac	0.009044357149458136
190	0xbf704d8075af890f	-0.0039801614720735975
191	0x3f75c95b178113db	0.005318981006046076
192	0x3f83f16a12239c96	0.009737805059968612
193	0xbf92c45dcd699a12	-0.018327203428635093
194	0x3f7cb24b70d7b206	0.007005972567168067
195	0xbf89bea10739aa11	-0.012570627243992967
196	0x3f884dfee6ea5023	0.011867515012717494
197	0xbf89ef47aa954c7e	-0.012663421529089055
198	0xbf95f78d7db1df77	-0.02145215110473894
199	0xbf61d35945b41c54	-0.002175974235459269
200	0x3f7ad7665fdac9b0	0.0065530776025063825
201	0xbf715707eb4b938b	-0.004233389791555529
202	0x3f1090bc3d85eb02	6.319188049090307e-05
203	0x3f89b70738881f49	0.012556129849158675
204	0xbf773c692fb5bd1d	-0.00567284668373638
205	0xbf60e0e8f559dd96	-0.00206037044227587
206	0xbf6132c3a3079885	-0.0020994015724112324
207	0x3f7175077c2b3642	0.0042619984039454235
208	0x3f922739dbee200e	0.01772776036116857
209	0x3f779ade23f85107	0.005762927757605014
210	0x3f7dc3cadb41235d	0.0072668003159116175
211	0xbf7dfb9cb9a4f81d	-0.007320034225186259
212	0x3f7a0d1f4d3cfd70	0.006360170624076886
213	0x3f21e075b5093ff8	0.0001363891301644491
214	0xbf86b99ca8581408	-0.011096214187100287
215	0xbf8c7a943fd4a8fc	-0.013905676076849442
216	0x3f8c6e9273f389eb	0.013882774509004178
217	0x3f8676febd097a65	0.010969152587844986
218	0x3f750cfce40cca5b	0.0051393393085158124
219	0xbf7d054862fc5626	-0.007085116157914883
220	0x3f67c85bb755c5cb	0.002903155453787253
221	0x3f7b6e24f10f8bac	0.006696838668150667
222	0x3f550c1684f5bbbc	0.0012846202770011436
223	0xbf52881ad2f6b3db	-0.0011310827211261562
224	0x3f73b527e6faf0ee	0.004811435573796026
225	0x3f6b47eaf6511709	0.003330191526887631
226	0xbf42fdc081279360	-0.0005795659984043459
227	0xbf80943dd3a1b56b	-0.008095248242365035
228	0xbf74a09cb342979a	-0.005035984144489714
229	0x3f4a91194df59cc6	0.0008107541615744111
230	0x3f6433ccecd05345	0.0024661066477257598
231	0x3f7c577e2be2be8a	0.006919377190726226
232	0x3f90796cff140ad1	0.016088202542060174
233	0x3f8dad5508075af1	0.014490761096494139
234	0xbf8184cdee201f6e	-0.008554085568917204
235	0xbf606827b7d1134f	-0.0020027900450564694
236	0x3f8639072e5a3e59	0.010850959875170195
237	0xbf7da1bea4d55f35	-0.007234329893741
238	0xbf951cc60d4fa657	-0.020617575228163734
239	0xbf7c857041fbfcf7	-0.0069631943767938164
240	0xbf93c3accce44812	-0.019301128392790252
241	0x3f876154c7325532	0.011416113213537391
242	0xbf948d5ef9cec357	-0.020070537564325388
243	0xbf810cb2630902a1	-0.008324998519243567
244	0xbf722ad37767fb20	-0.004435373345130583
245	0xbf59257f774fd306	-0.0015348191056975837
246	0xbf710f186e6e9978	-0.004164786753710785
247	0x3f820e556185aad7	0.008816401518477885
248	0x3f3bc6c1763f9aac	0.0004238340682135948
249	0xbf95ebc006b7291a	-0.021407127771262947
250	0xbf524b3bbd81086f	-0.0011165698433761825
251	0xbf94211f14c950ac	-0.019657598155689612
252	0xbf556a87aee6531e	-0.0013071370154637617
253	0xbf8410fcae4c5a71	-0.009798025197182288
254	0xbf7d10e7ab113ce9	-0.007096199945478812
255	0xbf904135e73e26fc	-0.015873758543910363
