approx-error/weights/w_10_977.npy (npy, 78288 bytes, 1 tensors)

array f8 [10, 977]
000000 69 57 c2 99 bb f0 aa 3f 61 5f 60 43 db 4a 94 bf
       0.052617895621706996 -0.01981680487378357
000010 f9 57 32 7b 14 85 91 bf 4b c4 69 f6 aa cb a1 bf
       -0.017109222430541113 -0.034756987170915986
000020 af 7c 95 d5 c9 b4 9c 3f ac ef 4b 92 ff 15 b3 bf
       0.028033403073433657 -0.07455441781706779
000030 ad 65 03 2d 37 f0 ac 3f d4 d7 93 41 f2 3f 99 bf
       0.05652019905546566 -0.02465799832585687
000040 93 02 28 93 5f 2a 85 3f 57 5a ea 19 29 8b 80 bf
       0.010334726980546527 -0.008077927688004012
000050 6c 41 9b 7c e5 3f a8 3f 1f 24 8b 2e 87 15 b1 bf
       0.04736249109339749 -0.06673474203411488
000060 e9 31 08 c2 be 63 85 bf 50 70 85 f0 8d 7a 89 bf
       -0.010444155022036621 -0.012440785315156827
000070 db 44 d6 b7 d1 cd a2 3f a1 58 3a 39 fa 3d a2 bf
       0.03672652596572742 -0.0356291003092093
000080 b9 cb ba ee d6 e0 76 bf 41 de 90 51 84 1e 9d bf
       -0.005585517482972807 -0.028436725119006082
000090 d3 42 40 f6 77 67 56 3f 27 b6 b3 a6 18 55 93 3f
       0.001367442274389831 0.01887930409878016
0000a0 ff 9b b8 6a 11 41 a2 bf 6f 7a 73 55 54 fc a2 3f
       -0.03565267970798657 0.03708137076477135
0000b0 0a 9a 98 6d 0b e8 9d 3f 92 2c ad f0 08 ab 90 3f
       0.029205492557730785 0.016277446450925277
0000c0 a3 5b 23 20 ce e1 9d 3f 87 c4 4d 57 04 ae 96 bf
       0.029181690894656175 -0.02214819701061235
0000d0 ce 2d fb fd 30 4e 70 bf 49 b8 56 c0 47 0a 9f bf
       -0.003980819106526435 -0.030312653650689723
0000e0 58 c1 0a 87 a7 c5 81 bf 8a 4b af 9b 9f 97 91 3f
       -0.00867777710786359 0.017179960133784124
0000f0 26 d3 7b 79 61 f1 96 bf be ab a6 d1 3a 52 8a bf
       -0.0224051695249329 -0.012852153323214096
000100 56 9b 7c 00 45 cb 96 bf 86 b1 08 32 3d 09 9c bf
       -0.022259786753376552 -0.027378994158583157
000110 56 d4 f7 98 06 44 96 bf 54 05 df 06 d2 e2 3a bf
       -0.021743872724944012 -0.0004102480660287029
000120 e1 d7 d1 b1 ef 87 a2 bf fc a0 41 ad 5b 1a 7f 3f
       -0.03619336171770705 0.007593496429855625
000130 8b 64 68 fa 46 87 ab 3f 0c 2f 4c d0 38 9d 98 3f
       0.05376645857558867 0.024037254060245636
000140 a4 7c b8 a9 0b 74 79 bf a0 4b 06 49 7c 71 9d bf
       -0.0062141852936569465 -0.02875322528559432
000150 01 af 89 4f a6 c8 98 bf 4a 4b 16 28 ea 11 ac 3f
       -0.02420291767559402 0.054824178117221026
000160 6a 8e 44 0a 1d f7 5a 3f b8 63 fc 40 2e 21 95 bf
       0.0016458304972467815 -0.020634386745857575
000170 2b 65 e2 34 cb 54 79 3f 5c b5 f3 23 b0 6a b1 3f
       0.006184381271077381 0.06803418042882953
000180 92 b2 68 5e d6 e2 6f 3f ec 20 08 b6 1b 79 94 3f
       0.0038923441782315405 0.019993241296135375
000190 e1 4c 24 c6 ea e9 83 3f 38 80 4a c1 67 5e 87 bf
       0.00972350518399029 -0.011410532556794903
0001a0 b0 b2 f5 13 f7 f2 a2 bf a7 ea 47 4b 08 2d 87 bf
       -0.03700992697381389 -0.011316361234084594
0001b0 12 c3 4a 91 79 b7 7b bf ae 9c e9 b9 6e 75 93 3f
       -0.006766772149305893 0.019002657029343943
0001c0 5d 3b 56 d6 66 d4 9b 3f f5 6b e4 7f a5 e2 9e 3f
       0.02717743571480057 0.030161462717938254
0001d0 99 23 4f 7f 3f f2 82 3f 2e 66 3b 1d 5c 5c 9d 3f
       0.009251113960901768 0.0286726372567953
0001e0 73 2c 03 6a 20 06 99 bf 03 06 6d b3 7e c7 a4 3f
       -0.02443743369148561 0.04058452549226035
0001f0 04 38 ff 64 a6 03 91 3f a0 0c 66 61 a2 c6 83 bf
       0.016615486063351184 -0.009656208608026795
000200 c9 ad 5e 6a 5a 34 90 3f 2b 4c 7b ef dc 0d 64 bf
       0.01582471155385948 -0.002448016657447668
000210 08 d6 25 9c bb c4 a2 3f f2 c4 1d 7e eb 34 a9 3f
       0.03665720254040755 0.04923187174325418
000220 f7 68 fe 15 d1 1f b2 3f 22 08 1a b5 51 29 a7 bf
       0.07079798495252364 -0.04523711524690578
000230 15 36 aa f8 7e f3 a7 bf 4c 86 87 ca c6 bb 90 bf
       -0.04677960191211753 -0.016341310607350487
000240 e5 2c cb af f3 3b 75 3f be 80 68 8f 2b 10 9d 3f
       0.005184127713344843 0.028381996753638054
000250 0d bd 26 2c 8f f0 84 3f b4 b6 8c 3b fc c4 b0 bf
       0.010224455389872955 -0.06550575689171972
000260 57 11 68 c9 63 50 84 bf ba be 14 1f eb 76 9b 3f
       -0.009918956359805149 0.026820825359378665
000270 52 a5 1a b6 96 87 7e 3f f9 8a 28 a9 c6 46 99 3f
       0.007453526226222822 0.024684051584823206
000280 cf e3 12 3d c8 7f 7d bf 42 18 24 7b 1d a3 7a bf
       -0.00720194070998388 -0.006503214988930197
000290 c6 cb f5 25 e6 c0 78 3f c8 fd 1b c7 13 34 8b 3f
       0.006043337837911394 0.013282923234782099
0002a0 e1 ee 65 e3 9c 4f 7a 3f 71 53 b3 5d b1 94 6f 3f
       0.006423580975361638 0.0038550819568662843
0002b0 bc f3 27 64 11 3f 96 bf 5b 17 2c 8b 52 0c 89 3f
       -0.021724960077324815 0.012230534431647724
0002c0 2b 28 96 e3 e1 29 70 3f c6 a2 03 9b 9f bb a2 3f
       0.003946192149109999 0.03658770339263166
0002d0 44 b1 0e 11 6e e2 a3 3f ed df 77 30 2d 91 78 3f
       0.03883689840526697 0.005997826119248356
0002e0 02 c4 4b b9 9e e5 88 bf 8a e9 2b 69 e9 2f 95 bf
       -0.012156715421470569 -0.02069058136383143
0002f0 65 e3 f8 5c 61 18 8c 3f 2b a0 cb 6e fe 85 64 3f
       0.013718376779353123 0.002505299510051647
000300 d4 2f 7c 44 cf cf 86 bf 99 f0 3e 58 63 23 57 3f
       -0.01113855293035463 0.0014122457659900055
000310 be 1b 38 a4 dd 90 94 bf 5c c9 00 dc 7b 27 97 3f
       -0.020083869121687796 0.022611556342050462
000320 78 94 3b 1a c5 a9 8d bf 26 ae 47 a2 14 4f a4 3f
       -0.014483966696795955 0.03966583710629505
000330 83 5e 8f 7c aa c4 8a 3f 5f 0c 6b c3 7e b0 93 3f
       0.013070423055906893 0.019227963139894274
000340 a0 8b f4 e5 d5 28 a2 bf cf 98 f0 5f 62 79 76 3f
       -0.035467800446233655 0.005486854816842703
000350 10 ec 50 b7 96 90 98 3f a1 e9 ed e7 8b a2 9f bf
       0.023989062250830584 -0.03089350321850193
000360 6d 8d ba a1 4c a9 81 bf 75 c4 54 43 40 4f 51 3f
       -0.00862369411999594 0.0010564925735929963
000370 ad 6e 87 27 0e c6 a6 bf a5 b6 49 93 7b e8 84 3f
       -0.04447979195148597 0.010209050590869248
000380 8c 79 e5 42 59 11 9c 3f 4a ef 0e 07 c2 82 9c bf
       0.027409929950744025 -0.027842551880652246
000390 81 4d aa c1 77 41 87 3f 14 47 ee 6e c3 c3 a5 bf
       0.011355338666624306 -0.04250918130050088
0003a0 17 ab 1f 82 74 89 54 bf 98 d6 43 44 55 cc aa bf
       -0.0012534749771428483 -0.052340187628869106
0003b0 05 7e 61 24 60 99 a2 3f 60 10 9f 09 87 20 8b 3f
       0.0363264126215164 0.013245635014648538
0003c0 fa 4d 36 94 47 21 4a bf db 99 48 19 72 b6 99 bf
       -0.0007974242693528637 -0.025110037606418927
0003d0 53 d4 c2 6d 2e 20 a5 3f 1a 2b 88 5d 03 50 b0 3f
       0.04126114930969806 0.06372090371602859
0003e0 c1 c8 f4 1e b8 d0 ae bf c2 64 f9 57 92 80 a4 3f
       -0.060186151293593955 0.040043423880612675
0003f0 bd 8f 1b 5b c4 fe aa 3f 8c 88 59 c7 97 6c 86 3f
       0.052724968072453283 0.010949311991854914
000400 f2 dd 2a a9 ea e3 a3 bf d5 a9 37 9f 46 a3 9c 3f
       -0.0388482409957155 0.027966598003254923
000410 30 24 19 03 4a 01 78 bf 28 1e 4a 3a 51 08 94 bf
       -0.005860604390883359 -0.01956297796507847
000420 74 a0 77 9c a5 66 a4 bf 81 bf 07 dc 00 43 92 3f
       -0.03984563384057163 0.01783372252424398
000430 30 49 5d b2 48 4c 9a 3f eb 66 e4 2d d7 ae 94 bf
       0.025681625257967855 -0.020198213745152776
000440 91 60 66 fb 94 44 91 3f 19 2b 74 c6 b4 fa a2 bf
       0.016863181919319962 -0.037068986153903256
000450 75 96 40 57 2b 99 9a 3f 44 f6 21 58 f9 b6 58 3f
       0.025974919510324008 0.0015084681513423273
000460 0e 6d 4e 06 2f c1 78 bf 4f c3 51 2f f8 ff 6a bf
       -0.006043609323479927 -0.003295883880632656
000470 9b 9c db b9 53 d2 9c 3f 46 2e 72 af 46 e4 98 3f
       0.028146084040511537 0.024308304270148427
000480 dc 02 49 8c 10 90 91 3f 56 79 53 08 46 45 72 3f
       0.017151125490502447 0.004460595669313191
000490 8b bc 3b 8c ac a6 64 3f fe f2 0a b2 1a 83 94 3f
       0.002520882613559266 0.020031373135441115
0004a0 4b 41 49 66 1a d9 7e 3f f0 52 d7 e0 06 a4 96 3f
       0.007531264422667337 0.02211008784600471
0004b0 42 d8 67 82 d7 92 84 bf 0e 5e e7 84 fb 30 b4 bf
       -0.010045703570522705 -0.07887241358491101
0004c0 88 7d b0 82 b2 3a a1 3f 4a e9 58 3f cc 22 b2 3f
       0.03365094991044787 0.07084347292485407
0004d0 23 1a c2 1e e0 47 8d 3f 47 77 d4 59 e9 93 6a bf
       0.014297247828165166 -0.0032443578371745027
0004e0 2d 1b c3 6b 98 1a 72 bf 5c 96 1b 63 c9 97 6f bf
       -0.004419894594497359 -0.0038565572111675505
0004f0 af 9c d4 40 bd 7a 42 3f 1d 3a 1b 6a ed 9b a2 bf
       0.0005639480674845177 -0.036345881655155156
000500 b9 64 fd cd 03 27 91 bf bb b9 f3 e5 3a 89 a0 bf
       -0.016750392387028443 -0.032296982355421965
000510 61 de 4e 9a 75 81 80 3f 0a 6d 1c d2 fa ad 83 bf
       0.008059424182518872 -0.009609183823661844
000520 7b 93 8b 8f 30 6d 90 3f 25 cb 6a cc 1c 2e 77 bf
       0.01604152561312187 -0.005659210676344261
000530 be 9b 22 be d5 5b a0 3f 42 0a e4 d6 11 55 7c 3f
       0.03195064493166154 0.006917066273902041
000540 76 c1 6a ff b1 2a b2 3f 9b ea 98 cc ab 73 af bf
       0.07096397863165813 -0.06142937538648604
000550 b2 fc 16 61 6d 75 95 bf 42 9b 7c b7 29 e7 9d 3f
       -0.020955761958018022 0.029202129196302502
000560 37 d4 01 58 73 f7 b4 3f 0a 7f 28 e7 aa 7e 80 bf
       0.08190079592334674 -0.008054099254024578
000570 85 21 ba 64 30 2d 57 3f 2f 11 65 67 2d 07 7e bf
       0.0014145824997361122 -0.007331063612870544
000580 bd f5 8b 11 2c 15 a6 3f b5 ea 7f f9 77 0f 83 bf
       0.04313028063004818 -0.009306847859979464
000590 5c 01 b2 41 f4 8e 96 3f a4 21 f1 bf 52 37 85 bf
       0.02202970171902173 -0.01035942695865872
0005a0 e5 e4 55 2c 19 1b a5 bf c2 b7 66 6c 1c cd 84 3f
       -0.041222368871737726 0.010156843240874628
0005b0 73 a0 69 f2 e5 b0 90 3f 8d e8 14 12 d9 72 a5 3f
       0.016299813194934076 0.04189184518550446
0005c0 13 27 4d 19 12 4f 6d bf b8 c0 ed 41 75 7a 94 bf
       -0.003577742909702483 -0.01999839033982262
0005d0 ab 29 11 77 cd aa 92 3f 6e c6 4e 6a 13 f1 7f 3f
       0.018229685203815 0.007798267212750438
0005e0 b9 4e b1 c5 a6 9e 82 3f 08 cd 83 43 d0 66 63 bf
       0.009091666133975594 -0.002368361249062926
0005f0 f4 e6 30 ba a0 3e a3 3f 8b 42 e8 83 3f 83 88 3f
       0.03758718750800752 0.011969085896482731
000600 37 99 6c fb e6 96 af 3f da 2d 7a 5c 62 6d a2 3f
       0.06169816798346733 0.03599078539727048
000610 d2 00 c0 43 75 dc 95 3f 60 19 fd 79 dd fd aa bf
       0.021348793277866936 -0.05271808733100403
000620 94 ab 53 18 b8 fa 93 3f 49 f8 ff b8 d3 e1 8b 3f
       0.019511105046074187 0.013614324649093972
000630 7a 8f ec 46 5d e6 9a 3f 6b 7d 4b 61 8c 52 a1 3f
       0.026269395307408662 0.03383291900331183
000640 1a 2b 2a d9 47 98 8a bf 03 27 5e f3 36 55 9b 3f
       -0.012985764803735079 0.02669225559615197
000650 5e 62 72 e7 ee a6 92 bf ab 50 88 2c 10 36 b0 3f
       -0.018214924694435523 0.0633249386522176
000660 2e 45 47 9e 45 17 a6 bf 47 67 18 47 a0 33 ad bf
       -0.0431463008604943 -0.057034500769261025
000670 c9 32 e8 95 b8 60 ab bf 68 f8 cb 65 56 8a 9d bf
       -0.053472297953793886 -0.02884802814787016
000680 73 4a 47 ac 99 8f a2 bf fb ce 96 c9 9c 38 b0 3f
       -0.03625183322914873 0.06336383744820388
000690 9a e7 b4 91 13 a9 85 bf 0a cd b3 14 ce 44 a6 bf
       -0.010576393970598553 -0.0434936905166073
0006a0 4d 33 3f d2 81 7b a2 3f 73 b2 ba f6 96 74 93 bf
       0.03609853450288956 -0.01899944191852616
0006b0 45 6c d8 9e 7f 83 a4 bf 0f e8 e7 31 5e 0d 9d 3f
       -0.04006575407057559 0.02837130717851016
0006c0 04 3c fa c3 68 ad 94 3f 02 7a 7e c0 0c db 8c bf
       0.020192753755107887 -0.014089679359867272
0006d0 7e 90 0f 7e 35 58 a7 3f 3c dc f6 df 2b 21 71 3f
       0.04559485591724498 0.004182025324033719
0006e0 5f f9 d4 db 54 d1 aa 3f aa 87 00 e5 20 ad 90 3f
       0.05237832244391671 0.01628543279378617
0006f0 c0 65 13 d7 75 da a9 3f 5a e5 69 23 20 08 6d 3f
       0.050494844917647 0.0035439136220786595
000700 31 26 03 36 db 3a a4 bf b7 6e d3 9b d4 4f b4 3f
       -0.03951153787927487 0.07934311680167637
000710 19 86 45 f8 8d 1a 92 bf 27 d6 2d 50 e4 61 7a bf
       -0.017679422643942375 -0.006441013191638179
000720 26 85 b4 46 94 3b 97 bf 4c a3 55 25 aa fc 7a bf
       -0.02268821412611035 -0.006588616020373927
000730 ff 09 e1 15 5b 19 80 3f cf d3 a6 05 88 c7 7a 3f
       0.00786086235541905 0.006537944160688049
000740 36 64 fa de 30 ed 95 3f be c5 1e da 3d b9 ad 3f
       0.021412623986723577 0.05805390632248074
000750 6f d1 38 66 99 f7 6f bf f6 cc 0e 78 a6 73 a4 bf
       -0.0039022441940465484 -0.03994484153317927
000760 8f 56 99 27 f3 9b a3 bf a7 2e ac 81 64 15 96 bf
       -0.038299177726611615 -0.021565981306635475
000770 71 94 57 f8 63 c4 ab bf 7d f3 d7 72 e9 5d 9b 3f
       -0.0542327156688679 0.026725433001036237
000780 9c 1e 8f 0f af 86 90 bf 00 e1 1a 40 96 a1 84 bf
       -0.01613877804245921 -0.010073827582673278
000790 36 ff f3 ea d9 0f 10 bf 7c 7e ac 95 d8 29 a7 bf
       -6.127135815247879e-05 -0.04524113490174117
0007a0 a5 70 55 eb 0b 92 9c bf 34 4c a8 f0 73 61 96 3f
       -0.027900873411781508 0.021856128276407996
0007b0 a6 eb 83 0e 74 84 94 3f 7c 3a 44 a1 92 66 8d bf
       0.02003651941866349 -0.014355798288787407
0007c0 24 e2 8b 33 44 07 ae 3f ef 07 d9 ee ec a7 a5 bf
       0.058649188320434115 -0.04229679504034311
0007d0 7e b6 e7 98 0f e3 86 bf df 5a c5 ee e4 a0 7e bf
       -0.011175271848482323 -0.007477659481387205
0007e0 74 db af e2 83 29 b7 bf 60 2a 27 62 3b 11 b0 3f
       -0.09047722133969477 0.06276293894112817
0007f0 a2 0d 7f 8f 91 4d 88 3f ab c3 e1 78 2c 53 a1 bf
       0.011866700355205154 -0.03383769012078316
