approx-error/weights/w_10_587.npy (npy, 47088 bytes, 1 tensors)

array f8 [10, 587]
-0.06567223681211538 -0.008165832898506833 0.009716941885819506 -0.04212237287794889 -0.033987230774250775 -0.07004017895025758 0.08377647433671216 0.009352846000727166
0.04192046219621907 -0.0626132031577135 -0.015875529695821167 0.05412425622952981 0.002606884725970402 0.008360891611900408 0.016123845331966393 -0.0602391677940849
-0.0008433196552099777 0.022124400140287995 -0.01690399608593086 -0.0763731195583214 -0.041144052236352625 0.028803643314185647 -0.01768415429127067 -0.02771894515255875
-0.008342538733574897 -0.03881098163217483 -0.023572748223781276 0.07700315755523142 0.015875954557487946 0.005343981583471605 0.03134516741930227 -0.030352605570264538
-0.00532455880308979 0.08031663741267688 -0.04209986738228724 -0.018136969733973513 0.061403599138640054 0.04258403169144997 -0.004216307016208589 -0.004070200928230193
0.04307420151539635 0.033878312222023164 -0.04602690563460877 0.021369620634887444 0.0010678861456818317 -0.04382095424249443 0.026696842597261405 -0.002527302317329558
-0.021641542414102485 -0.11404295089840742 0.029924595660262378 -0.06950553197978646 -0.021150922230577428 0.042960382185061416 0.004374015543128588 0.0011211046263085082
0.02992406232112432 0.009310455721911264 -0.025745857969224507 -0.016936182540369896 0.09160194924538774 -0.07066685373733099 -0.018647607968455156 -0.005921937646955022
0.06360253384229594 -0.029502695559970923 0.015667241477419117 -0.04683876431720744 0.033356232625348946 0.042499433142845745 -0.023345877514135777 0.02674839919278107
0.027781337942424763 -0.0904680094490284 -0.017372488957558243 0.016430593941688696 -0.08932119513894195 -0.040932023826623885 0.02083656955282855 -0.029395632789030984
-0.06026962687721549 0.01683435153076627 -0.007680858485484643 0.049601769575542444 0.008998950722034974 -0.015620110777813525 -0.02030152588604136 0.07392329394690535
-0.03338959245802168 0.0418230025368198 0.05817781518839777 -0.028698496394124536 -0.036703466610999144 0.018665330531790935 0.03972555853550041 -0.0024324461130109326
-0.013235886565602024 0.00075529389561575 -9.159470471855244e-05 0.0043994552294074635 -0.032660256883540004 -0.030175596765560857 -0.0023643007861093674 0.0069667029009561066
-0.022832421126586257 -0.020423353543970523 -0.028653301676370105 -0.07496576782113307 -0.012111189421472405 -0.03736045970271915 -0.02247749198376393 0.05568369811167517
0.045776792826562086 -0.04231629738914644 0.0022988075693833494 0.0031362768421735686 -0.04568505301553589 0.017485089672541566 0.023613681029274886 0.06363104050278931
-0.006783515953699682 -0.07760137896566138 -0.030038979613184906 0.03043658380895676 0.00947279125090178 -0.023231894759040403 -0.06318873442386472 -0.08332553063116474
-0.03277898732934649 -0.022801219683525647 0.009310662701588352 -0.036918681982501686 0.037907309994209167 -0.06395491534639887 0.02044945257864835 -0.029704633142871813
0.001317693978657965 -0.03633368173176705 -0.0014807228119783525 -0.04189201520006016 -0.04706227016554213 -0.03657838496661823 0.036732479526600983 0.04144283068676384
-7.614816737335778e-05 0.06413606567627914 0.042568426575319986 0.05159212391720831 -0.07116128852886411 -0.019540140523627958 0.045338229299326245 -0.005180012008819127
-0.05504295862191429 0.05407829040393706 0.0708402240963075 0.06966841770664595 -0.010245241116010974 0.054360019779069436 -0.00019998075381692793 -0.02957385884430438
-0.029474365725146234 0.09405712073176617 0.07180953368360643 -0.0779342638152961 0.08254788840403587 0.050961061299265115 0.05189763894037154 0.036672093276274166
-0.03181375394740007 -0.08328452302176212 -0.07028749616610123 0.00708420023000302 0.01781904995124897 0.001292469209803028 0.01886668549307596 -0.030057030818163875
-0.0059425948857739185 -0.057310758401448385 0.033979617748885034 -0.011851020055914256 0.015557797363908788 0.020595086261358017 0.0015603585838223264 0.011784379417072374
-0.062375167382846895 -0.02587733456024241 0.02867047024035029 0.021699466513227628 0.0385937343610709 -0.04063756527501418 0.023814326915947658 -0.053378686934171596
0.031000053722193263 0.030948962786125588 0.03361773350350416 0.05010830535953714 0.08760285819367444 0.027636531985400076 -0.04211351599684289 0.04922968444969241
0.0520327837423325 0.044788336297993385 0.038731285803887225 -0.02322717442622569 0.014227158738974554 -0.005181297146157842 -0.04781495053054667 -0.017446495729993405
0.05572884879503755 0.0029756768725183514 -0.0686919476567318 -0.06583296743111405 0.02718059151332275 -0.011833702225232801 0.029708316125562958 -0.018254743219057984
0.019875549742466418 0.06934845829099205 -0.028483078746895683 0.014571567319450194 0.08212590998456659 -0.0022721614678617033 -0.03439605229362933 -0.016961356348830586
-0.02436792813607312 0.0031123073480694013 0.020864391611482565 -0.04326191035769249 -0.002674530456564063 -0.06133745276160464 -0.005224559949583095 0.009733394900887841
-0.015028827985541041 -0.03543021021393846 -0.011137714424271031 0.007224406743332738 0.028735788397456136 -0.013957947872471592 -0.01302362063229704 0.022389996933899474
-0.024920570371476714 -0.009715582951681886 -0.022733044335388357 -0.03414254529412143 0.04392344604705326 -0.02814279374596711 -0.0019681695564460634 0.009022882902122593
-0.026794457719952047 0.026077500027295336 0.01997128720540689 0.033898444561461266 0.02006286106888007 0.03814210355486428 0.06483740031139043 -0.07639259095834454
00000000: ddfa 5c4d e5cf b0bf 8e12 f389 3fb9 80bf
00000010: bf0e efdc 79e6 833f 77a4 e14b 1091 a5bf
00000020: db63 5039 c666 a1bf ee51 ff35 27ee b1bf
00000030: ed4a 7301 6072 b53f 40c8 94bd 9527 833f
00000040: 65f9 544c 9976 a53f fb34 dc3b 6b07 b0bf
00000050: 5da2 66c3 ac41 90bf f630 daac 2cb6 ab3f
00000060: 483c 8f94 085b 653f e4df 4ee0 831f 813f
00000070: d7d5 8bf1 c482 903f b14a 3a0f abd7 aebf
00000080: f7ee 6a2b 47a2 4bbf 3143 2f5c c7a7 963f
00000090: a371 71f9 474f 91bf aae6 cb52 308d b3bf
000000a0: bd62 8f4d d510 a5bf ca09 29c8 b37e 9d3f
000000b0: 3d8c 5a81 cb1b 92bf b3b1 a3eb 5a62 9cbf
000000c0: ebe5 3598 e415 81bf 37f4 ab71 08df a3bf
000000d0: f8bb ca5a 7423 98bf bd71 639b 7ab6 b33f
000000e0: 6901 7846 c941 903f 835d 1a22 92e3 753f
000000f0: 7037 e849 790c a03f c137 17e1 c014 9fbf
00000100: 7963 cc5e 34cf 75bf 6d1b 0393 a18f b43f
00000110: 044e 2523 1d8e a5bf 4580 6c6f 7f92 92bf
00000120: 5576 50e4 4a70 af3f 6fa9 e4fe 92cd a53f
00000130: 9c84 e94b 1e45 71bf 8b94 ff3d eaab 70bf
00000140: 95b0 9e5d d20d a63f 9b14 1386 7f58 a13f
00000150: 219a dfac d690 a7bf fde1 04f7 eae1 953f
00000160: 405b 9404 0a7f 513f afb9 b33a b36f a6bf
00000170: d060 72c7 6a56 9b3f fae3 9919 23b4 64bf
00000180: af40 9d53 3329 96bf b7af 7238 eb31 bdbf
00000190: 9ad0 d39e 8da4 9e3f 2688 be52 1dcb b1bf
000001a0: b6d2 0a5d 96a8 95bf 165a 0439 e7fe a53f
000001b0: abe2 5bdb 7cea 713f 5919 25ed 405e 523f
000001c0: bf7a 21d4 69a4 9e3f 8914 b136 5c11 833f
000001d0: 4ded f047 1f5d 9abf 2418 85f8 b757 91bf
000001e0: 3540 42b0 3973 b73f 938a b611 3917 b2bf
000001f0: 6f19 7ec9 5b18 93bf f3a9 5c08 9a41 78bf
00000200: f69e cb72 4148 b03f 8fb1 4b62 f435 9ebf
00000210: 1463 0ec7 120b 903f bddb da21 40fb a7bf
00000220: a3be 7c70 1114 a13f 2de5 e456 7cc2 a53f
00000230: c8b4 ad51 fbe7 97bf 876d 03af ee63 9b3f
00000240: 7f7b 9b07 b672 9c3f adf4 ea55 e928 b7bf
00000250: 57fb b0ff 17ca 91bf 499c 887e 2ed3 903f
00000260: a51d f6fb c0dd b6bf f38d 63cf 0af5 a4bf
00000270: 8531 2983 2e56 953f f87d e585 e319 9ebf
00000280: 5070 c218 a9db aebf ba95 1835 063d 913f
00000290: 277a 01c0 f675 7fbf 4526 4d34 6765 a93f
000002a0: 1549 65b8 0a6e 823f 6ed7 9ac7 6ffd 8fbf
000002b0: 1631 f556 ecc9 94bf 2920 ea11 a3ec b23f
000002c0: e597 44cf 7018 a1bf 1f7a 3b18 d369 a53f
000002d0: 397e 2c8b 7bc9 ad3f 321c d47d 2363 9dbf
000002e0: a6f6 7cf9 cbca a2bf 33f2 cf20 011d 933f
000002f0: 8f5b 738d e856 a43f b235 2690 35ed 63bf
00000300: b76d 769f 6a1b 8bbf 6b12 4f4a ddbf 483f
00000310: 56e5 850b d102 18bf a2d0 49c5 2905 723f
00000320: ee34 635e d8b8 a0bf 8e41 fb04 5ae6 9ebf
00000330: d663 bc51 4c5e 63bf e0ca ed11 1e89 7c3f
00000340: 07d7 1bd8 6161 97bf 631a 2f0e dce9 94bf
00000350: b45e 7d86 4a57 9dbf e07d 1ce1 f430 b3bf
00000360: 4fda d853 c0cd 88bf 8d64 2c01 e920 a3bf
00000370: a38f ddf3 5604 97bf f0b5 9edc 9282 ac3f
00000380: 2d32 3648 0e70 a73f 6096 bf52 7baa a5bf
00000390: a8ce 91ea f2d4 623f 339f fcce 3fb1 693f
000003a0: 194a 3c01 0864 a7bf 7aa9 3e81 9ce7 913f
000003b0: 0820 094f 2f2e 983f 6e4d f8b5 1f4a b03f
000003c0: b4bf c432 08c9 7bbf 5432 c818 afdd b3bf
000003d0: 5ee4 2ccc 89c2 9ebf 22e8 3e90 c42a 9f3f
000003e0: e0e3 fe84 7866 833f 3c55 db10 1aca 97bf
000003f0: 267d d30b 232d b0bf 2692 fb6c d254 b5bf
00000400: 62ad 264d 68c8 a0bf bb0b 66f3 3359 97bf
00000410: d792 75fe 7711 833f 8ed9 7367 01e7 a2bf
00000420: 49af 6841 9668 a33f 99cb d46d 595f b0bf
00000430: d682 2f88 b3f0 943f b2a1 8d2f e46a 9ebf
00000440: 6ea1 d822 cf96 553f 09fb 8f0d 549a a2bf
00000450: ce22 5203 9a42 58bf c3de 7ec6 de72 a5bf
00000460: 2519 79be 8b18 a8bf 8d20 58ee 66ba a2bf
00000470: 5215 897c 99ce a23f 0619 e8a4 fe37 a53f
00000480: 6be6 d78d 37f6 13bf c6df 92a0 386b b03f
00000490: ed62 f75f 87cb a53f fa42 e969 486a aa3f
000004a0: 4c02 f94e a037 b2bf 806c 08a2 5402 94bf
000004b0: 79c4 3288 9236 a73f 8474 bbe2 a237 75bf
000004c0: daf9 4f36 972e acbf 8dc0 6a51 26b0 ab3f
000004d0: ce25 bcbd 9522 b23f 6c36 9d17 cad5 b13f
000004e0: f461 43fc 74fb 84bf bd70 5296 13d5 ab3f
000004f0: 0066 4e98 3d36 2abf 3713 3612 9c48 9ebf
00000500: 937b 7033 872e 9ebf 3eb5 7fa1 2014 b83f
00000510: 304c b60e 1c62 b23f 9714 53fa 7ff3 b3bf
00000520: d497 0cc1 db21 b53f ecb1 4c77 9117 aa3f
00000530: 3a1e facb 5392 aa3f 8d4c 9842 afc6 a23f
00000540: f3bd 8871 e449 a0bf 9634 a46e 2252 b5bf
00000550: abe3 5981 5cfe b1bf 951b e684 5204 7d3f
00000560: 4747 2533 283f 923f 0623 2e3f 022d 553f
00000570: 4feb b4d4 c951 933f 96f8 8331 45c7 9ebf
00000580: 3c21 012b 4357 78bf 6f1b 16f2 d557 adbf
00000590: d190 ecc5 c665 a13f dcdf 83fc 5845 88bf
000005a0: a79a 0137 c4dc 8f3f cca6 cdd7 e016 953f
000005b0: 566a 9a45 9e90 593f d88f 99a1 6822 883f
000005c0: 33d4 fb4f a3ef afbf 5858 9386 967f 9abf
000005d0: 9d48 2cb0 ca5b 9d3f a051 0f8c 6238 963f
000005e0: 5a97 d2d5 8ec2 a33f c2c4 b06b 72ce a4bf
000005f0: 43f9 1e6d c862 983f b212 5f85 7354 abbf
00000600: bced a463 7abe 9f3f a3ce 0bbc 15b1 9f3f
00000610: bf27 edf3 5736 a13f 50ec 8db9 cba7 a93f
00000620: 6a5b fa12 246d b63f 2567 3544 c04c 9c3f
00000630: 621e da1b e78f a5bf 3b5c 6819 a234 a93f
00000640: 487f fc80 0aa4 aa3f 6fc5 482f 7fee a63f
00000650: d62d b84b 96d4 a33f e210 284a ddc8 97bf
00000660: 59bd fdeb 2023 8d3f 469c b2dc fb38 75bf
00000670: 96bd 9381 337b a8bf d049 5c82 7edd 91bf
00000680: ba6d 09de 7d88 ac3f 4dd1 3a5b 7260 683f
00000690: 2f28 afa4 cb95 b1bf 3482 1dea 6dda b0bf
000006a0: 80e9 8a9e 3ad5 9b3f ed41 62a0 443c 88bf
000006b0: 8fce b658 db6b 9e3f 68ad 7d14 5fb1 92bf
000006c0: e120 8990 415a 943f e348 6310 d2c0 b13f
000006d0: f948 d40e ab2a 9dbf ff3f b5a8 b2d7 8d3f
000006e0: 50b7 8921 3406 b53f 2227 4366 119d 62bf
000006f0: a5df 6cff 5b9c a1bf e890 415b 515e 91bf
00000700: 7bb0 a9f9 e7f3 98bf a047 cd48 fb7e 693f
00000710: 3f30 7d9e 795d 953f f62b 4cd4 6c26 a6bf
00000720: eaa9 fa9a e5e8 65bf 4217 4363 9f67 afbf
00000730: 3e45 e921 5966 75bf 2f18 3a26 1aef 833f
00000740: f594 8f25 6fc7 8ebf f38b 5194 e823 a2bf
00000750: 02ad a2b9 5ecf 86bf 383e 21eb 5697 7d3f
00000760: 3841 911d ea6c 9d3f ef63 0d0d fc95 8cbf
00000770: d4a1 87c5 20ac 8abf 0ec4 5a42 67ed 963f
00000780: b0fe f82a c784 99bf d8f8 4f78 c3e5 83bf
00000790: fe06 d6c7 5447 97bf b282 e1b6 217b a1bf
000007a0: 2574 9948 227d a63f 8d2b 07eb 76d1 9cbf
000007b0: e4e8 17fc 8c1f 60bf 778f d7d7 967a 823f
000007c0: a328 7c9e 0170 9bbf 585c 1d67 0fb4 9a3f
000007d0: e8fe 9f65 5a73 943f 8cb1 8d0d 235b a13f
000007e0: 94c0 9ed0 5b8b 943f b5d1 bc9e 5c87 a33f
000007f0: 1a24 e511 2f99 b03f b3a2 d2ff 768e b3bf
