approx-error/weights/w_10_8621.npy (npy, 689808 bytes, 1 tensors)

array f8 [10, 8621]
0.0007880637606014838 -0.02238186322719987 -0.0019592189967242235 -0.0004393378810437889 0.005492723991404175 0.004079684798682312 0.006488577723402303 -0.0016169829834157723
-0.004738711368905495 0.01639678673428566 0.006314097288828016 -0.0029714662060026788 0.0018285235108732951 0.0022363268768513544 0.0008378971344864662 -0.006520590224549796
0.007486749104621486 -0.0018047253807012705 -0.0027071194033957743 -0.0031683055396465733 0.001377995395731682 -0.004262055288791913 -0.0032396357857387287 -0.0023413311763550004
0.003705147784495982 -0.013051682507902809 -0.005369887150858837 0.011919682268595324 0.019802265189642693 -0.0039693914521812665 -0.011669542444386963 0.008203296583257375
-0.006636572705685879 0.0019181034982594335 -0.004190696161340166 -0.0039597953679045665 -0.0013134826437499647 -0.009092389402396173 0.014515675280905428 0.009302867826877075
0.007148552601329142 0.0044578192762666415 0.01574139888358689 0.012498373982043677 0.00855539759208086 0.007089542090866199 0.004437915221926476 -0.0005323501195518899
-0.023821145480336252 0.014887858030240961 0.026407084392597247 0.0008470882197941806 -0.012735721868526723 -0.008231039845654957 0.02287000729206613 0.0008317244988596191
-0.000879789764387487 0.021269562098901428 -0.010063550237248035 0.0065034191556784336 -0.004667401900334989 0.004920807662521471 0.014114600081603673 -0.023506174201499423
-0.0008565572332666192 -0.006016768077146757 0.005737188040950389 0.0014750410964145604 -0.004140073348455916 -0.010449219252028403 -0.003857488820469585 -0.01782901079769214
0.005602887473993326 -0.014254935754443662 0.007064285965300322 -0.02953862571113644 -0.001250164598427294 0.004580334208050224 0.020043004364078472 0.001858529729836303
-0.003626613889050452 -0.011891519554015182 0.0057370435141602776 0.012995681303352559 -0.023827506361046965 0.019388390273195503 0.0028000029246275583 -0.02347853768907611
-0.0004961065393420823 0.0007406875756835786 0.0031194519822762765 -0.004893244780085112 -0.004235415332640492 -0.007365334251869504 0.007071668808951374 0.0020226053428836323
-0.00024733503531930597 0.0009238791021886152 -0.015059738286280667 -0.019088475726863036 -0.003766271697080731 -0.013003417503946348 0.005878691760501856 0.011845941805429396
0.010167797033980993 0.0017970933712928377 0.01762801096694938 0.006704428055349748 -0.002370921183999661 -0.007834788956646471 -0.01069225062826736 0.00048176137926952674
0.001823909872621065 -0.01923432805934988 -0.0007943565777420176 0.0027936922460097295 0.002403539509801087 0.008029708270212132 0.01736611301704851 0.010582853028209068
-0.0005285652140730878 0.0089368049695795 0.0003128500950806757 0.004567062550088747 -0.0063138543037401474 -0.0005104557045528274 -0.0006064349923974197 -0.0012332087454589129
0.012444621114121973 -0.015107188409412515 0.0027091124405177525 -0.01790860327132966 -0.004055358694669127 -0.013579475958517018 -0.008753793293528052 -0.016393982395332025
-0.0018833915264350842 0.011137218758957566 0.002179886438729337 0.006449863306603207 0.01094494335965501 0.01178677891883523 -0.013815006229040642 0.004972841947599491
-0.005080217199304502 -0.0011005036428805735 0.019900703777101528 0.0064804761866941165 0.0007102489686787158 -0.0004363503647829953 -0.00013026214953198805 0.017890296415522342
0.005491521841692301 0.013133759019139485 0.00876933701748534 -0.001318974558155197 -0.010049602961558374 0.013644761068355249 -0.0015445896228349233 2.4439156685882606e-05
-0.011353704471733572 -0.027189373404529586 -0.0007657752234028534 -0.020840862288217497 -0.020711385457145338 0.00995041477985413 0.006808692885501536 -0.0007654803567471885
0.014189265288026118 -0.014763985916865138 -0.0025566425286127526 -0.001076661366356149 -0.01063824039815005 -0.020241486367523244 -0.0033046743644430817 0.011029613083833567
-0.00163782972379717 0.0004366972022962829 0.01978764840208411 -0.005251365634960952 -0.00506410610411386 0.0073637884520273145 -0.005001719765751036 0.006397952006053683
0.008922802112997766 0.018071273953152413 0.007386769443775028 0.002258113600152195 -0.009134488947513508 -0.0018693858441158203 -0.003913297758614526 -0.009584117612808694
-0.004232818875320135 -0.02308373745662148 -0.008280493321264126 -0.014260217204524028 -0.0049286946899972685 0.013783041594205268 -0.005149928213629755 0.0036908382110594803
-0.004634242039412589 -0.001587418681258348 0.00880703860191259 0.025337846519445727 -0.010441348679197746 -0.008548993676497158 -0.0007396344343954734 0.00229413499490513
-0.000972907604750376 -0.008491022677631247 -0.004026829659467822 -0.00706312518605305 -0.0008303215704372521 -0.015030981438750802 -0.0010984882885843586 -0.007773269951985599
-0.012456771952680806 -0.0017390578468692867 0.00483489151682867 0.0009838959409791557 -0.00071550887986405 0.012233213005278933 -0.02635172859581247 -0.0031036966379984505
-0.00016418052886236337 -0.012383174533734224 -0.002215943606155127 -0.005372836684086795 0.00777942793596216 -0.009739278269804813 -0.025221701781635263 -0.00027468741386637424
0.010754237557428055 0.010529931339894046 0.0037468951134592378 0.009797098548808511 0.0012708322762014447 0.004258925949747879 -0.005907051787157183 0.0063234253188470205
-0.0069824415927967265 -0.0036232673529028956 0.015186726316075263 0.0013873602158038596 0.0031442077049126864 0.010461025685494852 0.01179611454242243 0.002379248362565615
-0.0019561671937698257 0.003130485561527591 -0.0008162917809887494 0.01610075453634405 0.017447767868300677 -0.003934751752959265 0.0058691729780386654 0.005263175417794079
00000000: 46e8 1a0a c2d2 493f af64 566a 45eb 96bf
00000010: d240 88b0 c70c 60bf d1e8 bad4 ddca 3cbf
00000020: d368 8bde 897f 763f bdfe 9c0c dcb5 703f
00000030: 1dbf e951 c493 7a3f d29e 0b42 1e7e 5abf
00000040: 1f93 ac25 e668 73bf 990a 22bb 51ca 903f
00000050: e99a bf95 cfdc 793f 5f63 a1c5 9d57 68bf
00000060: a77c 772b 62f5 5d3f c564 93d9 ea51 623f
00000070: 72c0 1f65 ca74 4b3f 29ae 3d9c 55b5 7abf
00000080: b85d ece8 6caa 7e3f 4681 411f 9191 5dbf
00000090: 4cf9 b9a9 3d2d 66bf 5f08 a615 6bf4 69bf
000000a0: d93d 284a bb93 563f b603 44c1 1675 71bf
000000b0: 20ba 0538 028a 6abf 9c0e 9c9a 202e 63bf
000000c0: 72d1 f511 425a 6e3f 8ed6 3b2c d7ba 8abf
000000d0: 796d 231b bcfe 75bf 4eba 2dac 5869 883f
000000e0: a543 8185 0b47 943f 2fe3 8d67 3542 70bf
000000f0: a86e 4379 33e6 87bf ca17 5bd4 e3cc 803f
00000100: 21b8 a76b f32e 7bbf eb4c e7f2 1b6d 5f3f
00000110: 8aea 5d6f 432a 71bf 6cfe a979 2538 70bf
00000120: d2d7 eb3f 2585 55bf 6d9d 01d9 079f 82bf
00000130: 6702 e3f4 64ba 8d3f 4984 9ac8 610d 833f
00000140: 50e0 2efa cc47 7d3f 7677 0cc0 5c42 723f
00000150: 11db 9765 831e 903f 8166 0c5c bf98 893f
00000160: e6ea e506 7e85 813f 763c c876 ec09 7d3f
00000170: ee79 d9cb 7d2d 723f 3e64 3f2d ad71 41bf
00000180: 2e4b 2a03 9264 98bf 056d c77a 867d 8e3f
00000190: 8d4a 656f 750a 9b3f 1238 b519 e4c1 4b3f
000001a0: 9d87 54a7 2f15 8abf afe1 9777 6fdb 80bf
000001b0: 63cb 8335 3c6b 973f bf18 cdc2 0241 4b3f
000001c0: e79e f821 36d4 4cbf 86c8 7526 b0c7 953f
000001d0: 427f 34d9 329c 84bf 8a83 5f49 54a3 7a3f
000001e0: 00c1 4e28 201e 73bf 94dd af3f d727 743f
000001f0: f00c f98d 1de8 8c3f b14e cca5 0012 98bf
00000200: 6588 eaa6 5211 4cbf d544 e7e1 09a5 78bf
00000210: a332 1cb0 e07f 773f 2123 3d51 c52a 583f
00000220: 9690 277a 2ef5 70bf dd49 a677 6666 85bf
00000230: 5be9 838a bd99 6fbf b839 2fa9 c441 92bf
00000240: 2a6b 6ca7 0df3 763f 6baf f916 b131 8dbf
00000250: 2885 0cd3 70ef 7c3f a8ab 979d 5f3f 9ebf
00000260: cab3 2604 927b 54bf 539f 0d1a d4c2 723f
00000270: 427a 0741 2786 943f 0d6f 211a 3d73 5e3f
00000280: 90e0 8e81 8fb5 6dbf df85 acbc 945a 88bf
00000290: 8c04 4ee4 b97f 773f 2742 7fd1 7a9d 8a3f
000002a0: cf82 43e2 3c66 98bf 41f3 94d8 8cda 933f
000002b0: f1e9 ad1f 08f0 663f d443 21fe c10a 98bf
000002c0: 8ca8 4fae a441 40bf 2ab4 0175 5645 483f
000002d0: 30a7 d907 f78d 693f ef1f d464 f00a 74bf
000002e0: 012f 6ba5 2759 71bf a632 c6db 1c2b 7ebf
000002f0: f890 33a4 2ef7 7c3f 9ae0 9cf9 b591 603f
00000300: 1e3b 4ae3 9735 30bf 4900 c243 0f46 4e3f
00000310: 673b 68db a3d7 8ebf c8d2 e8eb ed8b 93bf
00000320: a7b9 89b8 71da 6ebf e151 5327 89a1 8abf
00000330: 2a86 ac4d 4114 783f 3438 2865 af42 883f
00000340: d1d3 dd9d dad2 843f a6e1 7b50 8e71 5d3f
00000350: 10e5 62ca 130d 923f 6d1d c733 1a76 7b3f
00000360: 6023 4b9e 2e6c 63bf c307 b892 af0b 80bf
00000370: 6b00 2796 d1e5 85bf cafb 515e 9d92 3f3f
00000380: 6396 3d50 08e2 5d3f 80da e6e7 29b2 93bf
00000390: 06f2 e9c2 8b07 4abf 864a 9d1a cce2 663f
000003a0: e10c db72 96b0 633f 93fa 5533 e171 803f
000003b0: 6611 de1d 6cc8 913f 8b7b 3c7d 76ac 853f
000003c0: 84a4 7427 ed51 41bf 84c0 99a8 754d 823f
000003d0: 7cc2 4aed c080 343f 6ea5 a984 e9b4 723f
000003e0: bbbb f05b 8edc 79bf 0f6a 4f47 03ba 40bf
000003f0: 97cb d03a 25df 43bf 30db c6ce 7334 54bf
00000400: 5df3 91c5 907c 893f 0a37 3981 84f0 8ebf
00000410: 0da9 a9aa 6b31 663f 9337 7805 a256 92bf
00000420: 9575 790f 5a9c 70bf edf3 1b69 8ecf 8bbf
00000430: a40d 4b3f 82ed 81bf f2e3 f488 95c9 90bf
00000440: 2e17 be40 84db 5ebf 7f78 b432 1ccf 863f
00000450: e1a6 d39e 8ddb 613f d7d0 72ff 2b6b 7a3f
00000460: be52 4a6e 4d6a 863f 6146 daaf aa23 883f
00000470: 4206 95bf 0a4b 8cbf 70a5 8718 675e 743f
00000480: f134 a46b fece 74bf 4c73 f0c9 d807 52bf
00000490: 4465 8f9f d960 943f ffba 8c94 458b 7a3f
000004a0: f3cd d60b 0046 473f d8fa dc8b be98 3cbf
000004b0: b897 2358 df12 21bf 89e7 1478 d551 923f
000004c0: 6306 722b 477e 763f 3d9d af4b dfe5 8a3f
000004d0: a3e4 947d a8f5 813f a4ab db25 2e9c 55bf
000004e0: dd1f 76e0 e294 84bf 130e 67d4 c8f1 8b3f
000004f0: c8be 9c7a 7a4e 59bf 42ca 2f0f 56a0 f93e
00000500: 0607 286b 9c40 87bf 2ee5 48f6 87d7 9bbf
00000510: 3175 32c5 c917 49bf 0918 cb97 4e57 95bf
00000520: 9ded c58c 5d35 95bf 7826 7d10 e260 843f
00000530: dd08 5994 6ee3 7b3f 94f0 898c 5015 49bf
00000540: c543 eef2 420f 8d3f 8b50 5fa5 943c 8ebf
00000550: e9d7 8801 abf1 64bf 0c17 df56 d8a3 51bf
00000560: 29bd c674 80c9 85bf aa3e e227 2fba 94bf
00000570: 63fd 368a 6712 6bbf cd5c dc9b b196 863f
00000580: 0775 6846 8ed5 5abf 72f4 bd33 909e 3c3f
00000590: 19bd 019b 3643 943f 5f7c 95ba 7482 75bf
000005a0: d63b 9ca1 19be 74bf 60c9 37e9 7d29 7e3f
000005b0: 0320 15ed ae7c 74bf afbd 092a bd34 7a3f
000005c0: b5ae 1c3a 1e46 823f d7dd 80aa 4681 923f
000005d0: fb18 f2d2 9641 7e3f 599b 0682 9b7f 623f
000005e0: e0a8 5c5a 1ab5 82bf c1ee 19c4 c5a0 5ebf
000005f0: 2dbe 48de 6307 70bf 1f0c aa7d d6a0 83bf
00000600: 90f2 3aaa 6e56 71bf b755 c865 43a3 97bf
00000610: 809c 1300 5df5 80bf 60e2 37f4 7534 8dbf
00000620: a48e 1668 1c30 74bf 7297 1787 483a 8c3f
00000630: c58f 1154 1718 75bf 8798 29ad 3f3c 6e3f
00000640: 3933 04e0 5afb 72bf 3e50 8cd4 1d02 5abf
00000650: 8f99 28b6 6c09 823f a6bc 9b18 2af2 993f
00000660: 3288 d318 4662 85bf aabc 0882 2282 81bf
00000670: bcee 75da 803c 48bf b7c0 d258 26cb 623f
00000680: b95d 162c 57e1 4fbf 421f aec5 bd63 81bf
00000690: bf87 1adb 6f7e 70bf ae0b e83a 39ee 7cbf
000006a0: 2697 befe 3d35 4bbf 7a55 a62d 90c8 8ebf
000006b0: 7c8d 91d1 64ff 51bf 9ecc a043 ddd6 7fbf
000006c0: 4336 34a1 ef82 89bf 0781 0025 237e 5cbf
000006d0: 5f9e 1c4f c0cd 733f 4734 e838 c21e 503f
000006e0: 2200 989e 1f72 47bf 0eeb 420e ba0d 893f
000006f0: 5f5f 0c92 f2fb 9abf c431 d271 ec6c 69bf
00000700: fbc0 1301 fc84 25bf a2f6 248d 595c 89bf
00000710: 87d4 2eaa 2b27 62bf d2b7 84dd d301 76bf
00000720: d092 1049 52dd 7f3f 435f 3ecd 2ff2 83bf
00000730: 96d3 34c1 b7d3 99bf 7ebf 8c75 7d00 32bf
00000740: 640f d254 5106 863f de2b df75 b790 853f
00000750: b6c6 29ff ceb1 6e3f 050f e74e 8010 843f
00000760: e7bc 28c4 41d2 543f 155b b9ba ce71 713f
00000770: 50ab dd23 fe31 78bf 9a20 178f 97e6 793f
00000780: 97bf 98e4 9e99 7cbf 54da 21d9 8aae 6dbf
00000790: 2103 e3e6 371a 8f3f a72b 4cb0 02bb 563f
000007a0: 6f38 76a8 e1c1 693f e751 9d19 976c 853f
000007b0: acc4 6fb1 8f28 883f bc40 003d a57d 633f
000007c0: 5a90 ed43 6106 60bf c180 6fa3 1aa5 693f
000007d0: 3e74 6d40 8dbf 4abf b9b5 b258 b77c 903f
000007e0: 76bb 87e1 d3dd 913f c0a6 8ce1 e21d 70bf
000007f0: eb83 ec1f 460a 783f f83a aee4 d68e 753f
