approx-error/weights/w_10_117.npy (npy, 9488 bytes, 1 tensors)

array f8 [10, 117]
000000 e7 a6 d6 04 63 cf be 3f 84 9e b4 14 54 c0 a5 bf
       0.12035197132231766 -0.042482974555523106
000010 71 99 39 de 28 8a a8 bf 4a 9d 6b bd 6a 67 a4 3f
       -0.04792907440860262 0.03985150873432504
000020 6d b6 56 9e 86 d7 ba bf b9 b4 60 91 f3 57 bf bf
       -0.10485116353694375 -0.1224357824255148
000030 a6 7c 68 8b 24 30 b7 3f 89 c5 27 ff 32 a1 c7 bf
       0.09057835010070167 -0.18460690935857496
000040 9d 9f 39 cc 81 d4 85 3f aa 54 c0 38 86 45 9f bf
       0.010659231228785699 -0.030538651670288054
000050 ef 60 22 92 d5 f5 a1 bf 8c 83 d0 cb 7c 09 c0 bf
       -0.035078691567095414 -0.1252895350635551
000060 c2 72 1b ba 9d 81 c8 bf 03 c8 4a e3 55 d2 af bf
       -0.19145557009951203 -0.062151607509250105
000070 82 e5 a7 04 38 0d bc bf 83 60 b9 53 b3 7b a4 bf
       -0.10957670320194349 -0.04000625988982256
000080 c3 40 0a 0f 85 f4 80 3f 0e 12 05 ac 74 db b1 bf
       0.008278884431348726 -0.06975487899496377
000090 8c 7c 38 8d f4 d1 b9 bf e6 67 bd 7f 14 ee 9b 3f
       -0.10085991332788263 0.027275390907881468
0000a0 5f 01 02 9f 2c 57 b2 bf 1c 0c c7 10 94 19 b7 bf
       -0.07164267427470382 -0.09023404512031202
0000b0 3a a5 f8 c7 b4 ce 9c bf f7 b5 a4 61 ea 7d 9b 3f
       -0.028132271485593587 0.026847517213516494
0000c0 b5 d5 f1 26 17 62 c9 3f 0b 7d 82 1f 2d 6c c3 3f
       0.1983059826049335 0.1517387775283868
0000d0 65 33 a0 02 32 6a be bf 79 66 7b 54 53 e1 bf bf
       -0.1188079124842268 -0.12453194439458483
0000e0 62 85 55 13 a2 ed 78 3f e6 74 ec d1 8c d1 aa 3f
       0.006085999591364329 0.05237999022049582
0000f0 42 05 4c dd 97 5d 89 bf 0e de 8d 6e 06 26 ca 3f
       -0.012385546151110764 0.2042854347052842
000100 39 41 17 8b 43 56 bc 3f 63 5b 58 a9 d2 bd c3 3f
       0.11069128175518451 0.15423043507390863
000110 04 f3 ea b9 a8 1e a4 bf 7c 71 38 26 74 97 b5 bf
       -0.03929641026977573 -0.08434225018613078
000120 0a d2 da 2a 2b c4 b9 bf 21 76 37 ef de e9 85 bf
       -0.10064954563387843 -0.010699979472458545
000130 a9 6e e9 71 30 4b be bf d0 87 fb 71 19 84 ae bf
       -0.11833479672480486 -0.059601588405498895
000140 93 6a a1 39 a7 bd a4 bf a9 c5 6e 5d 9c bb b6 3f
       -0.04050943926332198 0.08880021363326897
000150 c0 88 df eb a5 c4 a6 bf 57 48 6e 2c db ef c0 bf
       -0.044469056170571175 -0.1323198286959861
000160 c0 fd 46 58 8a 8b a5 bf d9 28 4a e5 ee 28 92 3f
       -0.04208023383716464 0.017734272713405417
000170 0e 90 26 64 db 01 ab 3f c2 35 74 4d 2b 30 b6 bf
       0.05274854276220263 -0.08667250290837727
000180 3a f9 1d 15 86 2b af 3f 4e e2 c0 c7 7d b1 c0 3f
       0.06087893493439585 0.13041660550676898
000190 61 f5 2e e8 c3 91 a7 3f 5f 5c d8 80 c7 fe 96 3f
       0.04603397568960577 0.02245628093632168
0001a0 cd 14 07 34 69 93 a5 bf 96 9d 65 76 a3 68 ad bf
       -0.042140281296761374 -0.05743895359301658
0001b0 2b d1 3e 30 42 6f c8 bf b6 cd f4 6e 87 45 ad 3f
       -0.1908953414509907 0.05717108945318776
0001c0 9f 1a 9c ee bb 0c a1 bf 9e 5a 8c 6c db 62 8d 3f
       -0.03330027854649597 0.01434871125233644
0001d0 90 8b a2 62 b2 22 a8 3f aa 22 37 43 96 ee b2 bf
       0.04713971571006603 -0.0739530481433898
0001e0 66 94 6b 29 ba 7b b8 3f d1 18 79 ef c9 c8 85 3f
       0.09563792716251526 0.010636880512845089
0001f0 da 9f 4f 6a fa 04 c2 3f a9 46 aa d3 a3 44 90 3f
       0.14077692213982013 0.015886840623869834
000200 70 2b cf e3 b6 ae 9e 3f cd ab 03 53 46 53 9a bf
       0.02996335759579999 -0.02570829278640101
000210 23 a3 1c a6 8e c5 c1 3f 53 cd fe 2b e5 51 c9 bf
       0.13884146796160576 -0.1978117432423497
000220 0e eb bf 30 ab a7 a9 bf cd 39 7c 9f 2b 60 9d bf
       -0.05010733575905678 -0.028687173470695094
000230 97 fb ae 81 fa 6b c2 bf 6b 63 6c 2e bd 21 b3 bf
       -0.14392024357036057 -0.07473356612571329
000240 a2 4a 04 b4 60 25 ca bf 72 b4 ce cc 69 55 92 3f
       -0.20426567830925985 0.01790395081086555
000250 88 03 5c 60 32 ea c0 bf 77 1d c7 3e e3 ce a1 3f
       -0.13214711861658324 0.03478155270891652
000260 06 b0 5e b5 6c 35 99 bf 42 d4 fc d0 ff 0b b4 bf
       -0.02461786133760315 -0.07830809452282586
000270 65 a3 4b cc f7 b3 c2 bf 3d ea 64 34 61 70 b0 bf
       -0.14611718631138185 -0.06421477822451833
000280 65 ca b9 35 7a e9 9d 3f d3 68 95 0d 08 29 88 bf
       0.029210958031806195 -0.011797011293925774
000290 db 14 12 9c 0c 0a b0 3f d8 bb 4d 52 77 fa b2 bf
       0.06265333948438771 -0.0741343093811645
0002a0 64 05 52 fe da 54 c3 3f 4b c8 25 f2 02 ea 96 bf
       0.15102708261478448 -0.0223770580573233
0002b0 31 2c c1 d4 ec 58 b4 bf bb 3f d9 39 7d 8a bf 3f
       -0.07948188966945292 0.12320692694015538
0002c0 74 39 63 61 54 57 c0 3f 84 0a d6 1f b2 5d 81 bf
       0.12766508822683031 -0.008479491802750212
0002d0 61 6a 7b d2 7d 51 a7 bf ff 81 c2 4b c6 e8 b5 3f
       -0.04554360575067019 0.08558310842136761
0002e0 58 16 3a 0e 8d 86 b5 bf 47 b2 f7 d3 91 83 b6 3f
       -0.08408433530174741 0.0879450933932243
0002f0 8f 9e 93 c4 95 b2 c0 bf 1a 75 78 52 9c 0f 80 bf
       -0.13044998262852345 -0.00784227492027383
000300 22 49 38 48 bc 1c 52 3f 91 1d 6f 1c 7f 15 bd 3f
       0.0011054838840932131 0.11360926098051595
000310 08 55 b2 8d b9 04 c6 bf b3 52 3e 75 51 93 96 3f
       -0.1720191900136927 0.022046349316570523
000320 50 52 e4 14 7e 3f 87 bf f6 3c d5 35 79 ec 31 3f
       -0.011351571095056162 0.0002734943316981675
000330 bc 49 3c 3e ba 48 b5 bf 52 26 fb 48 8e 57 bf bf
       -0.08314098376675977 -0.12242974550022126
000340 3d 87 2a 9b 9c 4c a6 bf d2 d6 7e b0 7a 45 97 bf
       -0.043553251210381984 -0.022725979826381977
000350 ed 55 63 f1 c3 c1 c1 3f 63 90 d1 a3 8b 73 85 3f
       0.13872575079464813 0.010474291741225444
000360 e9 f8 d8 89 bf 5a 3a bf 66 82 1e 79 e5 cf b0 3f
       -0.00040213752967933767 0.06567224699984706
000370 2f 70 56 9b ea 66 c3 bf ee 7e 23 2f 2a 65 b1 3f
       -0.15157826027723462 0.06794990206571658
000380 a2 b9 08 9a 72 09 b6 3f 40 c7 3b 59 b6 d6 b5 3f
       0.08608165989492148 0.08530749968101947
000390 83 e9 bf 39 79 08 a0 bf ad 1c 01 27 d3 bc bd bf
       -0.0313146479602038 -0.11616248800520408
0003a0 8a f3 4b 03 19 b6 b7 bf 7d 90 be bf e6 ff 98 3f
       -0.09262234049306364 0.024413686230801524
0003b0 cd 81 fd 3c 2d 1d ab 3f f4 1d 4e 57 ed 1e c0 3f
       0.05295697564611466 0.12594382059999953
0003c0 51 8d da 8a 9b 36 c3 3f 70 7d 5a 79 46 01 b6 3f
       0.15010399131743182 0.08595695936900483
0003d0 79 1f 15 99 01 6c 6b 3f 23 ee 67 7e a0 c3 9a 3f
       0.0033473998270529518 0.026136882510384162
0003e0 20 8c 87 bb e2 c5 97 bf bf b7 ce 8c 84 a4 ba 3f
       -0.023215811439410428 0.10407284200365917
0003f0 48 b4 81 2b d3 04 ae 3f a4 37 d0 c8 c7 ce 95 3f
       0.058630560932990294 0.02129661715667165
000400 76 1c c1 d2 66 b6 bf bf 5a 85 13 f2 73 6f ba 3f
       -0.12387697835321085 0.1032631364828566
000410 29 3e b7 f8 3b 48 c3 bf 22 4e 40 ea 65 1c bf 3f
       -0.15064191479039948 0.12152707070372817
000420 56 67 88 c2 5e de b8 3f 40 0e ef f2 cb 0a c4 bf
       0.09714309930168716 -0.15657948839190006
000430 ed bb c4 e8 bb 95 73 bf 39 24 45 21 8c 5a bf bf
       -0.004781469364657715 -0.12247539341218862
000440 d0 04 d3 ca 94 38 8d bf 0d ef 7a c5 2e 0b ac 3f
       -0.014268076362329657 0.0547728172363958
000450 8b 7d 88 97 be 9b 8b bf 4d 64 d6 57 37 39 c1 bf
       -0.013480652808594914 -0.1345585993665587
000460 48 07 2a 26 c7 59 9a 3f 0d 67 1b f2 21 37 9a 3f
       0.025733100609165477 0.02560093918041333
000470 41 41 be 32 fe 02 66 bf c1 d0 b8 00 9c 65 ba bf
       -0.002686974030389561 -0.10311293618798613
000480 ab 2f f5 f3 33 ab a1 bf 9d c0 0d 97 eb 20 9b 3f
       -0.0345092997837065 0.026492768377864285
000490 12 88 45 08 1c 54 8f bf 42 6a 9c 66 d8 ad ca 3f
       -0.015297144892148427 0.20843033800413663
0004a0 0c 20 d1 08 fc de 99 3f 19 53 c0 52 78 e3 94 bf
       0.02526468089880045 -0.020398979235397883
0004b0 cf f2 c7 a1 b7 60 a8 3f bb 67 07 90 73 eb bb bf
       0.0476128945337898 -0.10906145349818434
0004c0 fe 18 d2 5d ff 40 a5 3f 0e 01 e4 2d e5 6a c4 3f
       0.04151151676437513 0.15951218357805214
0004d0 75 5c 58 03 3f 52 b6 bf 5f 73 8a bf c5 30 9e 3f
       -0.08719247657460179 0.02948292714664846
0004e0 ed 4b 29 88 f6 5f b3 3f d9 10 5b e9 62 62 c5 bf
       0.07568302940607881 -0.16706501383135366
0004f0 3d e1 5d 1d 53 b2 c4 3f a7 14 3f f8 b2 64 ba bf
       0.16169203695222648 -0.10309904633239118
000500 58 c4 e3 bb c0 ec a0 bf 73 75 8a ec a9 3a a3 3f
       -0.033056281028515044 0.03755694401227574
000510 8f aa e1 6a cf 7f 97 bf 1f 08 d8 de 96 47 b4 3f
       -0.02294849481442412 0.07921736660503641
000520 71 77 5b 3f c5 7e 8e 3f 66 65 75 b6 bd c7 ac 3f
       0.014890233036051833 0.05621140339162416
000530 f3 c9 8d 2a 27 4c 7e 3f dd 70 a6 75 cc 96 c2 3f
       0.007396843903608718 0.14522701019894316
000540 f6 cd 9c e8 da 73 c9 bf 54 c8 6e 43 49 64 a2 3f
       -0.1988481174281415 0.03592137287286393
000550 21 69 3a b9 cf 5e 9e bf 95 dd e4 f5 dd 38 b8 bf
       -0.029658551865034192 -0.09461772206565507
000560 e2 35 3f 45 ab 7f b4 bf eb 8e 21 b4 8f e4 ac bf
       -0.0800730747279981 -0.056431284655244905
000570 24 45 bc d7 b7 37 ad 3f 40 2d f3 39 28 a2 b6 bf
       0.05706572063912521 -0.08841182150643068
000580 a6 61 08 0a 6b 7c 90 bf 06 30 b0 81 c3 ce 9b 3f
       -0.01609961746916757 0.02715592841200023
000590 db 7b cb e8 0f 31 bd bf ff 4e 68 a5 2b 18 bc 3f
       -0.1140298789355109 0.10974381244914964
0005a0 fa a8 0b aa b2 94 ce 3f 40 f6 01 5b 07 06 b1 bf
       0.23891289999966842 -0.06649824115626135
0005b0 1e b8 a7 dd ea 38 b7 3f b7 4c fb 2a 3e 49 9f bf
       0.09071224128248942 -0.03055283677424533
0005c0 29 c6 2c 4d 3e f1 aa 3f 7c df 1b 62 71 5b 92 bf
       0.052621790810359954 -0.017926951993075133
0005d0 ac 67 be 42 54 e4 cb 3f 9c c9 7d 20 19 62 a0 bf
       0.21790555247281185 -0.03199842950461404
0005e0 34 17 67 6b 5b 0d b4 3f f1 ee 5a 65 28 ae ae 3f
       0.07832881328712632 0.05992246854063222
0005f0 17 86 5b 0d 9e 60 bb bf b8 1b 54 13 e2 47 cb bf
       -0.10694301439391328 -0.21313119834687
000600 5b 5a 05 f7 77 40 ad 3f b6 f4 31 5f 72 54 b5 3f
       0.05713248148338287 0.08331980537510017
000610 5c e8 d3 81 68 1c ab bf 77 ef ab ac 7c fe af bf
       -0.05295111260234428 -0.0624884568005361
000620 36 f4 c6 7f c4 ab b8 3f 79 8d 19 9b 35 8a b5 3f
       0.09637096519050278 0.08414015804878784
000630 80 0c d7 18 76 24 b8 3f a0 52 7a 95 a4 68 9a 3f
       0.09430635553785471 0.02578980600681524
000640 55 03 2d d2 cc e8 b3 bf cd d0 b1 20 1d c3 be bf
       -0.07777099734540845 -0.12016470001418895
000650 b1 c7 be 32 90 2b c9 bf 59 2a 95 87 4b 4f 77 bf
       -0.19664194562716156 -0.005690856015756107
000660 24 9c 6f 41 6f 3c c8 3f 0e d9 ad 34 e5 23 a8 3f
       0.18934431738964108 0.047148859673074126
000670 45 98 ea 24 a5 1c 80 bf 7f b6 d1 48 62 34 c3 bf
       -0.00786713618192548 -0.15003613048195416
000680 dd 58 93 8e ab de b0 bf 30 b2 f6 6a d2 ee 3f 3f
       -0.06589767676209442 0.0004872573581120891
000690 d4 e2 dc 98 43 73 96 bf a5 5f 5c 61 19 f1 b6 3f
       -0.021924072461134994 0.08961638094876763
0006a0 15 8d e8 52 0c 06 90 bf 03 15 7b 15 ad 8f b1 3f
       -0.01564807182343227 0.06859857344086966
0006b0 90 21 d8 36 0e 14 87 bf f7 13 f6 20 f3 2b 93 bf
       -0.011268721626962713 -0.018722342383188786
0006c0 a4 fb e7 be 3e cd bf 3f 55 d8 e4 7d 19 fe b2 bf
       0.12422554169459815 -0.0741897518499582
0006d0 a1 83 dc 3a 99 98 9c bf fc 40 fc 7b 42 53 c0 bf
       -0.02792586728822111 -0.12754088453267076
0006e0 fe f4 59 fe f0 8b 83 3f 97 43 0e d2 20 03 bb 3f
       0.009544260751904062 0.10551648262322853
0006f0 7a ae 1d 97 c6 35 b1 3f 57 ef db 34 f0 89 b2 3f
       0.06722680272440043 0.07241727152353171
000700 3c b2 2c f8 b5 98 ba 3f 97 46 54 ee 02 95 af 3f
       0.10389268216085495 0.06168374213497179
000710 d8 33 b1 a8 b7 26 b3 3f 62 8e 33 6e c2 64 a4 3f
       0.07480953091108178 0.03983123393279865
000720 69 83 28 d3 9e a2 b8 bf 01 98 3b 6b 33 93 aa 3f
       -0.09623139052611197 0.051904303398075065
000730 47 9c 89 df dd e3 b7 3f bd e1 37 da dd 86 b6 bf
       0.09332071979007238 -0.08799540116877487
000740 4a 0c 3e 26 69 d7 97 3f 11 69 73 64 33 59 bb 3f
       0.023282664260033926 0.10682984545147557
000750 58 2d 29 15 79 19 a1 bf ec 27 7a 2a 44 3e be bf
       -0.03339746840773711 -0.11813760792770694
000760 c0 e7 dc d6 db 89 76 3f 75 16 1b 7e d9 3d c2 3f
       0.005502566096589889 0.142512499404052
000770 fa 5e d6 1d 43 e6 b4 bf 80 eb 06 ca 0e 4d 83 bf
       -0.08163852194263291 -0.009424319782615376
000780 6c e5 dc 3f 5f 31 b1 bf a6 2e 3b af 69 6f a0 bf
       -0.06715960797455062 -0.032100012436413736
000790 ef 05 93 cd 73 7f 95 3f 3d 57 99 97 63 e7 c0 3f
       0.020994004652271355 0.13206143286032015
0007a0 64 f8 42 7d d9 67 b0 bf 94 c1 49 c3 07 39 b0 bf
       -0.06408461864609333 -0.06337021367813228
0007b0 cf 97 42 9e 3f f9 b3 bf 33 15 4d fa 17 0a b9 bf
       -0.07802198041699103 -0.09781026707522215
0007c0 16 5d 16 53 02 91 c1 bf cd e0 99 76 c5 7c b3 bf
       -0.13723782593727013 -0.07612260957273805
0007d0 2f 98 f3 19 e6 60 83 bf 8a 1b 4a 33 a7 ef 6d 3f
       -0.009462163607576539 0.0036543145782305707
0007e0 45 94 1b 8b 11 d7 ba 3f b2 1d 4f cd f0 ce b2 bf
       0.10484418531594127 -0.07347016346385862
0007f0 04 c1 06 e6 c7 da b1 bf 07 68 e5 45 66 53 b1 bf
       -0.06974458089712604 -0.06767882543991287
