approx-error/weights/w_10_1023.npy (npy, 81968 bytes, 1 tensors)

array f8 [10, 1023]
000000 cf 09 d4 17 ca 49 ae 3f 46 7b a3 e1 df 03 90 3f
       0.05915671864387983 0.015639780184638206
000010 18 27 76 81 72 12 9f bf e8 6d fc 3b 07 72 9e bf
       -0.030343808318810422 -0.029731858288057383
000020 80 c2 9d 71 41 eb 7f bf d0 5f 0e 1a 61 64 95 bf
       -0.007792716636558894 -0.020890729155865817
000030 8b 18 fd 10 37 c4 82 bf 28 4c 59 60 c0 18 9c bf
       -0.009163313108399037 -0.027438169365563564
000040 9d e6 22 7f 76 b3 a2 3f d3 4f e6 ba db 26 84 3f
       0.03652544309575243 0.009839741364693488
000050 30 da 50 f6 9e 4e 95 bf e2 7a 71 de 5e 06 9e bf
       -0.020807727607655646 -0.02932117684064906
000060 a7 4c 5e 3b c5 34 b3 bf 5d 1d 58 8d c3 d1 8d 3f
       -0.07502396296904355 0.014560249091131789
000070 21 fa ee e5 34 8b 8a bf 99 49 9b 2f 6b 12 89 bf
       -0.012960828082097699 -0.012242162123048671
000080 2d 29 76 4a 23 bb 9e 3f d5 54 df 6a 6a 4a 90 3f
       0.030010749263547232 0.01590887334153453
000090 52 8f 10 d3 bb 46 9a bf 62 c4 26 8d 38 7e 78 3f
       -0.025660452611318725 0.005979748634147604
0000a0 fc 33 86 4c 47 9a b0 bf 68 b3 6a e9 04 6f 80 3f
       -0.06485410326258995 0.008024252293887549
0000b0 5c 3a 10 a4 a1 ff 73 bf 57 b0 9b c8 5c cc b4 3f
       -0.004882460984858197 0.08124332330379623
0000c0 20 fa 49 2a f3 42 92 3f bc ed f7 b4 eb 7a 75 3f
       0.017833518463243547 0.005244179468259554
0000d0 10 ed ae 3d 47 8c 93 3f 84 62 bd 97 59 1b 90 bf
       0.019089806690073152 -0.01572933186193605
0000e0 dd 9d b6 d6 05 29 5b bf 3e 09 73 d3 82 69 a2 3f
       -0.0016577298182286406 0.03596123534363692
0000f0 37 b2 22 b1 1d 65 a2 bf 74 4c ce ee 0a 7e 6b bf
       -0.03592770373629544 -0.0033560002834263584
000100 a3 69 27 c1 42 75 a2 3f c7 a2 aa 19 3a 57 9b bf
       0.036050878599513746 -0.02669993192344824
000110 90 c6 c6 63 a6 0f a6 3f 03 49 c0 8b ef 7d 92 bf
       0.04308814971899466 -0.018058531670313915
000120 c3 0a ce 7e 6e 93 88 3f 4e bd b6 2e f8 7a 80 bf
       0.011999953503396004 -0.008047045636742436
000130 ee e6 84 2b 59 65 a5 bf 11 ff 8e 25 2d 95 80 3f
       -0.04178885132064446 0.008097031315514454
000140 58 dc 20 6d 71 40 99 3f 1b dc e6 8a 15 7a af 3f
       0.024659893308321607 0.06147830315187993
000150 1f 50 78 0b 61 0c 95 bf f9 1f 4b 2e 55 d5 a8 bf
       -0.020555034947463576 -0.048502599621826854
000160 8c fb 2a 47 e8 e9 9f bf 8e ed 79 23 84 5b 97 bf
       -0.031165723174804635 -0.0228100439694408
000170 21 60 dc 5e c0 5e 62 bf f6 ab 4b bf 30 9e 6f bf
       -0.0022424466359432104 -0.003859610757321881
000180 11 2d 04 91 b5 4e a0 3f 52 64 28 e0 2f 80 9b 3f
       0.03185050387591038 0.026856182152276205
000190 d4 11 2c 53 86 b1 6d bf 1e 17 48 80 c6 12 b1 3f
       -0.0036246894391089666 0.06669273979067866
0001a0 3a e5 3d ea da f1 a2 bf 74 28 e6 06 4f f0 b3 bf
       -0.03700145825764385 -0.07788556974824862
0001b0 8c de 62 50 19 c2 92 3f c0 45 2a 0b e9 eb b0 3f
       0.01831855347765425 0.06609970591150383
0001c0 b3 d3 d2 bd 2c 45 88 bf e7 7c 23 6c 41 fc 9b 3f
       -0.011850690405802533 0.027329466080911493
0001d0 c6 02 65 14 f4 9b 91 bf 44 fe 45 6d 14 61 af bf
       -0.017196477646623597 -0.06128753503707832
0001e0 60 18 f4 b0 37 08 96 bf 3c 6d a1 70 5d da 93 bf
       -0.02151572244203981 -0.01938768386785948
0001f0 0f d9 4f a2 0a 40 a0 bf af 1f 4f 97 37 c4 7b 3f
       -0.03173859816881663 0.006778924133818905
000200 47 19 40 4f 19 71 a0 bf 90 6f c1 a9 fc 98 a2 3f
       -0.0321128758660501 0.0363234479161455
000210 4d f8 6d 69 3d c6 a7 bf d5 ca b7 2e 82 0c 9e 3f
       -0.04643432533247047 0.029344591237484636
000220 b0 b0 eb e2 ed ce 84 3f 00 95 a2 fb 25 05 8c 3f
       0.010160311210221401 0.01368169473819103
000230 c1 4d 54 03 b3 f5 93 bf 9c 6d f8 a7 78 e7 8c 3f
       -0.019491955831723255 0.014113371492434017
000240 d8 4c 2a f1 ec cc 8d bf 0c 63 75 56 ca 99 64 3f
       -0.014551020726946737 0.002514739218593914
000250 19 45 df 8f f8 42 7b bf 82 f8 ac dd d9 9f 95 bf
       -0.006655665345492134 -0.021117595820435493
000260 04 18 4f e0 f0 68 9b bf 55 8d 47 9c c6 96 97 3f
       -0.02676750535081142 0.023036101616424293
000270 92 70 7d d2 70 a5 98 bf 4d d5 6c 8c cc 34 a6 3f
       -0.02406860623101232 0.04337157453702876
000280 00 c0 0f 7d ea 50 a0 bf 79 4b 7e 0e 19 b9 89 3f
       -0.03186733986501622 0.01256007743339692
000290 1e ea f5 ad 7b e9 94 3f 6c 46 23 a4 94 94 82 bf
       0.020421917431557295 -0.009072457560623103
0002a0 ad 19 3e fa 3f dc 96 bf 4f c3 8b 31 22 a6 93 bf
       -0.022324561737627913 -0.019188436769528135
0002b0 25 41 c2 f0 f2 99 81 3f 42 a5 22 70 de 25 8f bf
       0.008594415638328254 -0.015208947941874332
0002c0 33 d5 29 02 6a 9a 85 bf 91 14 5e e7 7b fd 8f bf
       -0.0105484277639599 -0.015620201109195516
0002d0 e7 1d 1a ce ad 00 8a bf 0c f7 86 70 61 2b 7e bf
       -0.012696607448801479 -0.007365589736250799
0002e0 43 ba 0b df 0f 03 9a bf a9 c0 2d 90 6e b0 6c 3f
       -0.02540230559218971 0.0035020980298484283
0002f0 4a e2 44 e0 eb d2 a4 bf 7c 21 4e 39 e4 14 93 bf
       -0.04067170250568049 -0.018634382245666256
000300 8a 93 91 61 b3 e9 9f 3f e0 89 30 4d ce 70 a3 bf
       0.031164934949987656 -0.037970015451964434
000310 3a cf 33 21 72 f3 a0 bf 7b 16 ba d6 94 b8 98 3f
       -0.03310734420111179 0.024141622167482595
000320 9b 01 0f a0 e2 43 99 bf 32 e5 36 3d 8c a9 9d bf
       -0.024673024195864462 -0.028967086063606824
000330 5f ae 36 8b 06 9e 98 3f 45 9f 01 8d 65 ed 7b bf
       0.02404031967823383 -0.0068181959942206815
000340 36 d2 c3 0b e8 7f ac bf ba 5b 19 23 d2 05 a4 bf
       -0.05566334861388038 -0.03910690954642555
000350 68 af 4d c2 2d 61 8f bf f0 88 6a f6 96 31 61 3f
       -0.015322072498484565 0.002098841522937815
000360 cd 7b 89 9c f3 42 83 bf 42 7f b2 d6 b6 fc 8c 3f
       -0.009405043806678304 0.014153889109649879
000370 5b a5 6b ba 35 11 a0 bf 0f b0 01 28 ca 6f 9d 3f
       -0.031381300932319355 0.028746756259735714
000380 af cd 95 4b 50 d6 94 bf 82 55 c1 fc ed 4f 81 bf
       -0.020348791707375188 -0.008453234935738466
000390 ed ba e9 ff 68 e3 a5 3f 10 47 2c ec ec 61 9d bf
       0.042750626792317316 -0.028693868555882907
0003a0 a7 63 01 80 1f 92 83 bf 5c e6 70 61 37 fb 55 3f
       -0.00955605134383737 0.0013416329218344436
0003b0 28 08 a9 b7 c9 c6 97 3f 9e 51 55 ae 84 c7 95 3f
       0.023219253382429056 0.021268914356669215
0003c0 d2 25 5f 31 47 6a ad bf 61 33 8b f0 44 93 90 bf
       -0.05745146253282098 -0.01618678777849725
0003d0 37 17 1b 3c 9a dd 8b bf 90 44 38 82 fc ed ab 3f
       -0.01360626693657317 0.05455006684872743
0003e0 d7 69 f4 d5 00 6d 9e bf be b1 90 18 96 40 91 bf
       -0.02971268945575808 -0.016847939729062615
0003f0 ab c4 b1 ff aa 99 9b bf 4d cf a3 2a a5 d6 7c 3f
       -0.02695338426241693 0.007040639097102131
000400 4c 9f dd 31 31 3c a5 bf d4 60 1f 73 67 9d 83 3f
       -0.0414748547908049 0.00957756824566084
000410 66 ff 28 5b 2c 40 95 bf ef 07 e5 24 e7 38 a6 3f
       -0.02075261408231146 0.04340288472532438
000420 c6 a2 92 58 40 5a 92 3f 49 19 c3 af 70 99 8a 3f
       0.017922406583837945 0.01298797642119766
000430 a0 d8 8c 23 ad a4 90 3f cd 25 60 42 a2 1d 98 bf
       0.016253190321741884 -0.023550544072383595
000440 a6 05 f3 dc 2d cc 8e 3f 3f 06 06 0f 2a 68 a2 bf
       0.015037878327691722 -0.03595096047775969
000450 b5 7e ba e0 24 ab 98 3f 35 77 3e 5b e3 2d b1 bf
       0.02409036275514494 -0.06710644700657727
000460 ae fe 92 69 ef 89 84 bf c7 50 3b ad 50 ba 81 bf
       -0.010028715524071554 -0.008656149183856944
000470 55 c8 3e ce 81 8f a7 3f 07 a8 84 a6 ee ba a3 3f
       0.046016746927663256 0.03853555472080932
000480 7c cc e5 b8 bd 39 94 bf 77 0a 43 33 c8 b7 92 3f
       -0.01975151482606606 0.018279197815682182
000490 25 23 88 68 98 11 a3 bf 0a 0a 65 10 91 ee a1 3f
       -0.03724361682913572 0.03502324414377618
0004a0 1a 69 79 39 ad 37 af bf e8 6c ac 56 a7 e4 a1 bf
       -0.06097165419187629 -0.03494761403109142
0004b0 93 d3 dc e9 40 e9 5d bf 22 a4 fd d0 36 e2 8b bf
       -0.0018256315156126343 -0.013615062954800253
0004c0 75 ef 2f 4e 18 61 a4 bf d6 30 f9 d8 81 b6 90 3f
       -0.039803275627462144 0.016321209781651934
0004d0 82 e0 5d 79 8c 81 82 3f d7 4e 2d d3 bc 97 93 bf
       0.009036157087152445 -0.01913352049753211
0004e0 54 bd bd 27 59 e9 74 3f da 02 54 74 a6 17 a0 3f
       0.005105350744869359 0.03143043680211628
0004f0 be f4 3d 64 dc 78 a4 3f 49 24 3e 3f d1 88 a7 3f
       0.039984595524381814 0.045965708704053095
000500 3b 45 13 c2 0c 27 ae bf 15 ac 04 ab da 88 76 bf
       -0.058891676607923014 -0.005501608058959402
000510 e5 94 6e 0f bc 5a 92 3f 2a 7e df 39 c4 55 ad bf
       0.017924250070468956 -0.057294971527650354
000520 66 ec 08 ec ae 39 9f bf 1d 6e 0c eb 1d d9 95 3f
       -0.030493481785225283 0.021336047621941846
000530 d0 33 f0 5b d5 17 9b bf db c1 68 5e 2f 2e b0 bf
       -0.02645810483595651 -0.06320472769653611
000540 84 9a 10 00 03 3d 8e 3f 0a c7 f6 72 9e 85 a4 bf
       0.014764808120230961 -0.04008193162316161
000550 15 6f 09 e7 3a 12 7e bf 9b 4b 5d 96 4d 04 79 bf
       -0.007341604316561297 -0.0061076193577091166
000560 71 2d d9 e2 2e 9d 90 bf f2 e3 bc b0 c7 32 2b bf
       -0.016224606128429856 -0.00020750701548324886
000570 27 f1 bf 48 ba c7 85 3f 98 00 e4 6b b1 64 9c bf
       0.010634856553217787 -0.027727863512155254
000580 a7 52 af 9a c5 c9 89 bf 61 72 7a a1 29 6b a3 bf
       -0.012591880591494698 -0.037926960908610814
000590 50 9e 30 fa ec 6b 9e 3f 4c 21 db 52 86 e2 7e bf
       0.029708578844433398 -0.007540249540120957
0005a0 ef e7 6e 92 02 84 3f 3f ed a8 05 e3 a8 d4 83 3f
       0.00048089087288938256 0.0096829599649095
0005b0 3c cb 9b f9 20 ea 94 3f 20 cb 5c 76 e0 e2 90 3f
       0.02042438052644545 0.01649046633174145
0005c0 d8 b0 5b 3e 16 8e 7c bf c5 2d 0c 28 81 c1 8c 3f
       -0.006971442116747016 0.014040955576567602
0005d0 68 0c 4c ac fc fe a5 bf 2b 7b cb 5e 1e 13 7c 3f
       -0.04296102145419739 0.006854170450167267
0005e0 89 b6 c5 e8 1e fa 64 bf c5 9b 05 4e 61 14 8b 3f
       -0.002560673112546767 0.013222465699710537
0005f0 4a 47 4a d8 55 b8 9a bf e0 e0 10 07 67 82 78 bf
       -0.026093808485320204 -0.005983736468856388
000600 03 84 71 6e 75 0f 7b bf bc 9e 6d a4 eb 4a a3 bf
       -0.006606539455874308 -0.03768097288303582
000610 26 7d d4 af 5c 5d 91 3f 55 b7 23 e6 ef 5f 9e bf
       0.016957710487187992 -0.029662846013642625
000620 e5 6b e2 1b 26 ae a6 3f 41 d0 78 0f 69 c9 7b bf
       0.04429740038286648 -0.006783876793225175
000630 31 e5 c5 9b 2b d1 a8 3f ee ec f2 b4 bd d6 78 3f
       0.04847084309126116 0.006064168016730804
000640 eb 5d e5 0e d9 cc ab 3f 73 3f bd d8 6f 22 b3 bf
       0.05429724032245161 -0.07474421540723401
000650 c0 c1 e6 9a 22 9f 54 3f 0a b9 ac a2 73 b6 b4 3f
       0.0012586439075726735 0.08090899201917892
000660 77 6f 0c db 3c b3 a0 3f 11 3e 94 e8 b4 dc a4 3f
       0.03261747526104746 0.04074635829067231
000670 86 48 60 9a 0b a9 a7 3f 88 fb 06 da d1 34 9d 3f
       0.04621158847307165 0.02852180379135974
000680 68 26 71 74 a4 8c 9d bf 28 3c c6 70 ca a5 a1 bf
       -0.028856820685439294 -0.034468008295441444
000690 dd 23 e4 6a f2 ba e0 be 77 09 45 ee f2 da 87 bf
       -7.977610348779428e-06 -0.011648080727017824
0006a0 b4 4a 8a bd ca cf a1 3f b4 ff 49 92 41 a7 a3 3f
       0.034788451802474724 0.038385438067961714
0006b0 5e b7 ef 0d 60 20 a1 3f 85 98 99 98 05 5c 97 3f
       0.033450128270358745 0.022811973036731565
0006c0 a2 d6 01 49 ec 99 7f bf 29 6e 4d 6c 33 b7 50 bf
       -0.007715151776314906 -0.0010202409914289534
0006d0 18 b7 b8 12 f7 25 a2 3f 84 66 91 19 5a 5a 9e bf
       0.035445900950760556 -0.029641540346665454
0006e0 e5 70 ef ad 62 66 a1 3f 63 33 0d bb f4 f4 97 3f
       0.03398426411851733 0.023395370403977888
0006f0 d9 1f c0 95 f1 3e a2 3f ff d9 25 5f 7a 66 96 3f
       0.03563647225388395 0.02187529760109363
000700 e4 2a d9 24 64 b6 8f bf 18 92 c6 12 0e f7 7a 3f
       -0.015484602331658555 0.006583266233438433
000710 2c 34 44 23 2d 24 87 bf 1e 26 d9 7c c4 63 79 bf
       -0.011299469603296051 -0.006198661356003691
000720 b0 96 57 6b 72 ad 94 3f 13 ea 70 51 43 4b a2 3f
       0.02019289760746429 0.035730460826432296
000730 40 6c 3e 3a 2d 33 b2 3f 78 a3 84 8d 18 0e 87 3f
       0.07109339401215298 0.011257354563513053
000740 d3 5e 2f 09 6c c4 91 bf b5 7d bf c3 f2 c4 82 3f
       -0.017350853024111167 0.009164711569552656
000750 af f8 a4 63 f7 89 8c 3f 22 b9 3c 93 4a f7 a2 3f
       0.013935024956137047 0.03704293296174145
000760 10 d8 a0 f6 f2 a9 76 bf 1c 3c 08 fb d7 8c b0 3f
       -0.005533169818638953 0.06464910391535778
000770 3b 1e 52 eb 21 98 93 3f a3 b9 96 f5 4c 72 a8 3f
       0.019135026920166203 0.04774704454335967
000780 3c c2 cf ee d3 51 98 bf 16 fc 33 1a 9d 2e 83 bf
       -0.02374964852418969 -0.009366252290872661
000790 45 5b 57 0b 60 4f a1 bf 2f 60 66 57 f5 fc 82 3f
       -0.033808709511211656 0.009271542291387018
0007a0 f7 b9 72 74 98 29 84 bf 56 81 dd 38 0c cd 75 3f
       -0.009844962171283262 0.0053225018908452295
0007b0 fb 8e 2b df 1b 66 a6 3f 3d c3 aa fb b5 ba 36 bf
       0.043747778885316856 -0.00034682219453956495
0007c0 07 77 19 5f 69 17 b2 3f 43 d5 3a 57 8d 26 9d bf
       0.0706697327782103 -0.02846737713726567
0007d0 1a d1 1a 11 4e e5 b6 bf ca e6 fe 8f 42 5e 95 3f
       -0.08943641584011566 0.02086738590126095
0007e0 da dd 54 fd 5e f2 94 3f a1 02 85 ec 5f 3e a0 bf
       0.020455822193268115 -0.03172588121606635
0007f0 fb 6b de b9 30 d6 95 bf 33 83 a1 c8 68 ae 8f bf
       -0.021324883789571186 -0.015469378111619391
