approx-error/weights/w_10_938.npy (npy, 75168 bytes, 1 tensors)

array f8 [10, 938]
00000000: e947 5f26 45c1 a0bf 6b5a 9904 0e7d 933f
00000010: 1315 6b42 dad0 a13f cd05 0954 5ea5 96bf
00000020: 0c71 5ef1 701d a0bf a99a 27ef 3958 283f
00000030: 6724 89e1 3495 aa3f 890c 9346 b1e7 a2bf
00000040: c676 19ae 937a 803f 48c2 a472 8432 a13f
00000050: 9176 a5bf a75a 863f d695 b209 4325 8abf
00000060: 6ca1 2dee eba0 813f 5305 66e1 3c75 a2bf
00000070: 3e36 a927 62b9 9b3f 5fb6 a405 16e2 95bf
00000080: 0105 aab5 60fa 8fbf befe 1668 1686 843f
00000090: 0c11 e138 dbbb a53f 00e4 54d6 f934 793f
000000a0: 96e5 fa9c d9c2 84bf 9cba a90e 0eff 94bf
000000b0: 137a f92a 062c 9fbf e99c 44f5 d3bd 8f3f
000000c0: 1040 24cd 4d1d 9dbf c217 e54d 4421 603f
000000d0: 82a0 1e4a 623b a4bf 3d96 5d64 6f6f a2bf
000000e0: 7402 690e 1808 a13f e9dd 88ff 3443 9e3f
000000f0: 397f 8855 125f 96bf 5719 4579 9d6a 9b3f
00000100: d40a 1084 b281 b13f 34e7 dada ab94 a83f
00000110: 3bd9 2b5d 63d4 813f b887 3975 ce7b 83bf
00000120: c9aa 2b5a 4d70 9d3f 7259 f3fa 3589 83bf
00000130: 2a93 7f90 0915 83bf 9e6d f83f 65ca 81bf
00000140: a8a3 5c4c 9461 a13f 4cc6 9058 f96f 863f
00000150: 2373 1722 37c2 88bf f0dc a158 e229 90bf
00000160: 6657 812a 719e 983f d5a5 37b1 0849 afbf
00000170: c696 5a8d ab34 ad3f 40c2 f965 7b54 a8bf
00000180: 0f4a f048 f240 b1bf 4956 c74d 23d5 b3bf
00000190: d6d0 c74b a83e 993f 36ce 911a 54b1 8dbf
000001a0: 9163 4d22 9b0e acbf 816c 2d15 b124 a0bf
000001b0: 709b e309 9ec7 83bf d9b4 d427 4d3f 893f
000001c0: d3b2 fe6b 51bd 713f c201 9ba0 b2f8 783f
000001d0: 26e7 bbc8 67c8 943f 7536 3904 d330 aabf
000001e0: 6b18 9bcf 8bbc aa3f 4f32 58db fbf0 89bf
000001f0: f260 e2a5 65f3 673f a7d7 ef07 04dd 97bf
00000200: 8b54 051d 6422 afbf 8a3e b0a2 64db a63f
00000210: a87a 1dfc b135 a83f 83ab 32f5 cee7 9fbf
00000220: 80b7 f403 2c50 af3f 353f ae51 20fb 803f
00000230: 1217 ac59 90b2 793f 275f fd5e 50a8 90bf
00000240: 0f3b 75ed dd10 a4bf 68e2 2970 0822 6abf
00000250: af0e 65be 1c6c 773f 2aa8 538d 5a01 91bf
00000260: cd53 8dc4 7f0a b0bf 10aa abd0 d345 aabf
00000270: 8f8d eb66 20c9 a33f 7e1b 96c5 2278 83bf
00000280: b4f1 b184 9514 683f 0640 cdba a4b5 a9bf
00000290: 35ce 68ec f84f 8dbf 2cc6 9a5f c6d7 6cbf
000002a0: 53be 00c7 40b7 7fbf f6ed 9595 b7c0 7a3f
000002b0: 07ae 27c5 034d ad3f fb19 178d 2709 b03f
000002c0: ecbe 1d8a 5e12 a13f 6074 eaf4 e74f 7b3f
000002d0: 55b1 0d3c b3ee 803f b33a 24fa 434f a03f
000002e0: f87e 5694 2d8f 9cbf a6e8 323e 5a0d a13f
000002f0: a2a8 08bf 4418 86bf 40b0 4c3f 329d b0bf
00000300: 2b7e 42cb 5762 a0bf 9ec3 521b a536 a5bf
00000310: 727f 910b c634 623f 570b 1a0a 6948 743f
00000320: 98ad 1d67 20aa a9bf 0662 11b1 dc94 5ebf
00000330: 3452 3f91 874c a0bf fe31 5ee9 2e44 a03f
00000340: 1ab1 ffbc 2838 85bf 4637 c730 fdab ae3f
00000350: 2f49 8fef ff73 9dbf 6724 d356 490b 953f
00000360: 1d78 fa1a 0db3 91bf 5963 2e6d c12c 933f
00000370: ab3d 0108 aa84 85bf 8d99 a6d7 412b 813f
00000380: e608 bda2 370e b5bf 0add 508a 2ba5 8abf
00000390: b732 f95c c497 983f b30e 9ca4 fac4 953f
000003a0: 1788 cf42 528f 8d3f 1f4c f6cf e8f1 9fbf
000003b0: 85d5 e3c7 973c a63f 4a69 0a13 d101 9c3f
000003c0: e834 d2c2 97a3 92bf 9d46 cf1f 7215 8fbf
000003d0: 47d5 ad86 e06c 80bf 6221 957e 484d 933f
000003e0: 4c2c ff36 d128 4dbf a764 e967 fb53 81bf
000003f0: 8950 de56 e57f 9f3f fcf2 32b6 df44 8abf
00000400: e0e5 2f99 e8c2 93bf 43de 8b94 5596 953f
00000410: b3bc b336 8869 93bf aa92 3262 d053 ac3f
00000420: 122e c482 0030 aabf a907 5340 e249 a0bf
00000430: 336f cf69 2dee a5bf 5be6 b19f 4ad0 6e3f
00000440: dcd1 f299 cd30 993f 2f9a 8934 650f 8bbf
00000450: 0d7c 88b7 f53c a1bf bda4 61c7 0cb3 713f
00000460: f2d6 3f2f 32c1 8abf 5827 4c9c f129 9abf
00000470: e057 2ac3 4256 583f f676 8f92 155e 9dbf
00000480: 0f62 602d b432 893f 4278 3c19 3922 78bf
00000490: f86f 06d5 0493 8abf f5a6 cf34 7f82 90bf
000004a0: 6848 f499 8723 b23f 6c44 0b5a 11aa a73f
000004b0: f716 5c00 b443 af3f 050f 313f 8768 7d3f
000004c0: 329c fa6b 9be5 a33f e7b7 f7d9 4526 b33f
000004d0: 6626 d3b5 968b 7d3f 9d01 bb33 b050 79bf
000004e0: ca3c b6aa 791c 853f 06ab 3a2d abd9 a4bf
000004f0: d7c8 5939 02bc a3bf ff0a 0aeb 4003 3abf
00000500: 9ab1 f584 e1c0 803f d93f e0b6 a8b8 61bf
00000510: ebbf 6de9 6c83 5bbf 9044 8591 8ffc 6ebf
00000520: c78e 22c4 35a8 94bf 3fef 3a02 f8f6 a03f
00000530: 99f4 8cc2 dd72 5a3f 6e15 6e1a 92d9 a5bf
00000540: b301 cb52 05bc b73f 1f84 4e18 8b80 a5bf
00000550: dc0a e6ce d367 8fbf 2617 6f20 0947 9d3f
00000560: 4324 96e1 1b62 773f 866c c6c1 360e a73f
00000570: 49a7 a680 5287 81bf fbea 7064 6a70 853f
00000580: b6fd fe8c 6222 90bf 987a 594d c59e 853f
00000590: 640a ea29 7eb7 88bf 9445 dfb0 5a92 933f
000005a0: 4341 d5b9 9e65 9e3f d946 6bf3 aa27 95bf
000005b0: 7553 42d8 cb35 b13f 07a0 0ba3 e0cf 93bf
000005c0: e78f 9c54 1a43 573f 4797 4842 f95b a63f
000005d0: 6d98 8042 047c 833f cd77 b5bb f459 88bf
000005e0: ea06 b915 de50 a1bf 0ede 73d4 35a2 a8bf
000005f0: 6b82 296b 7e3c a23f 84ee de7b 7792 793f
00000600: 1883 b67e 1fdf 9a3f c2d8 97c5 220d a43f
00000610: cd28 7a8f ee08 8cbf 3ebe 3546 efb4 9b3f
00000620: c989 1703 6190 823f ce09 fd87 5dc5 943f
00000630: aaca aec4 a78e 683f 3691 27dd 70e0 a0bf
00000640: 55a6 15fb 885a 9f3f 14ef 1a35 405e a23f
00000650: 9218 42a2 29b5 8a3f 1753 0af4 d8a7 913f
00000660: 7f6c 4f33 d914 9a3f 4172 efcc 103f 873f
00000670: 9c8d 9681 a1fd 65bf 5faf 3c53 118e 9e3f
00000680: 1333 e529 1080 aa3f 3266 0bad 6219 763f
00000690: 9b51 d63d 7c99 acbf 2b45 3507 a903 a33f
000006a0: 5246 a0e4 6bdf 643f a8d7 8808 474a 90bf
000006b0: 9118 63db 882f 99bf 41f1 d986 c381 a03f
000006c0: 7331 5a13 9c72 943f e532 69ec 36cc a33f
000006d0: 296e 46ef 177b 8cbf 1af1 d527 287f a5bf
000006e0: 5c8d 8e74 e794 9e3f 35dd f8ad 78f1 a03f
000006f0: 546f e21a 4503 81bf 8a10 64ad 06c3 52bf
00000700: c01f bee7 7973 8cbf 3292 2c6f 2067 863f
00000710: 51f5 5c68 070a 75bf 1509 e1c2 053d 6abf
00000720: 9ddf 44e6 1e59 97bf f6c6 3ce5 95a1 823f
00000730: c4bc 64ea b36a 8dbf 150e fd1a 5aac 983f
00000740: ea42 19ce f09b 873f b44c bf40 29f6 7abf
00000750: add8 89cd d401 603f 3b8d 74a9 3af0 aa3f
00000760: 06ba dcfd 0509 8fbf 2be1 d93e ef5d 93bf
00000770: 3e95 05d9 e0c1 903f 96b8 a5fd 8865 943f
00000780: 6100 fbb2 bb8c 6b3f 6359 da53 24ca a63f
00000790: 3d3f 1893 740b 97bf 5536 fd75 87d6 7b3f
000007a0: a856 9c74 0426 9ebf bf7b 6177 b8f5 6c3f
000007b0: 954d cb84 207c 8bbf ecaf 91b0 7a7a 60bf
000007c0: 9510 55bd 57bc acbf 7123 f7a4 2b93 9f3f
000007d0: ebe3 8a66 5446 6c3f 7125 45e6 1c12 49bf
000007e0: dc80 22b0 188c a53f f2fb e094 b574 8a3f
000007f0: ccb6 c1d4 cfc2 9cbf ae5d b2f7 61ba b2bf
-0.03272453397188697 0.019031733542158962 0.03479654370088716 -0.02211520564947538 -0.031474618400553295 0.00018573481754842927 0.05191960576173287 -0.03692392336372403
0.00804629683551229 0.03358854197938804 0.01091509870155541 -0.012766383870551328 0.00860771484958952 -0.03605070353934061 0.027074369116510726 -0.02137026223606708
-0.015614276451062727 0.010021376658982614 0.04244885510755311 0.006154037405672774 -0.010137271979476375 -0.020504207272490235 -0.03044137608810089 0.015498786852346362
-0.02843209805092789 0.0019689878528507962 -0.0395155635335991 -0.03600643253484435 0.03326487708955464 0.029553249451252404 -0.021847044439822858 0.026773891951301945
0.06838527416406787 0.048009272065839076 0.008705879479276582 -0.009513485863127488 0.028748711231780164 -0.009539052697090187 -0.009317469331969603 -0.008686820044252749
0.033947595902936556 0.010955760970406868 -0.01208918640889462 -0.01578477540939799 0.024041908473314243 -0.061104079850177996 0.05704246616850876 -0.04751954669780334
-0.06739725380638383 -0.07747097634213519 0.02465308153655673 -0.014498383580053713 -0.054798934876720946 -0.03152993567956575 -0.009658083607474416 0.01232776906780446
0.0043309383908478214 0.006096551669259433 0.020295735956984327 -0.051153749719202425 0.05221974286318772 -0.012666671401370481 0.0029236779510705075 -0.023304045662335373
-0.06080925802476952 0.04464258657401128 0.04728466227128553 -0.031157716479963248 0.06115853832521534 0.008291485302634885 0.006273807400025937 -0.016267066762650686
-0.0391911842694893 -0.003190056305637779 0.005718338279908571 -0.016606726528074635 -0.0626602034438541 -0.05131399080513088 0.03864384895657757 -0.00950648465619763
0.00293950274277518 -0.05021395473761463 -0.014312691416399218 -0.0035208582383681377 -0.007743123089354836 0.006531445623632495 0.057228200737736094 0.06263968653284017
0.033343271598708174 0.006668001252049555 0.008267784376322732 0.03185474804387436 -0.02788993089563882 0.03330499657882173 -0.01078847606648409 -0.06489862485312958
-0.032000297128658005 -0.04143253286873193 0.002222430045136941 0.004951868353262188 -0.05012608774890309 -0.0018665461723427214 -0.03183387420691411 0.031770196902559875
-0.010361021297250295 0.05990592213093619 -0.0287628164258617 0.02055086700855604 -0.01728458859599168 0.01872541645898038 -0.010506943101204444 0.008383287805213491
-0.08224818919282803 -0.013010349424901441 0.024016445326469262 0.0212592280359007 0.014433519996547557 -0.03119624871539994 0.04343103709281152 0.02735068014826795
-0.018202182069718825 -0.01517762336326039 -0.00802016650207328 0.018849499441132685 -0.0008898755604546198 -0.008460964306481534 0.03076132147505509 -0.012826678989193756
-0.019298204755591075 0.02108129233508139 -0.018957260454894164 0.055326950060849825 -0.051147476160704156 -0.0318136886139791 -0.04283277432088397 0.003761430501580771
0.02460023166777768 -0.013212958017175229 -0.03366821160692988 0.004321145932501822 -0.013063804690300416 -0.02555062786544879 0.0014854099251002603 -0.02867921549829241
0.012303741106777925 -0.005892012635540013 -0.012975728751193558 -0.016122806166015875 0.0708546400894946 0.04621938919229582 0.061063408893501085 0.007179764087655864
0.038861138278030075 0.07480274745441272 0.007213200294424382 -0.0061804659741827835 0.010308218500340156 -0.04072318007577817 -0.0385437674530224 -0.0003969224444874547
0.008180391187772074 -0.002163247604592283 -0.001679283484659062 -0.003782539755925081 -0.02017292031872733 0.033134222290270625 0.0016143003105775543 -0.042675557829208496
0.09271271964372012 -0.0419963328524846 -0.015334753753227508 0.028591292004214307 0.005708798323561362 0.0450303184072363 -0.008558888007275238 0.010468321981638598
-0.01575616822787903 0.010556737349529485 -0.012068734792824283 0.019112984700603144 0.02968452462420258 -0.02065913305961584 0.06722711591494408 -0.01934767718458377
0.001419807160751846 0.04367045339704006 0.009513886718263554 -0.011890327433032777 -0.03382009520693237 -0.04811256616988767 0.035617781239811595 0.006243197187298603
0.026241771801895103 0.03916271841073772 -0.013688911202980237 0.027057398472093867 0.00906444349943038 0.020284139084887624 0.0029977108692603354 -0.03296234798088664
0.030618801426874082 0.03587532661683049 0.013040852798678313 0.017241849799194044 0.025470155483941156 0.011350756887560045 -0.0026844171922719273 0.029838820176493083
0.05175829421441427 0.0053953032044887096 -0.05585850005005285 0.037137300615209 0.0025479419027838813 -0.01590834607687666 -0.02459539259941629 0.032240019046158704
0.019968451195880598 0.038667408331638765 -0.013906657209012145 -0.04198575483585128 0.02986489914804956 0.033092280613738735 -0.008307018168401882 -0.0011451306541525896
-0.0138921283576251 0.010938886063351114 -0.005136517463879401 -0.003202925922807807 -0.02280090599489847 0.009097262438078495 -0.014363675680753814 0.024094970605132177
0.01152790192569016 -0.006582413810934874 0.001953998213418981 0.052614052949389443 -0.015153929528961118 -0.018913019381643508 0.016364587064704887 0.0199185757459693
0.00336300525654569 0.044510970340683874 -0.02250463626665965 0.006796387809868761 -0.02944189988837445 0.0035351374490768246 -0.013420347263866353 -0.0020115276607182066
-0.056124441015101535 0.030834848350227376 0.0034515045593619307 -0.0007650986777118352 0.042084475994899256 0.012917917829438939 -0.028086898193967966 -0.07315647408756007
