approx-error/weights/w_10_17.npy (npy, 1488 bytes, 1 tensors)

array f8 [10, 17]
000000 3c 23 06 86 ad 34 cc bf a6 df 32 bc 05 a0 bb 3f
       -0.22035759967936908 0.10791049809165418
000010 db c8 16 a5 1e 16 ae bf ca 64 16 f7 3f e4 c7 3f
       -0.058762509968248465 0.18665313305681358
000020 c2 58 3b e6 cd 86 c4 3f 2f b2 a1 5a fb 3a ae bf
       0.16036390058315503 -0.05904374581664162
000030 ae 82 8b 63 7c c3 c6 3f e4 9f b1 37 98 e7 c7 3f
       0.1778407560405148 0.18675520629335474
000040 b1 6c 15 56 c5 c8 af bf 7c b0 e1 97 51 b1 e4 3f
       -0.06207863498522082 0.6466453520238384
000050 d8 c3 99 9a 99 37 78 3f 04 fb c0 b0 b3 0d d6 bf
       0.005912399306553483 -0.3445862985717414
000060 47 1d e2 06 ad 54 ae bf da a0 79 28 c8 8f a6 bf
       -0.05923977574371491 -0.04406571859436932
000070 52 89 4b 87 77 41 dc 3f 6e 52 dc dd 45 41 d0 bf
       0.4414957829705105 -0.25398394266202373
000080 85 a3 e7 0a d5 60 88 3f 89 79 e1 f4 f7 9a c7 bf
       0.011903442759789726 -0.18441676575725932
000090 dd cd 37 58 6d f3 de 3f bc 63 6a 7e fe 54 de 3f
       0.48360761275327296 0.47393762917777926
0000a0 7f 7b c4 12 ec 1a 95 bf 2a 1e f7 56 67 c7 a5 3f
       -0.02061051239536082 0.04253695427501854
0000b0 4c 66 85 cf a7 45 d3 3f 24 93 20 10 8e eb c6 3f
       0.3011264349530378 0.17906356608832497
0000c0 fb d0 40 ec 6f f2 b3 3f 4a e4 65 90 f4 06 ac 3f
       0.07791804807567708 0.054740564943991446
0000d0 49 6c 2f 6e f3 82 d2 3f 49 56 10 68 52 26 d1 bf
       0.2892426086452287 -0.26796398317796793
0000e0 9b 97 95 59 79 a0 9c bf c1 5d 3f b4 d6 00 cb 3f
       -0.027955909817499607 0.21096309472225808
0000f0 2f d0 aa 4d f9 a2 d9 bf 2f a2 42 5b 1a d5 81 bf
       -0.4005721338719494 -0.00870724287990851
000100 f6 b5 77 cc 01 30 bc 3f ac 18 89 d9 e5 28 7b 3f
       0.1101075290859724 0.006630800104693229
000110 4d b2 00 f7 0e 82 cb 3f e1 8e c5 70 9f ef d9 bf
       0.21490656910590858 -0.40525041592466776
000120 15 cc a7 f5 f8 25 c5 3f 5a 0e d5 c9 44 69 ce 3f
       0.1652213286866703 0.23758754592027992
000130 3d 57 55 aa 3d 63 da bf da d0 0b 92 8d 4c d4 bf
       -0.4123071826373808 -0.31717242491073494
000140 e2 d5 af 8e d4 2f c5 bf 6f 04 10 9f ce 28 6b bf
       -0.16552216498500544 -0.003315356786061367
000150 0a 08 07 0d 49 fc c4 3f b7 71 82 90 85 23 bc 3f
       0.163949138032024 0.10991701868119362
000160 f1 34 4d f2 3f 36 cf 3f 84 c4 fd 07 48 e7 d4 3f
       0.24384307223446158 0.32661629467390463
000170 7d fd 88 8d a0 c1 ab bf 4a 1c c4 9b c1 3e b3 3f
       -0.054211632992969584 0.07517633488542788
000180 15 9f 4d 2d d9 00 c4 3f 3c 33 65 8f ad 01 d8 3f
       0.15627588951178298 0.3751024151177267
000190 5a a6 11 78 82 ce c5 3f 97 cf c3 e9 f6 f8 b4 3f
       0.1703646742128509 0.08192389685774369
0001a0 c8 49 94 69 13 f7 a2 3f 2f 82 e4 ac 41 12 d5 bf
       0.03704128898438658 -0.3292392910389336
0001b0 6d 2b 78 7f ca 89 d6 3f ad f7 6e dc 7a 21 d2 3f
       0.35216009567437007 0.28329345251756416
0001c0 70 4e de 57 84 9e ba 3f 51 40 c7 30 5a 89 d7 bf
       0.10398127694343784 -0.3677583195067245
0001d0 2c 62 9e 75 93 5a d3 3f 3a 2c 0d 1b ad 70 c2 3f
       0.3024033211345649 0.14406360455390815
0001e0 4c 93 c2 7b 6a 01 d4 3f 8d 11 cf d0 8c 7b cf bf
       0.31258642278617255 -0.24595794864411538
0001f0 e1 62 2d c0 67 03 3c bf d0 e0 bf 84 99 af c2 bf
       -0.0004274490640248496 -0.14598387700949056
000200 cc 65 5e ba 99 55 d1 3f f0 ed b6 7a e5 ae d8 3f
       0.27084963989326805 0.3856748293289618
000210 49 1a f4 a4 15 6c b8 3f 40 7d 65 81 33 ef b9 bf
       0.09539923932252593 -0.10130617055027802
000220 7d 1d 51 ea c7 f3 b2 3f 94 43 6d d8 c1 7b d0 bf
       0.07403230162264225 -0.25755354056769275
000230 5d 33 79 ff 61 f5 c6 3f d7 58 ab bd 67 b8 ce 3f
       0.17936348890580237 0.24000260125348546
000240 b2 72 00 a0 a5 ef d4 3f bf cc 52 0d 28 89 b1 bf
       0.3271268904225436 -0.06849909138945785
000250 cf 80 fe b8 9b 4c d1 3f 83 e2 22 1d 71 4d d2 bf
       0.27030079904399157 -0.28597667546595334
000260 b7 8e a5 fa 7c f4 49 3f 2c f0 89 fd 44 0c bc bf
       0.0007920847176987243 -0.10956221761620161
000270 70 7e 1b 1e 10 1b c8 bf 01 11 bb 52 12 1c ac bf
       -0.18832589597785754 -0.05490166911980233
000280 f9 d7 ad 87 23 77 b6 bf d8 a0 3e 9b 61 42 df bf
       -0.0877554136512514 -0.48842659149751233
000290 93 ca 12 77 eb 1a bb 3f 18 56 95 ae 8c d7 de bf
       0.1058795133310844 -0.4819060997882345
0002a0 2f 9c ea 72 aa c7 c6 bf 3a 54 ba 7e 3d 28 98 3f
       -0.17796831713823866 0.02359100423798941
0002b0 83 6d 53 84 ba 45 b0 3f 17 e6 2e d2 da b7 a3 3f
       0.06356397371876281 0.03851207557404395
0002c0 d5 d3 8e a3 30 dd cf 3f 00 14 69 73 f3 83 ce bf
       0.24893768297411492 -0.23840182433391988
0002d0 22 09 f1 34 fa 01 d1 3f 08 b1 e5 82 ef bc c1 bf
       0.26574568910668195 -0.13857835666147644
0002e0 e6 e6 43 96 d5 aa 96 3f 9d 7a 5a ac 09 92 bb 3f
       0.022136056229078792 0.10769710977408882
0002f0 1c 10 bf e7 4d 75 e3 3f 68 d9 9a 72 76 06 d8 bf
       0.6080693746848769 -0.37539445106394576
000300 5d c5 52 f3 2d 2a c2 bf a1 8b d7 d3 68 1a cb bf
       -0.14191221600553208 -0.21174345344396975
000310 e8 d0 cb 50 42 5c c0 3f 86 fd 31 2e a7 21 40 3f
       0.12781552262425255 0.0004922930060188714
000320 c4 4c dc e2 e8 7e d6 3f 89 02 5a f4 28 bd ce 3f
       0.35149595407819967 0.2401477044222882
000330 2c 34 57 f5 ec 2a cc 3f b6 49 b5 98 dd fa d3 bf
       0.22005998591922216 -0.31218662178903445
000340 e4 7d 92 a1 15 95 c9 3f e4 0a e6 57 0b 3e c8 3f
       0.19986219777363978 0.189393442076912
000350 df 4d 1a 36 a9 3d e4 bf ec 2f 68 28 97 6c d5 3f
       -0.6325269753164625 0.3347528357123781
000360 1f 9f 6b e9 92 22 be bf 4a c9 63 8f 9d 51 c0 bf
       -0.11771505545368342 -0.12749070645765875
000370 4f 49 06 20 b6 5c c9 3f bf 9c 17 50 b8 14 ad 3f
       0.19814182819079426 0.05679870584190771
000380 2b cd d3 12 11 c7 b0 3f 14 a8 69 f5 c3 c8 c1 3f
       0.06553751668598255 0.13893937571566595
000390 67 48 ef ec ca 34 88 bf 83 fb cb 08 76 ce cb 3f
       -0.011819444041894124 0.21723819188624924
0003a0 e1 5f f1 20 5a 33 cf 3f 90 3b 2c aa 9b 41 b0 bf
       0.24375464066065347 -0.06350109963044148
0003b0 ca a7 5e 85 de 22 cf 3f 56 9a b3 0d 4f f5 c4 bf
       0.2432516242236587 -0.16373623055479197
0003c0 a8 a7 cc 15 79 bd d7 3f ce b8 01 54 8e 69 cd bf
       0.37093951348162557 -0.22978381254092145
0003d0 21 5e a9 4b 48 49 c2 3f db 71 d9 c2 1e 41 b1 bf
       0.14286140150464724 -0.06739990479531548
0003e0 e9 65 4a 8e 5a bf da bf 3e 36 4f 25 ee 11 c1 bf
       -0.4179293050343334 -0.1333596880125913
0003f0 bc 1a 38 3c 3d cf b9 3f 0c 54 8b a5 21 6e e1 3f
       0.1008184692401341 0.5446937783514172
000400 b5 4a cb 9b 1e 3c b3 bf 9f b4 00 eb 97 4a c0 bf
       -0.07513610175673587 -0.12727641081565808
000410 63 d0 68 9b 89 27 b9 bf d7 80 46 ec 4e 23 d1 bf
       -0.09825954479384928 -0.26778004716653697
000420 64 f0 90 a0 bf ee d0 bf 2a cb 61 58 00 d9 d1 3f
       -0.26457205467500544 0.27886971121840765
000430 a9 07 31 cb 60 be b3 bf e5 4e b6 b7 74 94 a4 bf
       -0.07712368927698655 -0.04019512884693003
000440 a8 bb f4 da 20 04 d4 3f 86 7f 30 04 ce f8 b2 3f
       0.3127519739381861 0.0741089592197551
000450 45 30 9a 8b fb d8 c2 bf ce 48 77 93 59 7c d6 3f
       -0.14724678341406353 0.3513397159669126
000460 be ff 52 57 95 1a db 3f 05 8d ff 6b bc c9 ca bf
       0.4234975197577987 -0.2092814948401626
000470 78 00 c7 3c d5 3f ba 3f fd 0d 9a 0e 7b 5c ad 3f
       0.10253651365110439 0.05734619668239913
000480 e2 cc 76 41 6e d9 c0 3f b0 af ed cc 95 7a c2 bf
       0.1316354579590558 -0.1443660021426445
000490 5a 1a 03 32 61 ee d4 bf 89 07 c8 76 0b a2 26 3f
       -0.32704954036709 0.0001726759904983578
0004a0 ef 76 62 b5 60 51 ba 3f 5e 51 42 56 49 89 d0 bf
       0.10280422619186046 -0.25837930129752873
0004b0 20 ba d8 75 33 26 c9 3f 92 2a f3 25 19 98 df 3f
       0.1964783025191119 0.4936583395580466
0004c0 56 14 c7 31 89 6b b9 bf c8 b1 08 4c 0a 98 89 bf
       -0.09929711785578496 -0.01249702496087303
0004d0 c3 60 87 2b 66 64 cd bf 17 3d 4c e6 85 37 c5 bf
       -0.22962643742972064 -0.1657569288731586
0004e0 8f 3e 71 cc 40 69 d7 3f ef 26 1a b2 9a 96 a9 bf
       0.36579914059709834 -0.04997714447115508
0004f0 ac 57 54 df ee 0d dd bf 1d 63 95 0c 8c ea d6 3f
       -0.4539754086448464 0.35806561688291244
000500 13 ee 65 21 99 1e b6 3f 99 93 3b de c6 ee d4 bf
       0.08640439095864165 -0.3270737810365119
000510 dc b3 24 72 b7 ea b2 bf 49 ff 37 80 7f ab d5 bf
       -0.07389399086669307 -0.3385924102913021
000520 21 da 89 e6 e4 1d 87 3f 11 42 03 eb 5e cd b7 bf
       0.011287487302280632 -0.09297745931258584
000530 a6 fd e2 d0 87 a0 ca bf 21 cc 7a 5f 77 37 be bf
       -0.208024003024531 -0.11803384858176048
000540 16 95 92 31 66 b6 c8 bf 7c 5c 76 8d 33 58 d5 bf
       -0.19306638165031903 -0.333508384844613
