weights/w_10_224.npy (npy, 18048 bytes, 1 tensors)

array f8 [10, 224]
000000 bd 5b cb 86 a6 66 bd 3f 31 e4 21 09 55 25 a6 bf
       0.11484757223966731 -0.04325357185820911
000010 4e d2 2b 4f ba 1e a3 bf 4a 42 1f 45 c3 6b b3 bf
       -0.03734380928463975 -0.07586307942916296
000020 49 25 59 b1 fe 53 af 3f 63 e6 cb a4 43 d4 c4 bf
       0.061187705182030934 -0.16272779032424287
000030 8e 89 11 8e d9 94 bf 3f e1 15 5b cc 55 8e ab bf
       0.12336501806706776 -0.05382030601098698
000040 b4 10 40 9a 43 19 97 3f 23 91 7c 54 fb 0d 92 bf
       0.022557312287987144 -0.01763146117367954
000050 10 a5 a0 16 e6 76 ba 3f 35 c9 bb b5 fc a4 c2 bf
       0.10337675144605307 -0.14566000817974048
000060 f8 4d d1 3f e0 57 97 bf 80 d8 60 da 4b ce 9b bf
       -0.022796157736889783 -0.02715414543509853
000070 40 2b 75 1a 7e 85 b4 3f 39 2f 77 4f 83 e8 b3 bf
       0.08016193529071547 -0.07776661577298406
000080 50 8d b7 25 c7 f7 88 bf 02 bc fa 4f 61 c7 af bf
       -0.012191348875552649 -0.06206802464782159
000090 0e 1f f8 49 52 73 68 3f 69 b6 62 13 20 19 a5 3f
       0.002984677048292534 0.04120731579437804
0000a0 06 0d 96 c4 e2 eb b3 bf 19 c9 ba 37 40 b8 b4 3f
       -0.07781808185068337 0.08093644486033148
0000b0 0c 24 de 43 a8 51 b0 3f 47 3e 08 74 c4 30 a2 3f
       0.06374599129607378 0.035528315700613926
0000c0 3f 4c 21 ab 40 4e b0 3f 5f 24 8c 39 50 c0 a8 bf
       0.0636940400884649 -0.0483422346351936
0000d0 d0 3a d5 a4 71 cb 81 bf 17 63 ba 8f 07 f0 b0 bf
       -0.008688819735338 -0.06616256007181352
0000e0 4e c0 c9 3a 33 65 93 bf c6 51 a6 04 f7 32 a3 3f
       -0.018940735304966254 0.03749820644148687
0000f0 4c b0 3c 74 d4 09 a9 bf bd ac 34 a3 ab b9 9c bf
       -0.04890312117490278 -0.028052026592530355
000100 f4 ac 13 de 3c e0 a8 bf 32 76 02 e6 c6 98 ae bf
       -0.04858579836749213 -0.059759345605226236
000110 3b a6 e9 33 a4 4c a8 bf a9 bf 6f a7 77 57 4d bf
       -0.04745972760867941 -0.0008954366920743601
000120 a6 6b 28 15 3a 39 b4 bf d9 f5 53 7d cd f8 90 3f
       -0.07899821297216522 0.016574106954967725
000130 52 63 7b ec f1 0a be 3f 1c c3 a8 8b bf dc aa 3f
       0.11735450767026848 0.05246542529892492
000140 9a b2 d0 62 31 c7 8b bf 50 bf 6d 9f f6 10 b0 bf
       -0.013563524082280499 -0.06275884048750169
000150 63 a9 70 77 24 0c ab bf fe e1 6b b6 3e a2 be 3f
       -0.05282701452263685 0.11966316178939704
000160 ef 6f 45 28 9d 6d 6d 3f 70 8e e4 56 3b 0f a7 bf
       0.0035923070410443995 -0.04503808437064272
000170 b2 82 dd 33 16 a5 8b 3f 73 0c a3 df ec 01 c3 3f
       0.01349847169666538 0.14849625510950978
000180 9d 29 b5 a1 32 66 81 3f 32 80 50 f0 ce 57 a6 3f
       0.008495708045889222 0.04363867457891536
000190 3e 2b 7a ea 89 bb 95 3f ed 03 47 f0 cf 80 99 bf
       0.02122321599612608 -0.024905442276352763
0001a0 f8 0a c5 01 08 ae b4 bf 23 96 45 0b ee 4a 99 bf
       -0.08078050654607327 -0.024699897230126788
0001b0 1b 3e 67 77 8b 3f 8e bf bc 3e f8 3b 6a 3c a5 3f
       -0.014769639569663309 0.041476554699440865
0001c0 84 ba f2 19 1d 5f ae 3f 87 82 07 14 67 da b0 3f
       0.059319409768581216 0.06583255995747993
0001d0 3d 13 a6 a8 3f ad 94 3f f4 01 cb 8e 6f 05 b0 3f
       0.020192141216756488 0.06258294330746833
0001e0 08 d3 26 05 3c 4f ab bf 44 6d aa c2 5a ad b6 3f
       -0.05333888590704389 0.08858268024998944
0001f0 b7 c8 10 e6 79 91 a2 3f eb 2e f0 8a 08 95 95 bf
       0.03626614507119668 -0.021076329689136235
000200 6e 08 a7 eb 3e af a1 3f df 8a 1d 90 c4 e2 75 bf
       0.0345401442205152 -0.005343215774561399
000210 24 a0 de 89 93 7b b4 3f 24 16 3c 37 4d 82 bb 3f
       0.08001062503774442 0.10745699499610645
000220 82 28 21 f5 98 c7 c3 3f 35 c6 8a a2 e0 46 b9 bf
       0.15452873200621658 -0.0987377545195834
000230 7e a2 d7 2e 85 23 ba bf 27 ab 5a c1 09 43 a2 bf
       -0.10210449594127088 -0.03566771016388364
000240 fd 85 30 bc 72 2c 87 3f 56 e4 a3 19 b9 b7 af 3f
       0.011315246933068396 0.061948570613772944
000250 85 d9 44 65 2b da 96 3f 19 2c e8 83 16 4d c2 bf
       0.022316625648465944 -0.14297753754394263
000260 c9 ab 37 f0 5e 2b 96 bf 6a 12 fb 90 17 f9 ad 3f
       -0.021649821674070844 0.058541046569676805
000270 29 c0 85 21 b7 a8 90 3f 92 ed 02 e5 c9 95 ab 3f
       0.016268598004387656 0.05387717171239638
000280 fa 07 d7 bd c3 18 90 bf 3d bf 6c 8e f1 11 8d bf
       -0.015719469510948138 -0.014194380911788701
000290 43 af 50 14 af 03 8b 3f 4d cf c3 58 25 b0 9d 3f
       0.013190620238752287 0.02899225572851032
0002a0 1c 37 ae 84 d0 b6 8c 3f 3d 36 90 8b 8e 3b 81 3f
       0.014020566033447639 0.008414376863608125
0002b0 d2 85 9b 12 3b 47 a8 bf 66 e4 14 05 ff 55 9b 3f
       -0.04741844751493897 0.026695236859471193
0002c0 74 48 fc 90 d1 a3 81 3f 4e 97 f8 89 a2 71 b4 3f
       0.008613240468126039 0.07985893124040652
0002d0 82 2d 13 25 5e b3 b5 3f af 9d bd 46 9a cf 8a 3f
       0.08476818471097228 0.013091283115229084
0002e0 38 b4 40 43 c2 2b 9b bf ba 08 02 f0 4e 1f a7 bf
       -0.026534114222318744 -0.045160738752217225
0002f0 68 42 3b 19 4d a9 9e 3f 7b 4a 8f f3 de 65 76 3f
       0.0299427076959681 0.005468245414663837
000300 9a c1 16 4a 31 e5 98 bf f6 5d 6f 97 67 40 69 3f
       -0.024311800143267705 0.003082468344910212
000310 90 65 c6 5d bc 71 a6 bf 0e 44 7d df df 44 a9 3f
       -0.04383648533548545 0.04935359576359853
000320 b1 3e 03 0d ad 2f a0 bf 9d 16 92 2c f1 29 b6 3f
       -0.03161373885961661 0.08657748544836825
000330 71 6a 5f 0b 8f 36 9d 3f ce 28 21 45 df 7c a5 3f
       0.02852843768037378 0.04196832388750381
000340 46 95 94 a5 70 d1 b3 bf 5d f0 d7 9a df 86 88 3f
       -0.07741455118646909 0.011976000702809292
000350 d2 c4 3b 0f f6 ce aa 3f 32 1c 27 c7 1d 43 b1 bf
       0.05236023841815442 -0.06743036377075454
000360 49 f2 7a 56 41 46 93 bf 68 26 34 77 fb e3 62 3f
       -0.01882268991788497 0.0023059760511657153
000370 82 e3 ce 19 8c da b8 bf f6 67 fe f3 5a d1 96 3f
       -0.09708476667482382 0.022283002035329923
000380 0a aa 4c 95 a0 a1 ae 3f 07 07 94 13 65 1d af bf
       0.05982686827185908 -0.06077113975517361
000390 2e a1 58 53 3b 61 99 3f d0 d0 5a 04 aa c0 b7 bf
       0.024784972154663958 -0.09278357130353077
0003a0 db 2a 0b f5 a5 69 66 bf 81 43 aa 18 ed 3e bd bf
       -0.0027359238959879634 -0.11424142696547614
0003b0 66 8e 1e 4b 42 4c b4 3f d4 6a ca 7e cf 9a 9d 3f
       0.07928861936539419 0.028910867799463016
0003c0 cb d0 2f d9 3f 84 5c bf 25 73 9e 62 a8 0f ac bf
       -0.0017405150908845087 -0.05480695918888604
0003d0 03 be fb 25 24 0e b7 3f d1 22 17 9d 6e cd c1 3f
       0.09005952765777896 0.13908178968838183
0003e0 ea 9d 4b cd 9e d0 c0 bf 94 ed 88 14 f4 5f b6 3f
       -0.13136658691585917 0.0874016332754109
0003f0 16 34 b2 6d f7 75 bd 3f 2f 71 e0 eb e9 78 98 3f
       0.11508127620818728 0.02389874937226571
000400 67 28 36 80 fd b4 b5 bf cc 97 d2 00 e2 40 af 3f
       -0.08479294185795681 0.06104189167062621
000410 5f 0e d3 bb 92 32 8a bf 4c 37 6a 2f b7 dc a5 bf
       -0.012791773182818376 -0.04269955114169352
000420 fb 98 69 2d a9 43 b6 bf 4e c8 4c 76 ff ed a3 3f
       -0.08696992262557394 0.0389251548680397
000430 e0 7b c3 7d 2e b3 ac 3f 13 d7 92 c5 72 92 a6 bf
       0.05605454716873459 -0.04408606206690826
000440 21 a7 a6 b8 56 d8 a2 3f 01 a6 2b b4 7a b6 b4 bf
       0.0368067837146795 -0.08090941332525149
000450 5c 18 dd dc 16 07 ad 3f a3 da 95 35 da f8 6a 3f
       0.05669471212472452 0.003292490186761769
000460 84 b3 a6 9c fe 03 8b bf 7a fd 8a 5f 47 77 7d bf
       -0.013191212802519343 -0.007193831254596156
000470 84 23 3f 41 3b 74 af 3f cf 7f 1e cd 4a 2a ab 3f
       0.061433650698353964 0.05305703882117962
000480 a1 f9 ce 37 b7 2a a3 3f 7c 03 8b b7 79 f0 83 3f
       0.03743526989227353 0.00973601428393222
000490 9f 4b ea 30 89 89 76 3f f0 1c 52 a6 b7 62 a6 3f
       0.005502258207928628 0.04372190385134356
0004a0 b6 6f 07 f5 31 d5 90 3f 8a 4c ab 2c 69 b5 a8 3f
       0.016438274937044382 0.048259054854178876
0004b0 d3 3a 21 70 e4 73 96 bf 7f 0a bd 4e 18 09 c6 bf
       -0.021926469177112672 -0.1721525558915182
0004c0 d7 b5 a1 20 8d cd b2 3f c0 43 ac d2 d9 ca c3 3f
       0.0734489636103811 0.15462801729930042
0004d0 7c bc 68 28 84 f4 9f 3f 49 3b 99 ef 59 01 7d bf
       0.031206192938210794 -0.007081366836770916
0004e0 32 3d 17 35 e6 c1 83 bf c0 1f c2 b9 3e 3d 81 bf
       -0.009647177214815093 -0.008417596858876553
0004f0 89 30 b0 11 d3 2a 54 3f a2 21 9d 3b 0b 4f b4 bf
       0.0012309132787349539 -0.07933111386694816
000500 1b 51 43 35 12 b8 a2 bf b9 80 1a fd df 0b b2 bf
       -0.03656060123617718 -0.07049369744572943
000510 79 26 e4 ff 64 03 92 3f 82 87 33 83 20 7a 95 bf
       0.01759107410274516 -0.020973690040484445
000520 d8 1c 4f 03 46 ed a1 3f a9 95 9d cd 1b 4c 89 bf
       0.03501337805169563 -0.012352196895970407
000530 70 f0 3c 68 55 da b1 3f 91 5e f4 9b 88 eb 8e 3f
       0.06973775668024174 0.015097682246547424
000540 d8 a2 2a 3b 78 d3 c3 3f 7b 25 a8 b4 89 29 c1 bf
       0.15489104165069167 -0.1340801365006817
000550 aa ff 04 50 2c 6b a7 bf 43 84 07 1a 2d 51 b0 3f
       -0.045739540832527695 0.06373865018351048
000560 97 fb da b2 b0 e1 c6 3f 41 29 ae 05 59 00 92 bf
       0.17876251919912242 -0.017579451533984217
000570 42 bf 51 ce 19 4b 69 3f 6d e1 79 39 a5 62 90 bf
       0.003087568666664626 -0.01600130236917734
000580 e7 27 40 25 82 19 b8 3f 99 94 d6 5e 23 cd 94 bf
       0.09413922700346654 -0.020313790000404983
000590 fc 0d db d4 69 9e a8 3f 0d af 39 92 65 27 97 bf
       0.048083598359450946 -0.022611224222074223
0005a0 4a db b0 0a 98 08 b7 bf 9d a9 5e cc 7b b3 96 3f
       -0.08997488270766243 0.022169050549260317
0005b0 e3 4b 34 8e 2a 37 a2 3f 95 9d b8 b1 5b 68 b7 3f
       0.0355771349515164 0.09143612946410536
0005c0 3b 30 f8 5f 5e fc 7f bf 00 45 c1 0b 48 59 a6 bf
       -0.007809036876562254 -0.04364991324895051
0005d0 0f 18 26 18 47 5f a4 3f ba b4 c4 9d f7 6d 91 3f
       0.039789411256649136 0.017021054272096527
0005e0 d4 42 c5 48 04 52 94 3f 30 2e 93 f3 75 2c 75 bf
       0.01984411901622958 -0.005169354198368434
0005f0 16 a8 ca cb 9a 00 b5 3f a4 54 d6 ed 66 c0 9a 3f
       0.08204047656423116 0.02612458063739055
000600 47 fd 05 2f c3 3c c1 3f 2d 5b 0a e9 3f 1c b4 3f
       0.1346668223959375 0.07855605544532969
000610 f6 18 cb 41 9d db a7 3f 0b f8 2b 76 fb 74 bd bf
       0.04659739902631259 -0.11506625781109407
000620 aa d2 d9 19 e0 cd a5 3f 07 48 a0 e5 c3 6d 9e 3f
       0.04258632960855853 0.029715596094384036
000630 75 20 c0 c4 55 5b ad 3f 9e de 40 ae 94 e7 b2 3f
       0.05733745600451893 0.07384614233239481
000640 93 c5 8f 97 1e 06 9d bf fe f8 fa 55 4f d4 ad 3f
       -0.02834365654047628 0.05826042103352512
000650 bf c8 4c 0f 0e 5b a4 bf 44 df 73 a9 1c b1 c1 3f
       -0.0397571939160044 0.13821752809576016
000660 fd c3 ee ca cc 1b b8 bf bb fa 80 d8 6a de bf bf
       -0.09417419390116773 -0.12448756967294632
000670 a5 62 26 03 de e0 bd bf 90 8b 0c 39 86 1e b0 bf
       -0.11671245171454332 -0.06296576397703135
000680 f0 31 75 42 97 41 b4 bf b5 66 df e1 e4 b3 c1 3f
       -0.07912583706383436 0.13830243138254664
000690 a0 8b f5 28 8a a3 97 bf d4 d2 f3 e7 7d 4d b8 bf
       -0.023084791898678625 -0.09493243134404433
0006a0 a2 a0 3e 97 a9 2b b4 3f 1c 20 d8 c3 7e 3b a5 bf
       0.07879123632904109 -0.04146953716923482
0006b0 a6 e7 f1 ca 25 63 b6 bf 2f f6 c0 36 aa b4 af 3f
       -0.08745037274084541 0.06192523878460709
0006c0 66 d7 32 e4 e2 90 a6 3f a0 db 56 3c c0 7d 9f bf
       0.04407414470317299 -0.0307531391933612
0006d0 1b 4c 2a cb 0c 7a b9 3f 23 ed 82 a5 b1 b1 82 3f
       0.09951858482445212 0.009127986777790092
0006e0 8d 78 90 8f 61 44 bd 3f 81 93 01 5c 0d 33 a2 3f
       0.11432466273297077 0.035545747262211165
0006f0 ae e2 c2 37 f6 36 bc 3f e3 2d 63 94 f1 ae 7f 3f
       0.11021365033492245 0.007735198660337758
000700 70 ba dc b1 fe 18 b4 bf 2a db 39 fc d4 2d c4 3f
       -0.07850639192904807 0.15764868083689382
000710 99 18 6f 85 40 fc a1 bf 44 52 39 75 bb 35 8a bf
       -0.035127655304266266 -0.012797798647775534
000720 07 f9 c0 0c b1 14 a7 bf 9f 16 3c 3a 7e cf 8a bf
       -0.04507973938642534 -0.013091074135000822
000730 2b b4 78 49 d1 fc 8f 3f eb e8 2b 0a b5 9a 8a 3f
       0.015618929915115562 0.012990393040571443
000740 56 be 6d 5a 7d c8 a5 3f 07 34 c1 49 7d 87 bd 3f
       0.04254523972383299 0.11534865427638873
000750 d6 c0 98 75 17 c2 7f bf 6e b0 af e3 6a 51 b4 bf
       -0.007753459585316777 -0.07936733301875318
000760 8a d6 e0 9e 20 7b b3 bf e7 41 b1 b2 6d f0 a5 bf
       -0.07609752539505102 -0.04284994894317489
000770 52 15 b2 be e9 95 bb bf e8 10 48 c1 1a 30 ab 3f
       -0.10775624185233326 0.053101383298811033
000780 98 c6 59 9f 05 6b a0 bf 63 e7 e0 c7 0d 7f 94 bf
       -0.03206651277731715 -0.020015921902291633
000790 1d 89 07 c5 ee e9 1f bf 97 f7 62 0a 13 03 b7 bf
       -0.00012174148401514593 -0.08989066127375477
0007a0 c2 64 0f 76 39 62 ac bf 75 3e d7 d1 fd 3b a6 3f
       -0.055436893140446766 0.043426448693591725
0007b0 7a 47 06 5a 1c 62 a4 3f b1 41 80 70 5c 35 9d bf
       0.03981102560932377 -0.028523868910328157
0007c0 9d bf 8c 09 01 d5 bd 3f 3d 9a 84 5a ad 83 b5 bf
       0.11653143389844307 -0.08404048404609284
0007d0 b7 13 0a 89 c0 bc 96 bf 4a 1a 3b 9f a0 6d 8e bf
       -0.02220440708562751 -0.014857535228100311
0007e0 63 ed 2b e5 be 02 c7 bf 2a cd 25 14 ad ec bf 3f
       -0.17977129163760272 0.12470514051328921
0007f0 03 12 14 b9 e3 24 98 3f 59 51 bf c0 2c 36 b1 bf
       0.023578222438134244 -0.06723289209123119
