weights/w_10_46.npy (npy, 3808 bytes, 1 tensors)

array f8 [10, 46]
00000000: 25d6 3515 9532 95bf b480 1609 5c12 bfbf
00000010: a68d b9a6 8208 a63f 55ef fe87 fc18 c0bf
00000020: 0855 788d 8a34 b83f b1c6 d9c8 9ca1 c23f
00000030: f528 d973 2b82 bbbf 68f0 6eae b63d c73f
00000040: cbd0 7f88 e48b a2bf 79ab ac1d 2783 c63f
00000050: 95b1 08c4 9513 b13f 50f8 93e9 bbde c53f
00000060: 7efe 1cee a16d c3bf 8242 8a0e efa5 90bf
00000070: ee77 592e 7448 cc3f 5b6d 871a 2716 b8bf
00000080: 7f02 a3d6 49d9 d3bf 4287 5e68 4ded d2bf
00000090: 92b8 f74e b06b d8bf 88fc fbaa 4099 d4bf
000000a0: d825 4e60 ec0a b0bf 5658 e4b9 efe9 c83f
000000b0: 9174 bef2 1e3c b1bf d675 cdf4 a937 a93f
000000c0: 8d39 df2d 8a25 91bf f6da 2181 bd52 553f
000000d0: 705d 5774 7a38 9abf cb60 122d 3027 9bbf
000000e0: 1bfe ed97 08f9 b13f 45d1 0e83 63ea c6bf
000000f0: c72a cfc9 04af c33f 7711 0241 82ed c13f
00000100: 93c3 3ae5 5868 9ebf ce9e 39b7 6863 bf3f
00000110: 8c12 99f5 4f55 bbbf a949 7293 dfef b4bf
00000120: e150 c445 2d5c 983f 61a0 06ef 56a7 9dbf
00000130: beb5 c707 0f7d b1bf f550 235c 0335 babf
00000140: b5e5 65c1 1fba b5bf 7694 91e8 0a4d c23f
00000150: f2eb f63a 22ef d2bf 6834 2cea ab79 ab3f
00000160: ec8f 3dbd dc6d a2bf 74bc b7ed 645d bc3f
00000170: 3165 edbb f25e b13f f7d8 4184 d575 d7bf
00000180: 043a a461 9db7 b33f 4051 5baf 51df a53f
00000190: bb61 2cd9 2b98 673f 2a5c e741 b39c afbf
000001a0: 32cb 812e e7c6 bc3f 2383 0fa0 dfdb abbf
000001b0: 4b45 f9d9 1ff0 ce3f 90b2 914f aa08 b33f
000001c0: 2b09 c90b 4c06 d23f e10c aedd ff7d babf
000001d0: f1ab 6398 fe9b cdbf a2b2 7d2d 381b b83f
000001e0: 0015 ea89 ebc1 bc3f c550 1184 9114 733f
000001f0: 777b 60f2 acf2 c9bf d540 5626 e935 aebf
00000200: 2995 2e44 73d7 b43f b1c2 f265 6ed8 98bf
00000210: 2c5f a21e f94a 8fbf 21a2 7fc8 61ab 97bf
00000220: 58b1 eeab 0f7f bfbf 6b22 e3a9 e4f9 b1bf
00000230: 0884 7c98 2a0e c8bf 28a7 9bbe f1cf cd3f
00000240: 6268 95ed 2f08 b0bf 6036 22d6 801b b03f
00000250: 422d 942a 493b c1bf c9cd 7bfe a6cb ba3f
00000260: 876a 3ab6 1396 cfbf 5ad8 91f4 3c0c bf3f
00000270: 6446 6255 a615 73bf 8a46 feed 89cb d13f
00000280: eaa9 a3a6 0e08 c6bf 53b0 45b2 849b 843f
00000290: 415f d5d5 13c5 a83f 3f55 1887 30ca c43f
000002a0: 83ee 78e4 9185 acbf 5ed5 b41f 0154 873f
000002b0: 0fe3 3525 4f10 d2bf 0cd4 af1c 5cff bbbf
000002c0: 7932 8677 2876 ae3f a0e5 974c 829e c23f
000002d0: 16eb 6f52 ce00 a3bf 38b1 9245 7256 d13f
000002e0: 2b09 a8e3 860f cf3f 96c1 92fd bd1f 81bf
000002f0: 7e16 8bf4 394b d5bf 9e12 45d2 c05d cfbf
00000300: 89c9 4b15 9a73 bbbf 7f4d e62d 8fb0 c33f
00000310: 6b59 dac4 56e6 a53f 6f6b 6a19 257a d2bf
00000320: b4bc e753 9725 a0bf 4951 9f8c fe77 cc3f
00000330: 6815 4882 6174 aabf f597 a9b1 a277 babf
00000340: 5c41 8d3b a620 d23f 7c3d 84c9 7e28 7e3f
00000350: bc41 2a99 f7e8 b0bf 9175 cefd 33b7 a83f
00000360: 50fa cbac 6a62 633f c6ee ff3e 364a aebf
00000370: f278 ad74 ed52 c53f e0fa 7115 eeaf c33f
00000380: 4274 dc91 cdac bd3f fd7a bba1 500c 8dbf
00000390: ff24 c8cc dc3c c43f ddb5 47f4 a410 7cbf
000003a0: 754b 040f e977 b03f 164d f235 723d c23f
000003b0: 885e 8bc9 8a8b bc3f a3ab dca5 cf94 cf3f
000003c0: 05e4 cd03 4bda af3f 0139 24fa 5bb7 cdbf
000003d0: e593 a734 ce78 c4bf 3e54 0d32 cdd2 c73f
000003e0: 409d 698d fc61 a7bf 1fc1 d572 6948 ab3f
000003f0: c72a f010 840c bebf 5cbd 2746 41a9 c13f
00000400: c549 06e1 9129 abbf e7fa 3669 acba c93f
00000410: a907 943c 7ec8 b2bf 067c 4d08 eaba c33f
00000420: 8e3a e6f3 dccc b73f 8f97 f8bf 7b7e b9bf
00000430: fb14 d782 7764 c33f f471 f9e0 dbd1 bfbf
00000440: 6937 9d43 9e06 bdbf 28a2 f798 5578 b93f
00000450: 3df7 a80d b417 b8bf a103 2717 08e1 b6bf
00000460: fdbe 1970 bc7f aabf e4b6 446b 4c44 c3bf
00000470: 2a3c e83b 5a21 c43f 8e00 3aa2 bc71 b73f
00000480: 6df6 ce8f 455e 85bf dd19 80b4 40b4 90bf
00000490: 057e 68ff d957 b13f c3bf 3ee8 d700 d13f
000004a0: e2a2 7607 28c7 c03f cc97 0a53 e096 b3bf
000004b0: 6543 a840 a1f3 bd3f adb0 efe9 b94d 92bf
000004c0: a8e0 d2bc d1aa 9ebf 5e83 68e5 37fa d13f
000004d0: 330c 1357 f423 b0bf 64aa a59d 2a76 b2bf
000004e0: 4e49 6d5e 5ecd d2bf 06a4 f431 8903 cbbf
000004f0: 0254 2da9 6461 b13f 7532 167d f4c5 babf
00000500: 2cf4 0248 7ddb b33f 31b8 b456 f279 c5bf
00000510: 8439 f4fb eb8f bdbf 750b 3c16 3efd b93f
00000520: 38fe 3aa2 5624 cc3f 2f7f 034b 84d3 b63f
00000530: 5b50 3353 0f13 c73f dbe1 5391 126b d03f
00000540: 059e ba91 2909 c43f b94d ac0e 41b1 c1bf
00000550: 3940 3786 073c 90bf 1da7 2d21 9347 b83f
00000560: 6ab6 43e3 35f7 afbf 60b6 10e9 8269 b13f
00000570: 31cf 9678 8d6b cebf d0d7 76c7 b2ec bfbf
00000580: d590 9e92 4d60 b43f c7e7 4e54 0e8c d5bf
00000590: d49b 1bfe a456 c5bf dace fbdb 24d8 65bf
000005a0: 0905 c0ec 908f d0bf 4ee9 52d5 0a9b 813f
000005b0: c9fb 8a2c e1cd bebf 7629 f703 f477 a6bf
000005c0: 8647 4237 1ce7 a3bf 7c25 b0b6 2218 9d3f
000005d0: 6a91 9c61 dca9 b5bf a936 7b25 cc91 8b3f
000005e0: e48f f825 7119 b7bf 43ae 90cc f75d b53f
000005f0: aa51 573a 6745 d03f 068f 8083 4042 9e3f
00000600: 204f bc2e dc1b 9a3f a71c 8645 0a5d c6bf
00000610: fa76 ea29 7ca4 ba3f c935 215a ef20 bdbf
00000620: fc3d 29e6 7114 bfbf 3f56 da88 676b b53f
00000630: dc2e 1cd0 58d3 9b3f 1eb9 1510 8445 c53f
00000640: b852 880d a0b8 cb3f 16ca 1160 b9bc b4bf
00000650: aec1 cfa8 42bb 933f ba77 b94d 33e9 d03f
00000660: 97d9 6b13 d091 c23f aad1 bcb7 1966 bb3f
00000670: e285 4ed9 6c18 c93f 84e6 1556 573b b7bf
00000680: 610e 54e9 ec75 b83f 49a3 ac6d 4013 cb3f
00000690: e601 c491 4524 cf3f 13bb cf75 41fa bebf
000006a0: 3fe0 69c1 5257 a3bf a3be 5f01 5d69 ad3f
000006b0: 4ae3 dbff 9935 a6bf aae6 10dc 691c aebf
000006c0: 7722 535a 5d48 ba3f 814b 988d d328 abbf
000006d0: 8540 f793 d22c d1bf ca2e 6690 d1ce ab3f
000006e0: a094 b875 a34f b0bf ed8f 8f2a e71b bcbf
000006f0: c15f d671 e714 cebf 20d6 3cb1 5e7a c33f
00000700: ca4a bc40 e664 d5bf eb72 a830 fd52 d0bf
00000710: b26a 5889 de32 a5bf 07f9 0940 7a9c c73f
00000720: 918b 8a85 a329 c93f bc47 f468 a630 c6bf
00000730: e915 7914 68bf 97bf 888c 26c3 dc3d c9bf
00000740: 1679 ebe4 07e6 c03f 7628 3cb4 dcac c8bf
00000750: fee6 f66a d424 93bf 3849 1a89 3143 c13f
00000760: ef7d 1903 0dbc 9dbf d9a0 5cf3 7891 c83f
00000770: 7631 e2a9 f013 bdbf 147a 9fe2 b6ad a83f
00000780: 2044 ee48 d484 bc3f 14e4 5827 97ad 92bf
00000790: 3651 6c8f c52a c73f bd49 be1c e451 b23f
000007a0: 6203 ea77 265d cbbf e57f a28d cf89 e03f
000007b0: 7219 8b1a e8ad b53f 67d1 e6e1 94b3 8c3f
000007c0: 3711 39da 3d60 c7bf fa47 6bcc f4dc 853f
000007d0: edb5 d535 b3be aebf a86a d96b 3389 b53f
000007e0: fbe8 9b63 26d8 a83f ab4b 5483 55f7 ce3f
000007f0: 6b62 7b47 8204 933f c0c7 ec29 a429 b13f
-0.020700768870901016 -0.12137389394638626 0.0430336788674837 -0.12576252594396445 0.09455171541079121 0.14555702025568487 -0.10745498255088022 0.18157084958318426
-0.03622354665995572 0.17587746571492938 0.06670509372697205 0.17085980324913175 -0.15178321959136903 -0.016257987272697345 0.22096111548574932 -0.09408802411728827
-0.3101372333585814 -0.2957337874632807 -0.38157279693303636 -0.32185379693687155 -0.06266667700960882 0.19463917328602304 -0.06732362200132715 0.04925280679047332
-0.016744765329173062 0.0013014650944833095 -0.025606072760493814 -0.026516678572620116 0.0702062006876009 -0.17902797602949697 0.1537786469837867 0.14006069349501235
-0.029694928160725786 0.12261061166065731 -0.10677051301997603 -0.08178517675177112 0.0237891267616569 -0.02895866235635969 -0.06831449451393376 -0.10237141608678597
-0.08487127753860231 0.1429761539067475 -0.29584556349044455 0.05366265519669683 -0.03599443254532261 0.11080008319525964 0.06785504425115076 -0.36656701961273036
0.07702048906160291 0.04271941438278981 0.0028801781094324997 -0.06174240283478867 0.11241001973557443 -0.054411876953741854 0.24170301573989614 0.07435097162824378
0.28163434172542406 -0.1034850994311003 -0.23132307473073824 0.09416533575649536 0.11233398549127926 0.004658287450258485 -0.20271837076958452 -0.05900505631427825
0.08141251005743712 -0.024263119671277426 -0.015279718634971205 -0.023114707815610317 -0.12303255031173899 -0.07021931789052764 -0.18793232389091963 0.2329084568694324
-0.06262492704755254 0.06291966655609249 -0.13462175921481828 0.10466998780230265 -0.24676748655186406 0.12128048869075894 -0.004659318676333155 0.27804802171258614
-0.17212088715253 0.010062252703129248 0.048378581860275556 0.16242033573568368 -0.055706557407089206 0.011390694408513976 -0.28224543222272386 -0.10936523151742977
0.05949522456203211 0.14546231021794842 -0.03711552387536281 0.27090126795043856 0.24266134372744239 -0.00836132459730336 -0.3327164543264657 -0.24504862086373164
-0.10723269481585453 0.1538256620520819 0.04277297165860968 -0.2887051342201436 -0.031536797516190346 0.222411936438798 -0.05166916575766828 -0.1033879932161595
0.2832427579460466 0.007362838041685801 -0.06605479707128031 0.04827272866462374 0.0023662646766518317 -0.05915994185485611 0.1665932483401274 0.1538064579690035
0.11591801463187415 -0.014183645187072264 0.15810737609016454 -0.006851810791415028 0.06432968727703588 0.14250018724542518 0.11150424404638148 0.24672885512094664
0.062212318624865794 -0.2321581813234346 -0.15993669100785649 0.18612065261791771 -0.04566945291736113 0.053286834018651634 -0.11737847722558135 0.13797775197552198
-0.0530515277088344 0.2010093225234961 -0.07337178210221275 0.1541416683712386 0.0929697127778388 -0.09958623348992844 0.1515035046451557 -0.12429594271220151
-0.11338223601089016 0.09949240669778503 -0.09411168416496891 -0.08937120976680869 -0.05175579899230163 -0.1505218051692544 0.15726783681063355 0.09157923660859721
-0.010433715296922242 -0.016312609688634672 0.06774675832320305 0.26567647628962393 0.13107776989388414 -0.07652093913438235 0.11699874714419208 -0.017874627021158208
-0.029948498868834023 0.2808971157374368 -0.06304862142410243 -0.0721155772095386 -0.293784706319589 -0.2110454076694454 0.06789235239314453 -0.1045830541026563
0.07756789215177723 -0.16778401597679385 -0.11547732259007232 0.10152042429767312 0.21985896035583763 0.08916498977077646 0.18026916086694453 0.256535188600109
0.15652961364433807 -0.13822186676462225 -0.015853993956455013 0.09484214363115169 -0.06243294142937546 0.06801622572012311 -0.23765724552287673 -0.1247054802869052
0.07959446744513639 -0.3366733382532598 -0.16670668037042324 -0.002666542044488779 -0.2587625801098317 0.008596501002433723 -0.12032897317384007 -0.04388392017752356
-0.03887260603472868 0.028412382507700937 -0.08462312110038331 0.013461680311049067 -0.09023196389222182 0.08346508735910967 0.25423603722927146 0.029549606348282097
0.02549690280200345 -0.1747143592330975 0.10407234214150299 -0.11378379774506366 -0.12140571469466716 0.08367011157164315 0.027173412038833486 0.16618395600694041
0.21657181416289517 -0.0810047015709546 0.019269029191436075 0.2642334231403499 0.14507485340409396 0.10702667938023205 0.1960578976696033 -0.09074922420213666
0.0955493993424681 0.21152501445001295 0.24329442613090108 -0.12100609899765073 -0.03777559863095847 0.057444483201718265 -0.04337769745138205 -0.05881052790978221
0.10266669707483254 -0.0530458555550899 -0.26836075258052744 0.054312275769090215 -0.06371518730209624 -0.10980076588708672 -0.2350129419180558 0.15217193273717644
-0.33428341218784097 -0.2550652480293098 -0.041403726831238954 0.18446281554128793 0.1965832140022852 -0.17335968136518243 -0.02319109559018343 -0.19720038918339733
0.13201998403287324 -0.19277533340965974 -0.01869518187388674 0.13486308283297332 -0.029037669481452196 0.19193946726705383 -0.1135855116610339 0.04820033565896523
0.1114018133214505 -0.01824031999260363 0.18099278929788348 0.07156205846539528 -0.21378022055798868 0.5168226019195542 0.08468485496550729 0.014014399665804601
-0.18262456088462795 0.010675346840262268 -0.060048675843841305 0.08412476904906419 0.04852409330301729 0.24192303574144822 0.018571887600816 0.06704164527471246
