weights/w_10_10.npy (npy, 928 bytes, 1 tensors)

array f8 [10, 10]
00000000: 8469 b745 6b83 db3f 45a4 7f79 58b9 c4bf
00000010: 28e2 0711 79e4 c1bf eb0e 4ce3 8f2c d2bf
00000020: 5054 75e1 1651 cd3f 4b2f be18 eb7d e3bf
00000030: fcd2 3dcb c78d dd3f 89f3 7478 6dc9 c9bf
00000040: 4e69 42cd 9d9d b53f 1dba a8e9 3ce5 b0bf
00000050: ec41 9729 e732 dd3f 4c20 50be 2592 e4bf
00000060: b969 8994 52c1 b9bf b21e 830b c8ad bebf
00000070: cede 4cdc 4ca4 d63f 8c03 f8d6 19f7 d5bf
00000080: 2373 4964 328c abbf 6d5d a90f fa87 d1bf
00000090: 0af8 33f6 0dfa 8a3f 7f7d b2d3 2f47 c73f
000000a0: 3f0d 3fd4 367f dcbf 7945 ef2b 8da3 dd3f
000000b0: 8ea5 7259 ff57 d73f 93cc 0c28 5905 ca3f
000000c0: cfb6 558f 2053 d73f e83f 27e5 f0b3 d1bf
000000d0: 65a6 1f91 6874 a9bf 10ac e329 8b3a d8bf
000000e0: 24ee 0304 8dbe bbbf 9177 08eb b076 cb3f
000000f0: 1365 6cb4 b6df d0bf b388 6871 c95b c3bf
00000100: ecdc d414 afc3 d0bf c240 319a aa9e d4bf
00000110: 9cd5 c63b 3760 d0bf 185b 3022 21c6 73bf
00000120: 2aaa 0c47 1342 dbbf 4a71 07b3 19e0 b63f
00000130: 834f 6f40 153f e43f adf5 721e 611a d23f
00000140: c03d 363d 7dde afbf b2f6 d086 b26e d2bf
00000150: b3ca 7019 e407 cfbf 7116 2e6e 9a92 e13f
00000160: 6ebe c49c 8fe1 903f 360b 5d5c a074 cabf
00000170: 4f60 262d 5cb7 af3f aa08 891f 8dce e53f
00000180: d565 b5d5 2ff6 a33f 946e 9e7c 30a2 c93f
00000190: 4ce8 509d c02e c23f 6c6e 8000 5a56 c5bf
000001a0: b21d 0ca4 444d e1bf 7f96 d04b 4529 c5bf
000001b0: f44c 3352 a94e b9bf 5931 f0d6 64c4 d13f
000001c0: 4cc5 c1d8 1269 d93f 74b1 5943 5133 dc3f
000001d0: f946 d704 9d4c c13f 00a8 f966 f5ce da3f
000001e0: 4567 e6e5 53ba cabf 84cc 1db8 b431 d63f
000001f0: 213b 7249 3b2c c23f cc33 27f8 5a1f b5bf
00000200: 8049 e6d7 d14e c13f 7b0a 4923 6f6b 95bf
00000210: b722 61a0 e40b d43f 9b05 9ba5 4eec da3f
00000220: f10b 0964 bf5b e33f 2882 4cca 0dbd d8bf
00000230: 47cf 642d 7f45 dfbf 7c35 0d9e 0cd9 c5bf
00000240: 41d6 99b6 5eb9 ab3f 4b05 89eb 12f9 d23f
00000250: 0267 7c48 ef56 bb3f 491d 6e93 12e5 e5bf
00000260: 4c27 1cd2 cf85 babf 129f b03d e8ed d13f
00000270: a86b b85b 27ee b33f 29a6 8e82 3c80 d03f
00000280: 98d6 79e6 900f c3bf 4e31 2dac 2736 c1bf
00000290: a930 63f2 24fd bf3f c0ee f366 d293 d13f
000002a0: 977b fc3c 3300 c13f aac6 a5ab e767 b43f
000002b0: 17b0 6d86 b5bf dcbf 48e8 048c 4e2f d03f
000002c0: e1cf d899 5de3 b43f ff04 1e7d 5c35 e83f
000002d0: 346d 0b56 7374 e53f f810 ab78 de81 ba3f
000002e0: 89c0 6044 fbdc cabf df0e 80f2 44dc d6bf
000002f0: 3116 436f 6750 ce3f 2d60 b39a ee24 a63f
00000300: dd9f 8e57 039d c8bf fb5c d230 31f7 983f
00000310: cea0 779e a930 d6bf 59da 3b83 9cfb d83f
0.4298961811852211 -0.1619062989478001 -0.1397849400671174 -0.28396985241873435 0.2290371514197056 -0.6091208918819374 0.46177859161188883 -0.2014595831077737
0.08443628560272495 -0.06599789337699531 0.4562318712387696 -0.6428402630854264 -0.10060611845384572 -0.11983919411715752 0.35377809060763077 -0.34320684426352766
-0.05380399202542765 -0.2739243653245101 0.013172253681201358 0.18185994946268733 -0.4452645371167882 0.46310738840573823 0.3647459386362123 0.20328821616712797
0.3644486808542355 -0.2766077268433933 -0.04971625110176773 -0.378573218257487 -0.10837632511168543 0.21455966449951494 -0.263654400057548 -0.15123861348644638
-0.26194359812093526 -0.322184229448805 -0.25587254369323786 -0.0048276228217421155 -0.42590791643547965 0.08935700054957355 0.632700563287003 0.28286006902257094
-0.06224433300223664 -0.2880064312520104 -0.24242831461159184 0.5491459037736616 0.016485446875945824 -0.20668415555891223 0.06194580126901938 0.6814637771533587
0.03898763164279343 0.2002621277323341 0.14205177003333558 -0.1666977407884248 -0.5406821445512178 -0.1653219814481197 -0.09885652787061244 0.2776119326597573
0.3970381848112836 0.4406321675985716 0.13515055405019163 0.41888175064252664 -0.20881127095781885 0.34678380947224974 0.1419748409866424 -0.08250969465662122
0.1352178863713327 -0.02091764119019011 0.31322589551977437 0.4206730477563611 0.6049496606650547 -0.3865389323782744 -0.4886167472170552 -0.1706863185631099
0.0541486356641312 0.2964522647999572 0.10679526824642596 -0.6842129592413723 -0.10360430602682164 0.2801457025948234 0.07785268773333931 0.25782692670563506
-0.1489125371332889 -0.13446517855698875 0.12495642583525303 0.27464733175268563 0.13281860807270782 0.0797104639111931 -0.44920099380283446 0.2528873793959332
0.08159432416942948 0.7565138286301191 0.6704651527938155 0.10354414411546375 -0.2098688205601358 -0.3571941726843146 0.2368287366172566 0.04325051916538345
-0.19229165816545804 0.024380463223306652 -0.3467201278240396 0.3903571397380908
