weights/w_10_77.npy (npy, 6288 bytes, 1 tensors)

array f8 [10, 77]
00000000: c75a 9f30 0650 b73f 5dff 6139 76ef 6e3f
00000010: 653b 1fe0 f508 c5bf 5cbc 0c28 957d a8bf
00000020: 4d22 fd4e 3ee5 b03f f642 8ce7 2724 94bf
00000030: f9d0 acb8 2f5e 89bf 5542 145b 1b30 93bf
00000040: 1fac 0887 6988 b9bf 00ca b971 2725 adbf
00000050: 180c de04 3080 c3bf 1294 6422 ec2a c83f
00000060: d83c a447 36fe a9bf ab46 7e92 871d aa3f
00000070: 9a08 ff31 1ef0 bbbf 4e54 f7e8 dab8 b53f
00000080: 1682 12fa 119b c9bf c9f8 dc5d 542b b93f
00000090: 194e ee08 37f1 6ebf f79c 83a3 ffd9 cc3f
000000a0: fcf3 d52e 2ddc c1bf 59b4 09ae a8b4 803f
000000b0: 261c 856e 7714 a43f ca05 3a53 7eda c03f
000000c0: fe8f 33c2 191f a7bf 3735 a6f2 45e9 823f
000000d0: d07a 0760 7f49 cdbf 7dff c03b 4db2 b6bf
000000e0: 4c73 6b5c aab1 a83f ea62 cba2 0c30 be3f
000000f0: 2f8d 5ca3 6bcf 9ebf 0d6c 576c 271c cc3f
00000100: 3d5d cb5f f00f c83f c0d3 04cb 0c88 7abf
00000110: a306 e18a fd7e d0bf 2830 7e30 8a4c c8bf
00000120: a7ff e9d8 2f44 b5bf 1560 6157 b481 be3f
00000130: fa58 9d6a 27f7 a03f f6d1 3ac6 c1a0 ccbf
00000140: 47be 2a0b 7904 99bf 414e 13cc e80d c63f
00000150: 0d88 937f 787e a4bf 77f1 95f4 fd80 b4bf
00000160: bf14 284e 1816 cc3f 7a5f a23f f65c 773f
00000170: 9717 fce1 2e33 aabf 5061 29f9 9825 a33f
00000180: 6747 15e9 a108 5e3f 1750 eaeb 1477 a7bf
00000190: b8e3 41d6 f484 c03f 26e3 8cbe ba80 be3f
000001a0: 1962 72a3 23fd b63f 28fd 29b3 cf80 86bf
000001b0: cf05 5c1e 165b bf3f c92e f275 d8bd 75bf
000001c0: e031 d81a 0484 a93f e6b3 053f b642 bc3f
000001d0: 1d7b 0383 0d1d b63f f51a 2942 3177 c83f
000001e0: b8d7 4fe3 04ad a83f 4b90 0a28 5105 c7bf
000001f0: ca2a abde f5b7 bfbf 68fd e072 a874 c23f
00000200: 5e79 9b02 431d a2bf 01c7 886c ba22 a53f
00000210: b612 0163 4947 b7bf 34f4 c3cb 1b5d bb3f
00000220: 2039 9ad5 d50a a5bf 838d a40f 9bee c33f
00000230: 2aae ddc0 251a adbf dacb 2380 bf91 be3f
00000240: d005 ccbc 0e70 b23f 95a2 b42e fabf b3bf
00000250: 9e0c c113 cf0b be3f 1cea 1c3c 7ca6 b8bf
00000260: 02cd 23ec 657c b6bf 9289 6cc6 4f5e b63f
00000270: d22b 6f08 af61 b3bf af0f c694 c267 b2bf
00000280: bdc6 af3c 4251 a5bf d6bf 02d6 b1ff bebf
00000290: c3e5 de47 ad31 c03f 1af3 5983 2bdc b23f
000002a0: 9812 685c a030 81bf 43d1 cbaf 2ae0 8abf
000002b0: 9dfc 8e83 62e7 ab3f 11d9 8b30 655b cb3f
000002c0: 2379 e4ca 94fe ba3f ed93 a157 8e84 afbf
000002d0: aef4 2b5d 5118 b83f 6f0c bd81 fa72 8dbf
000002e0: 2727 55cf afab 98bf 2717 51e5 9eec cc3f
000002f0: 6b9c 1570 00f8 a9bf b2cb 5538 0bb4 adbf
00000300: 0bf6 9772 5840 cebf e64a f665 49bb c5bf
00000310: a83f ea92 bcf6 ab3f 300c fc49 bf89 b5bf
00000320: a275 0307 f3f2 af3f 3afc b0cb e346 c1bf
00000330: f5d4 9940 1bc8 b7bf 7dbc cb17 48e8 b43f
00000340: 0315 9f0c 9ea3 c63f 2693 1f4e e35c b23f
00000350: 03d3 2984 0190 c23f c5aa f8e0 6c6a ca3f
00000360: 146f 3984 371e c03f 0ca8 200f 3a77 bcbf
00000370: 5542 c488 bc1e 8abf ff53 11c7 3188 b33f
00000380: 9019 c338 15b7 a9bf 7ba3 eb51 cc03 ac3f
00000390: 4dd2 e386 ca78 c8bf 669b a853 a0ae b9bf
000003a0: ceef d975 5164 b03f ac49 4846 7555 d1bf
000003b0: f1b1 d197 7d2a c1bf 478b 9e03 ab92 61bf
000003c0: b0af 1006 24a5 cabf c5c2 fa5a 7d53 7c3f
000003d0: 72ce 6135 e4c7 b8bf 228d 5e7d 3a13 a2bf
000003e0: a505 a6ed b80d a0bf 9916 b1f6 ac77 973f
000003f0: 130c 4565 4c79 b1bf 8ffc 4a11 d43c 863f
00000400: 979f 9f31 caa1 b2bf c0b2 c746 153c b13f
00000410: 3d29 ee9a a33f ca3f 9810 86ff 2268 983f
00000420: 775e 30c5 350f 953f f8c1 7c1b d309 c2bf
00000430: 37ad ed70 697d b53f 43f4 d5f1 c57e b7bf
00000440: c101 7eb7 ad11 b9bf da9a 81c5 eb46 b13f
00000450: 8265 de5f b371 963f 3d28 4f2a 5c28 c13f
00000460: 1d4d d59b 255c c63f 778d 210c 06ba b0bf
00000470: ae82 adc2 b4d4 8f3f f561 4b89 e047 cb3f
00000480: 186e fae5 dcf4 bd3f 6b1a 7814 9519 b63f
00000490: 3ec0 e413 f33d c43f 9028 0108 22bd b2bf
000004a0: e5a5 ec83 e0ba b33f e874 e7a3 c1d6 c53f
000004b0: 4395 98cc 711e c93f 7363 69e8 8dfc b8bf
000004c0: 9550 debd 7c33 9fbf 5ca8 70aa 31b9 a73f
000004d0: 1e11 69bc eecf 9ebf 8ecf 2c89 24e3 a4bf
000004e0: 640e 5562 4e3b b23f 7e98 f38a 02d7 a2bf
000004f0: 0739 df28 f1d3 c7bf 1a77 13a0 274a a33f
00000500: 9aaa e2f1 14a1 a6bf af4e d25a a07f b3bf
00000510: 75cb 9d00 efdd c4bf d4e0 c114 da05 bb3f
00000520: af6a 9ba0 63ae cdbf 5721 3ceb baa5 c6bf
00000530: 0789 efcf fa68 9dbf 00d5 5cf5 e860 c03f
00000540: 89ba 8d48 6974 c13f 69ce 8c24 10c9 bebf
00000550: 6374 a632 51f0 92bf dc11 d837 5321 c4bf
00000560: 9ae8 276e 01f4 ba3f 78ef ae07 b0ad c3bf
00000570: 44a4 e9dc ce88 8ebf e947 8488 9988 bb3f
00000580: e4dd 0e3c 99b6 97bf 6a93 ed2a d897 c33f
00000590: 178e 76d0 8730 b7bf 704f 7807 5eae a33f
000005a0: b184 1f5c 66be b63f 8028 a029 9fca 8dbf
000005b0: f80e daf7 c779 c23f 600e 9a8b 5c38 ad3f
000005c0: eb98 01a9 98d2 c5bf de76 5f33 ea60 da3f
000005d0: f339 b5b5 0a4a b13f b09d 2e4c afe3 863f
000005e0: 60d2 135c 6ca4 c2bf d802 c255 906f 813f
000005f0: 4a96 1ef4 de84 a8bf 4d59 cfde c42c b13f
00000600: 1aaf 0ba8 35d0 a33f 62aa c453 09b2 c83f
00000610: 7fc3 4ba3 4155 8e3f 040e da10 d85f ab3f
00000620: 627d 4d9f f1da a33f 7cd4 2531 cda9 8fbf
00000630: b6d7 14f2 bf8d 93bf 5206 964c b658 bd3f
00000640: 4356 aea1 8aca b43f 43b2 e21c 04c7 b0bf
00000650: cc9e eca2 91ad bdbf fcf3 a9e5 97bf 7cbf
00000660: 113f cafe 1ff5 be3f 5a8d 6757 207b 67bf
00000670: a608 a4ef 6d46 c73f d1b3 05e3 b7a8 b4bf
00000680: b0e6 7a77 e933 8e3f cece eb67 85c4 d0bf
00000690: 0e6a 5dae 1ec1 afbf 0029 487b 997a a0bf
000006a0: 091a 3e67 cd3c ab3f 6149 5823 61cc c63f
000006b0: 2bc0 9259 0ace 6d3f 1fa2 f789 6d60 c33f
000006c0: 347d 6fd1 00a3 b13f 437b 904e 684a ba3f
000006d0: c614 0998 a5d9 a8bf bccd 5483 4475 c23f
000006e0: 0586 ba74 6899 bcbf 6f0f 548a 7665 aa3f
000006f0: 4377 f38c 6d60 b9bf 458c 02da 2a9f abbf
00000700: a98a 7eec f779 c3bf 4b55 c683 a286 abbf
00000710: 306e 9f4d b7b7 a23f ea4c 0b0c 1f54 7dbf
00000720: 3112 a683 42f6 c1bf 1033 4552 d299 c33f
00000730: 7834 ccb2 13fa a13f 775c ecdf 1053 bd3f
00000740: f893 ac40 96d7 b63f 6273 c4a1 4557 b3bf
00000750: b9a6 6b88 624a ccbf b41a 11ec 2aa1 babf
00000760: 035d 7591 ded1 c13f 15ce 60a7 c2a5 bebf
00000770: 9b90 f056 14bd b73f fadc 20a9 98d0 b1bf
00000780: 6335 3d9d f8de a63f f3b1 6632 5e87 cabf
00000790: 45d7 b61c 9bf9 c03f 473b 024b 9b76 72bf
000007a0: 458a 223e bfc4 b93f b78c e9cd 9917 963f
000007b0: 1460 4be4 2e37 b73f 1da6 ce8e b4b8 87bf
000007c0: 9119 2033 c79f b53f 1074 5657 e5f4 c5bf
000007d0: 22da a22b 0e70 bfbf 903a d457 9b1a b53f
000007e0: 6d8b 3a52 2b3c 72bf e6e4 86b3 219e 9abf
000007f0: 07f0 4bfc 4ae6 94bf dae1 7a47 b230 ad3f
0.09106482207367171 0.003776293665452997 -0.164335951265879 -0.04783311952484645 0.0659979765743028 -0.01966917372471052 -0.012386677573524173 -0.018738200601605765
-0.09973773524022576 -0.05692408812764782 -0.15234947431244517 0.1888098876890188 -0.05076760887652093 0.05100654280898927 -0.10913265915499651 0.08485191524171506
-0.20004486761628532 0.09831740657407119 -0.003777129640590859 0.2254027889641532 -0.13953175341512736 0.008157079516616305 0.039218647233205936 0.13166789115716276
-0.04515915389654877 0.009233995883529118 -0.2288054674999871 -0.08865816792331134 0.04823047998590954 0.11792067503428041 -0.03008812126712462 0.21960919180023133
0.18798641850910683 -0.0064774036148280145 -0.25775087892916754 -0.18983580940073463 -0.083071699578794 0.1191666329699504 0.03313563515136937 -0.22365591220081144
-0.02443112497956992 0.17229948010082022 -0.04002739484145943 -0.08009326192217779 0.21942428413618661 0.00570388975952329 -0.05117174633600923 0.03739622155689182
0.0018331128270187792 -0.04583039645982028 0.12905750715051822 0.11915175582988677 0.08980009785080546 -0.0109878756095428 0.12248361817548602 -0.0053080039498458265
0.04983532741252694 0.11039294279699127 0.08638081024717477 0.19113746386047806 0.04819503092578209 -0.17984976248874526 -0.12390076338048597 0.14418511971778547
-0.0353794995005383 0.04128058028108051 -0.0909314982137158 0.10688947415106115 -0.041098291706577195 0.15571916831786944 -0.05684011439629118 0.11941143873609353
0.07202236279774543 -0.07714809074662761 0.11736768944051554 -0.09629036395646334 -0.08783566489346487 0.08737658113799388 -0.07570928531565294 -0.07189575321359486
-0.041635579975161964 -0.12108909106132101 0.1265160180026169 0.07367202717609836 -0.008393528766654598 -0.01312287663447676 0.05449970107974276 0.2137266623537433
0.10544710114888693 -0.061558197209514144 0.09412106060695422 -0.014379460415176319 -0.024092433003978144 0.22597109028918647 -0.05072022789209359 -0.05801425039944465
-0.23633866877928286 -0.1697780368673058 0.05461682599445733 -0.08413310581458755 0.06240043125738316 -0.13497588582865366 -0.0928971321789794 0.0816693361373257
0.17686820617942808 0.07172985703762133 0.14501971200265737 0.2063728426449726 0.12592214542643687 -0.11119425648999498 -0.012753937648569616 0.0762969122891519
-0.050224936655968055 0.054716477394157935 -0.19118625246450663 -0.10032083551832968 0.06403073432187442 -0.2708409487105665 -0.13410921013873137 -0.0021451320762521406
-0.20816469474936872 0.006915559453475499 -0.09680010131142483 -0.03530295162570442 -0.031354693422154946 0.022917463833684513 -0.06825711700825847 0.0108582084443454
-0.0727812167311853 0.06732304552105983 0.20506711068112252 0.023834750028541934 0.020565834198434687 -0.1409248241630079 0.08394488341371163 -0.09177815584367104
-0.097926003740219 0.06748841831140898 0.021918108679164224 0.1340441900813988 0.17468710049670558 -0.06533849521797729 0.015542423430532661 0.21313101486045097
0.11701756109908279 0.08632785558448013 0.15814054938664585 -0.07319843955443361 0.07707026692209913 0.17061634543544035 0.1962415932659188 -0.09760367321122292
-0.030469845856331352 0.04633479314391373 -0.0300900747772782 -0.04079546141147637 0.07121744061174123 -0.036796645604952424 -0.18615545745564807 0.03767513112118888
-0.044197706725147515 -0.07616617410013292 -0.16302287607285462 0.10555804259081764 -0.2318844351019229 -0.17693268285826022 -0.028720778409373284 0.12795745831105165
0.13636508982331844 -0.12025547878584465 -0.01849486228603715 -0.15726700045355713 0.10528572978356224 -0.15373802542842063 -0.014909378163070149 0.10755309660842695
-0.023157495775846373 0.15307142349333996 -0.09058426703864374 0.03843969193635999 0.08884277104472706 -0.014546626527607964 0.14434146501672962 0.05707062915919603
-0.1704893899179248 0.41216521279225826 0.06753603874424367 0.011176461708443636 -0.14564280029266552 0.008513572327730243 -0.04788872461294298 0.06708937110611153
0.03869788814867388 0.19293324079747537 0.014811051174065558 0.05346560674390946 0.038779783912782376 -0.01546058946835615 -0.019095420027234154 0.1146348893144247
0.08121553847589617 -0.06553674416745374 -0.11592970111507411 -0.007018655155317962 0.12092781038722601 -0.0028663283985552014 0.18183683587273441 -0.08069943707023632
0.014747451742880585 -0.2619946970801096 -0.06202026251294877 -0.03218536024003704 0.05319826016698321 0.17811216569732394 0.0036382867952724682 0.15138024555859972
0.06889348138019075 0.102697867565877 -0.048535513695733765 0.14420372402820003 -0.11171582078761595 0.0515553516252386 -0.09912762347400154 -0.053948725807707855
-0.15215968177388575 -0.05376155718401295 0.03655789206069604 -0.007160302426842716 -0.1403277533355705 0.1531317617140293 0.035111060691726814 0.11454873530270669
0.08922709540327378 -0.07555041503333151 -0.22102004681737755 -0.10402172339773125 0.13921720602477458 -0.11971680246716006 0.09272887346793583 -0.06958917740927353
0.0446698848669296 -0.20725610218995846 0.13261736776410707 -0.00450764333085269 0.10065837161031606 0.021574404900445567 0.09068577836603736 -0.011582766159182129
0.08446927068880529 -0.1715361286595969 -0.12280357899985764 0.08243723768485212 -0.004451913093052135 -0.025993849356130826 -0.020409747742618858 0.05701214907225323
