weights/w_10_1668.npy (npy, 133568 bytes, 1 tensors)

array f8 [10, 1668]
00000000: f0c8 a810 83fc 9f3f 64b6 d838 4326 3d3f
00000010: 4f1d 3601 64e3 a33f 6d9d bf57 535d 713f
00000020: 30bf 7ee2 58f8 9e3f 8c93 4dfa 4002 4a3f
00000030: 9991 8ec9 be8d 94bf d10f 6ffe c27d 80bf
00000040: 54f2 5da6 01e4 a13f 4443 7834 a73e 263f
00000050: ed70 0f75 1a3f 8ebf 01c5 aa99 6181 9c3f
00000060: 3719 2c11 bfcb 9e3f b17a 33b6 08e3 a53f
00000070: 905c c545 4920 753f 2e90 cfe0 21b2 87bf
00000080: 4a1e 6fd3 b19a 8bbf 6452 6665 3d1f 6f3f
00000090: 227d 8d3c f6bb 9dbf 8144 a760 f0bb a9bf
000000a0: c12d 01ed 309f 673f d2a7 c75f 9f66 a43f
000000b0: cd4b 0657 2940 903f 4ae2 c83b 5133 8b3f
000000c0: d550 59ca 1ab4 9bbf 88ad d5c3 9d4e a53f
000000d0: 349a bd86 2ec0 a53f 12dc 588c e6a3 a3bf
000000e0: 32c6 b498 61c2 9c3f 0d4d d820 2577 543f
000000f0: 9529 9980 aca5 a1bf 88be 0ce5 bf00 743f
00000100: a18a eae9 3a1b 983f f480 5e0d 66ca a7bf
00000110: 7f01 15b4 4985 96bf a5a2 1e08 d742 b13f
00000120: c2c5 a9ed 8368 933f c9ea e324 1d13 45bf
00000130: 67e1 f993 dc08 87bf 9fb1 f27e 06e9 6e3f
00000140: 1558 2e36 39b6 9dbf 44c1 7ea2 1eb7 993f
00000150: 7a84 8776 fc72 92bf 4c15 fa41 414a 93bf
00000160: 0cc7 f2b9 d1f6 353f 9fd7 7d9b 5610 6c3f
00000170: 84bb c8cd 7ac0 a1bf 6747 a79e cc9b 913f
00000180: 1da0 a579 4d7e 923f 2286 195a af45 a33f
00000190: 1a61 49b8 36fd 85bf dd47 0ce3 0364 5fbf
000001a0: 3905 5f69 2ae2 a63f 98d5 d77e 9855 7dbf
000001b0: 7c0e 0239 8366 703f fcbf bd57 ad33 923f
000001c0: 647e 83e6 248e 8abf a73a 624d 9aa9 a43f
000001d0: 6442 54dd 70ab 923f 5ee5 d640 00a0 96bf
000001e0: 88c0 95a8 4814 943f 3291 03ee e4b1 973f
000001f0: 8ff3 64c5 868e a53f 3276 8aa7 fe39 6ebf
00000200: 5b4c 80ed 333f 80bf bd67 2f83 60ea 553f
00000210: b2c3 1c5e f5de 97bf 3b23 a364 c305 a8bf
00000220: 327c 26bf 1102 7a3f 01d6 08c8 0412 a13f
00000230: d286 5e12 e53e 90bf 2c12 2360 5ceb 913f
00000240: b6ec cf2d 0503 993f 3490 9817 9ae1 763f
00000250: 3719 4ecd 1055 5fbf 9e35 2759 5383 7ebf
00000260: bb0c 72ba f06d 983f 1532 b81a 381d a0bf
00000270: fa71 e078 0d54 6c3f ab23 cb4f b3d7 9cbf
00000280: a04a 9ee5 d08c 31bf 1e0a d7c8 ce63 7ebf
00000290: 04f2 85ab cce9 85bf 2687 0d26 91da 663f
000002a0: 0e4d e9ee 59d2 a13f 45c8 fa62 a4dd 92bf
000002b0: fc54 8cc6 b8cc 793f c488 4162 b914 7dbf
000002c0: c1d4 1935 bc24 93bf ee72 4640 3f56 7b3f
000002d0: 42db 61c0 bcfe af3f 94f5 7c78 9761 a33f
000002e0: c74a 15f7 1716 8a3f 98dd 683c e5c4 523f
000002f0: f068 1eda 8348 863f 1440 b9d8 455d 91bf
00000300: 734b 7e0d a0aa 79bf 24b2 2b89 0227 60bf
00000310: 14ec 79eb da4c 883f 3714 e827 9812 93bf
00000320: 7b28 d172 143d 513f 7205 d228 6798 943f
00000330: 199a 92c3 cffe a43f 983d ec2d 0c54 84bf
00000340: 5b11 cd9d d4fa 9abf 8164 ada7 272b 5d3f
00000350: 5193 ca15 9d1f 89bf 713c 2bdf 4967 a23f
00000360: 15e3 e560 c95d 893f d6c5 a088 c2d0 833f
00000370: 4e36 ff18 ef79 413f 5717 469d 84bd 713f
00000380: 3f20 39dc ea23 913f 64e0 c6a1 6c34 76bf
00000390: ce7d 4051 005a 9b3f 15fa b091 772b 8dbf
000003a0: e018 b9f8 951b 9e3f 8a89 7009 0a0d a13f
000003b0: 998a 4d71 fc7b 8abf 7b93 0deb f896 94bf
000003c0: 0437 9d53 1d10 95bf 1177 0fad 0eec 8e3f
000003d0: 23ac eb9a f123 9c3f 4d89 23fb 7664 823f
000003e0: ff57 9a48 2c4e 99bf 6465 fe6a 0a05 943f
000003f0: 204a 55f7 a514 913f bffc 2ecb ca0d 8bbf
00000400: bb9b c03a 9453 64bf 475f dea8 ba88 a13f
00000410: c291 aec6 5750 a93f 1d9a 6dbf dacb 903f
00000420: 8ddb f07e 5f33 4a3f 5160 fec0 c4c9 73bf
00000430: ace6 768c 0101 94bf 9eba e90a aca7 85bf
00000440: de89 c641 ff7e a03f c8ad c8d9 5209 78bf
00000450: 7036 61e2 169f 74bf 9fa8 60cc 11ca 833f
00000460: ceb4 4cec b701 53bf 508c 0a13 2916 8bbf
00000470: 28c0 ca9a 3418 713f c1fc 151d 8c23 a13f
00000480: 594a e1ec ae56 893f 1442 4e03 0af2 87bf
00000490: cce9 2511 3ebf 87bf 5b8a 5c83 ef0c 533f
000004a0: 560b a2cd cc36 993f 839d bf2b 5fc4 803f
000004b0: 954c 947f 581e 643f 5966 10e4 b6c2 523f
000004c0: 6401 51f9 c9f9 643f 4f6d 03a6 9785 813f
000004d0: a5bc 70db 2f0d 9fbf ac4c 8ad0 d4a0 933f
000004e0: 611f 9008 d0e8 833f 43c2 fccc 66e7 8fbf
000004f0: 0afa cc65 2df8 92bf cf87 b1b1 ce7a 5bbf
00000500: 5c1e fb4e 4fc9 983f a29f 332f b615 7e3f
00000510: f19f 2bf7 b080 913f d682 7f9d 6aa7 823f
00000520: 60b6 841b 8add 463f 8df3 4cae 8508 a53f
00000530: fd4f ec93 ed14 8c3f aca0 3234 7dfc 893f
00000540: 7e2f 21b0 e15d a8bf fa3e 2970 ff36 4ebf
00000550: c5c1 10e6 20a3 8fbf 752c e3fc 567e a6bf
00000560: 68ed 6372 a41f a93f c03b df0e 3a62 6fbf
00000570: d4df 0f09 b4f8 9e3f 93e6 2461 1fd5 9cbf
00000580: 6417 776c 3a80 633f b56e e245 cdb5 8bbf
00000590: 81d3 d4ce 6e07 84bf 3833 1bba d153 8fbf
000005a0: 59e6 26db 565f 84bf f66c 36b7 6b30 743f
000005b0: e5f1 66c8 17fe 9abf 4ded 369f 1470 88bf
000005c0: 68e2 9c5c 710f 94bf 2114 10f3 4f5f 953f
000005d0: 43e5 315b 34d4 a6bf fec1 1063 d66a a23f
000005e0: f88a 19c1 d9aa 97bf 3451 c817 4cb6 923f
000005f0: 42ff 9caa 79b3 88bf ef8c 01f1 2a23 a23f
00000600: f6b9 6377 ff3d 77bf 12e7 7618 c0f5 47bf
00000610: 57b4 0a54 b015 73bf 9960 dbb8 5f06 873f
00000620: db66 12b6 b2f9 8c3f 9177 aaaa 4493 9bbf
00000630: 10e6 6631 8731 8cbf d3ef dcbe ebc9 82bf
00000640: 742b ee7c 921b 89bf 94f9 b7b3 ad1c 853f
00000650: 5b81 8edc 7d32 a33f 61d1 1f9c 12de 4b3f
00000660: eca4 90f2 177d 933f e4a9 c5c9 3555 94bf
00000670: 5973 1383 1e5c 6ebf 7be2 00a6 1fc6 9c3f
00000680: 43c0 0768 0cfe a13f 92a8 a225 a318 903f
00000690: 6816 00cf d59c a13f bc63 fbab 53e2 8ebf
000006a0: c2b9 aacd 70bf a5bf 2f93 d19f 26cb 943f
000006b0: b833 788a 42b9 9cbf c845 65fb f863 993f
000006c0: 22fa cdb0 918b a03f 594c ab84 2c59 7abf
000006d0: b4f1 8893 fcc1 5ebf 32dd f1e3 870a 76bf
000006e0: f66f 670b 0ee1 a5bf d23e d25a e98d 89bf
000006f0: 4af3 25d5 5bc9 6cbf a776 7385 d422 8c3f
00000700: ef66 e95a 5c0e a7bf b7d4 88b2 906a 93bf
00000710: 2546 dc01 a60b 603f 91af 919d 210f 663f
00000720: be97 7075 b31a a43f ef76 a3a8 3a4d 92bf
00000730: b7f1 01c2 7761 903f 9f59 21ac da5c 973f
00000740: 156b 79e9 f43b 8ebf 74e1 975d 28c9 a93f
00000750: 348f 5923 fc15 a73f 5f32 01af e5b2 9c3f
00000760: 1085 0728 292e 9b3f 6939 d62d 6e18 8bbf
00000770: 9917 e75f 6502 863f 825e c62f 1fe5 a33f
00000780: bc8e 7818 3aac a43f 7d21 9e2e 8f87 90bf
00000790: b042 041d caeb 82bf 3a99 a874 693d 84bf
000007a0: c054 4c6b 4606 753f bbe3 dda8 8a89 8b3f
000007b0: 7173 ac2f 31a1 7abf 0edd 0a9d d0e2 91bf
000007c0: 6d9a dcdc e492 503f 3e53 ad8e 1ab8 a13f
000007d0: 474b 68e6 7bf9 5b3f 58a5 701c cc62 98bf
000007e0: ffb6 96d7 465e 933f 5a74 34da 47ee 92bf
000007f0: 7f70 b517 bf2b b0bf 9f97 b0f7 9e4c 94bf
0.031236694232753714 0.0004447855106687103 0.03884422793185626 0.004239392812429227 0.030244244407810317 0.0007937257074500533 -0.02007196526723618 -0.008052371396736565
0.034942676123112776 0.00016971388889477402 -0.014768797585866323 0.027837300304502047 0.030074105666266972 0.04274775718817148 0.005157743664617645 -0.01157022921865555
-0.013478650345759697 0.0037990759985382806 -0.029037330098956045 -0.05026198558665219 0.002883525427056916 0.03984544796169555 0.015869756638107014 0.013281473767265645
-0.027054232216259095 0.041615419536209564 0.04248185534270413 -0.038359837181296666 0.028085255570834806 0.0012491095143374903 -0.03446711606791834 0.004883527363560021
0.023541374709234678 -0.046466054088570546 -0.021992828003250416 0.06742614696725953 0.018953381901558826 -0.0006431476884068639 -0.011247370973465022 0.0037732245324006565
-0.02901543992228291 0.025112608592906996 -0.018016762480219196 -0.018837947513494144 0.0003351461436508086 0.0034257594633641665 -0.03467162858975484 0.017195889647900666
0.018059931325666512 0.03764102911806001 -0.010736873148900861 -0.0019159353216235888 0.04469425712842185 -0.007161708531829979 0.004004013622878607 0.01777525756864405
-0.012966430935590974 0.040356466242078164 0.018232120045527003 -0.022094730336651984 0.01960862664185517 0.0231395502350022 0.04210301551436323 -0.0036897634239057226
-0.007933049855671273 0.0013376181129758212 -0.023311456555521644 -0.04691897014124043 0.006349629710171322 0.03334059659793454 -0.015864924665612908 0.017499392860161375
0.024425583764224178 0.005586244509263639 -0.0019123710710303285 -0.007449460581893245 0.023856889133196484 -0.031472924482020805 0.003458048165170033 -0.02816658186455682
-0.0002677927019415858 -0.007419402839732329 -0.010699843391869919 0.002789767735905796 0.03480797807119461 -0.01842362264751098 0.006298753528217956 -0.007099842219846223
-0.018694821110746277 0.006674048494826874 0.06249036644378815 0.03785394044687532 0.012737452724342358 0.0011455763466424514 0.010880498975712943 -0.0169573701408013
-0.006266236501590738 -0.0019717263725083246 0.011865339575924984 -0.018625619350150138 0.0010521602337285874 0.02011262118003771 0.041006558059326355 -0.00992593302865323
-0.026347467547809127 0.001780308461738295 -0.012267329432981507 0.03594427918653132 0.012385915059654399 0.009675521654659496 0.000533334490677448 0.004331129097755091
0.016738576594690576 -0.005421089499968532 0.026710514983390436 -0.01424306310047733 0.029402106576775888 0.033302606251044045 -0.01293179722569464 -0.020107163759706986
-0.020569284656907008 0.015098681122192955 0.027480864601710075 0.008980683840893145 -0.024712268763856567 0.019550478725795087 0.01668032953359433 -0.01320990021292656
-0.002481259833092745 0.03424628554711134 0.04944109249416641 0.01640264314064598 0.0007995811737434452 -0.0048310933779234936 -0.019535087774534318 -0.01057371528915257
0.03221891096042716 -0.005868266711825006 -0.005034531966953901 0.009662760781868505 -0.0011600776790133163 -0.013225861447898307 0.004173474776209253 0.033474329519771036
0.012372366527562283 -0.011692121721155004 -0.011595234773939554 0.0011627520556848545 0.024623107958642386 0.008187049410436803 0.0024558762057807584 0.0011450563472465063
0.0025605149080833323 0.008555588487459657 -0.030323741692140378 0.01916821024731223 0.009721398602792143 -0.01557808220931734 -0.018524846399708784 -0.0016772287842958704
0.024205435939420247 0.007344924600353327 0.017092480741581487 0.009108384067020674 0.0006977962830540634 0.04108064415638699 0.013711792065386414 0.012688615947198244
-0.04759125971813115 -0.0009220835930338893 -0.015447861691513584 -0.04393264615063056 0.049069537128128726 -0.003831017870630643 0.030245602658368245 -0.028156748108108486
0.002380479916356858 -0.013530353255468123 -0.00977980202387996 -0.01529659127427295 -0.009947470248209788 0.004928990139343661 -0.02635991249711535 -0.011932526692240453
-0.019590159680975466 0.020871400080086148 -0.04458774197787332 0.035971355050040885 -0.023112680827021642 0.01827353377491754 -0.012061071891025347 0.03542455856293169
-0.005674360194673591 -0.0007312000242827041 -0.004659355909706417 0.011242626026998702 0.014148136311905748 -0.026928971211070133 -0.013766342349174315 -0.009174196016480984
-0.01225962108380483 0.010308606192663196 0.03749459569303567 0.0008504477375468716 0.019031881504052814 -0.01985630077380475 -0.0037060352266124305 0.028099531657263626
0.03514136094952438 0.015718983814317307 0.034399682539555 -0.015080121694539865 -0.04247620115835417 0.02030620909171715 -0.0280504605307674 0.024795427650422558
0.03231482775935414 -0.006432699107523276 -0.0018773047032843828 -0.005381136724387491 -0.04273265732965108 -0.01247770603575252 -0.0035139840703649937 0.013738308260538302
-0.04503143892061511 -0.018961201569443555 0.001958679421371528 0.0026927620461289566 0.0392662125453138 -0.017872730772856945 0.01599681016567597 0.022815148120878367
-0.014762795805997745 0.05036283628936902 0.04508960658566111 0.028026188665807413 0.026543276851843933 -0.01323019101508001 0.010746757497041947 0.03885743578137825
0.04037648724286444 -0.01614211771041728 -0.009238795290486962 -0.009882758972776007 0.005132937502613177 0.013445933607487128 -0.006501381047908748 -0.017466792664632406
0.0010115847575861384 0.03460772506392694 0.0017074308358402 -0.023814381824342007 0.018914324673168 -0.018487093632860364 -0.06316751793696261 -0.019823535793100807
