weights/w_10_4642.npy (npy, 371488 bytes, 1 tensors)

array f8 [10, 4642]
000000 eb 31 43 36 4b f6 69 3f 5b c4 e1 4d 55 2a a5 3f
       0.0031691998466156688 0.041338601834362186
000010 af 0a 3b 43 bb e6 80 3f d3 69 a9 8f 24 11 69 bf
       0.008252585400787408 -0.003059932144691782
000020 f3 75 cd 96 10 50 72 bf cb 49 9f ee ea 25 8f 3f
       -0.0044708869944236505 0.01520904103009437
000030 4b 6e 1a 1f 66 06 8a bf a3 a2 28 8f 11 1e 56 bf
       -0.012707517456241343 -0.001349942348165247
000040 20 ce ad bd e6 c9 a3 3f 39 9c 3b 79 51 79 72 bf
       0.03864975991646369 -0.004510229354969524
000050 0f 51 7b 18 bd 3e 89 bf 44 f0 58 23 a7 20 73 3f
       -0.012326695737478603 0.004669812090977447
000060 90 92 57 ea b4 15 9c bf ee ae 74 51 da 14 76 bf
       -0.027426554492097355 -0.005390980534951002
000070 44 74 97 83 82 78 35 bf 40 df ad e7 e0 43 8c bf
       -0.0003276175153511011 -0.01380134303120395
000080 10 90 c9 1c 4b f4 74 bf c4 f7 44 99 58 76 90 3f
       -0.0051157888488866515 0.0160764545009824
000090 57 96 f5 bf f2 78 63 bf 80 fb b0 38 bb 20 91 3f
       -0.002377008553298403 0.016726422629513404
0000a0 14 f7 ba 71 af c1 7e 3f 42 4d 3a c9 97 39 7a 3f
       0.007508931473862796 0.006402581133119258
0000b0 58 93 1d 7f 82 55 95 bf c8 dc 2e df a2 a7 7c 3f
       -0.020834006317630965 0.006995807855609111
0000c0 63 fb fc f9 0c 7b 70 3f 84 67 03 14 ce 95 9a 3f
       0.004023600282208803 0.025962085696711337
0000d0 60 47 08 27 c2 14 68 bf 7b d9 98 d5 37 bc 7f 3f
       -0.002939585880320658 0.007747858145697224
0000e0 35 c3 65 c9 93 45 a4 3f b3 e9 71 a7 c2 97 9f bf
       0.03959333260980317 -0.030852357358961146
0000f0 da 08 3a 5e ac 84 5e 3f 96 92 63 cc 77 50 8a 3f
       0.001862686470218969 0.012848792958217541
000100 5d e9 c9 a9 1c 67 86 3f eb ee e7 c4 f5 1f 90 3f
       0.010938857966938437 0.015746917861163928
000110 d7 49 56 76 52 2f 80 3f 4f be a2 a9 51 53 89 bf
       0.007902759777412989 -0.012365949620600917
000120 47 6f e3 46 99 60 8e bf f4 ca ce ec 33 8d 7c bf
       -0.01483268497070579 -0.006970599014425306
000130 4d 2a e5 aa eb 38 82 3f 99 2e 00 18 a9 69 7a bf
       0.008897629883582026 -0.0064484219765394086
000140 41 84 5e b2 da 73 8c bf d9 e2 a0 39 ee 0f 81 bf
       -0.013892849510570683 -0.008331166394883226
000150 66 9d c6 6d e7 45 9e bf f0 2b 57 df 61 28 59 bf
       -0.02956353766935873 -0.0015355068002118576
000160 f4 59 60 7d 28 01 60 bf fd 70 8e 44 77 55 74 bf
       -0.001953677255197345 -0.004964319124067138
000170 9e bc e1 2e e4 99 8b 3f 52 66 ab d3 09 cb 85 3f
       0.013477118187635913 0.010641171238080425
000180 07 54 d7 05 07 5d 7d bf ce 75 ae c1 b7 a5 44 bf
       -0.0071687959984574395 -0.0006301066635960252
000190 e1 1b 72 c9 99 26 8a 3f 8e 77 42 1e 90 eb 84 3f
       0.012768937549720806 0.010214925692988232
0001a0 a1 5c bf 91 27 3e 77 bf 4b b1 7a d0 a8 13 20 3f
       -0.005674509589844196 0.00012265620920482787
0001b0 07 0e 72 45 65 20 90 bf 6e fd 75 8b c7 a9 71 3f
       -0.01574857937204224 0.00431230494666522
0001c0 a7 5f d9 bf 81 80 8c 3f b5 73 41 ae 39 26 9c 3f
       0.013916982333441142 0.027489568005296856
0001d0 93 33 53 1b ee 7b 98 bf 61 8a 21 06 f0 c7 83 3f
       -0.023910255830560678 0.00965869444570905
0001e0 a8 76 9f f5 ee 2c 22 3f 7d a9 56 13 88 ec 4a bf
       0.00013866822229051845 -0.0008216537886956279
0001f0 d9 64 8b 3b 7d e0 8e bf a7 f6 83 01 78 40 78 3f
       -0.015076616649297868 0.005920857213138986
000200 07 ee 3c dd c2 bf 81 3f 5e 9b 1f 01 25 96 66 3f
       0.008666536690376437 0.00275714137477527
000210 fb 6b 6f f5 fd 03 a2 bf ca 16 a3 eb 6e 6b 5d bf
       -0.03518670674358045 -0.001795633621939729
000220 bb 6a 62 d6 18 0e 8c bf 0d 29 a1 07 1e 19 98 3f
       -0.013698762934202127 0.02353331491057369
000230 3f cf a4 66 15 ca 89 bf b9 66 4e 9a e0 46 51 bf
       -0.012592475123348044 -0.0010544961344067085
000240 55 5e 31 cf 29 86 7e bf 0f da df ea 6c 2d 79 3f
       -0.0074521668603534 0.00614683671846318
000250 50 cc a8 b4 60 5a 4d bf 03 14 0f 32 46 cc 95 3f
       -0.0008957836337856271 0.021287056737282494
000260 73 83 26 4e b9 78 89 3f 04 7f 1f f3 84 02 8c bf
       0.012437293717825182 -0.013676680249715918
000270 5b 99 fa a4 19 54 a1 bf 8a d9 c2 00 08 2a 93 3f
       -0.033844758404756724 0.018715024038749507
000280 73 3b da 9c ae a3 8f bf 7d dc c2 16 d3 27 55 bf
       -0.015448917543179985 -0.001291233197702884
000290 df 01 1a 13 cf e4 80 3f f4 90 f0 ed 68 8a 7d bf
       0.00824891831439428 -0.007212076073333618
0002a0 b3 70 d2 6a 2b 59 63 3f 46 c1 4a 98 ca 2d 7f bf
       0.0023618553155540733 -0.007612029444019014
0002b0 87 e5 0e 89 ce 16 a3 3f 0d 41 45 f5 9e 68 8f bf
       0.03728337691377264 -0.015336267337858556
0002c0 1a 22 8a e7 62 0e 76 3f 8f b1 b2 8d 2d 45 7c bf
       0.005384813638223318 -0.006901910727873064
0002d0 07 e0 b8 7b 64 81 42 bf 9d 6a 24 a0 5e 44 93 3f
       -0.0005647411957800948 0.018815496944720612
0002e0 91 10 fd 3f c2 cd 6a 3f 40 67 8f 14 fd c7 8f 3f
       0.003271941561168453 0.015518166723200388
0002f0 df 65 ef d9 d0 ed 72 bf ac 1c c4 1e d4 13 94 3f
       -0.004621330094744163 0.019606890085040504
000300 64 11 3a 95 92 90 93 bf 83 dc 1c e2 be 72 52 3f
       -0.019106188161928897 0.0011259903044001103
000310 2a da 88 c5 84 b0 59 bf 4e 69 ac 37 f9 9c 89 bf
       -0.001567964229378336 -0.01250643445159896
000320 51 42 1e e4 53 fe 60 bf 0f 8e 0a 2e a2 a2 82 bf
       -0.00207439789750933 -0.009099261312548483
000330 36 89 bd 83 95 d7 90 3f e0 ec e9 49 c3 77 7a bf
       0.01644738785342633 -0.006461871000847469
000340 04 8f d6 29 bf d6 83 bf f5 5e 4b 18 cb fe 9a 3f
       -0.009686940635965431 0.026362584455312327
000350 bd 2e 5c bf dd 7e 95 bf 7e 7b 20 01 fa a8 8d bf
       -0.020991768650715715 -0.014482453498258382
000360 09 c4 36 e6 ef af 90 bf 38 9f 2a c5 69 6f 8e bf
       -0.016296146799224007 -0.014860941247505019
000370 1a 89 bf a6 32 88 8a bf fa f2 0f d5 f1 c8 a2 3f
       -0.012955089296103273 0.03668933606966181
000380 cf 13 73 7c 1d 26 72 3f 62 ad 3b f3 12 ae 8f 3f
       0.004430880718420973 0.015468738601575441
000390 bc b8 37 79 c9 de 76 3f 84 48 07 b7 3b 90 8a 3f
       0.005583559995541328 0.012970415614209203
0003a0 df 51 2d f1 be f8 91 bf 03 4c 37 fd 8c 58 9a bf
       -0.017550452680852643 -0.025728419261053414
0003b0 2b 09 79 ba 36 f8 94 bf 37 92 bd e0 e3 5b 8e bf
       -0.020478110438724755 -0.014823704048191206
0003c0 95 55 9e c6 35 5e 82 3f fd bc 18 80 33 2c 50 3f
       0.008968753932814969 0.000987100880944613
0003d0 b9 e0 29 10 10 83 94 3f da 0b 51 df 5a e4 81 3f
       0.020031214701220466 0.008736333789903062
0003e0 d1 f9 e9 5c a5 a2 77 bf bc be 73 b5 74 3b 85 3f
       -0.005770345639233247 0.010367309367637183
0003f0 38 75 3b 3b 96 5b 65 bf cb 75 81 08 24 ab 7b 3f
       -0.002607148571640263 0.0067550094173304915
000400 39 5c 45 e6 91 ed 64 3f 43 1a db d0 cb a0 7c bf
       0.002554688415482367 -0.006989284663808495
000410 3a 56 07 a7 28 6d 6e 3f 97 d8 32 70 50 d4 8d bf
       0.0037141603463435565 -0.014565113472013542
000420 99 36 b7 0d 76 17 8d bf d5 00 ef 90 04 b2 84 3f
       -0.014204904836243858 0.010105167077086122
000430 85 d1 3b 8a 18 65 90 bf 6e 0c af 32 a6 5a 92 3f
       -0.01601065009795512 0.017923924296848907
000440 98 d1 7f 02 10 9e 54 3f bb 9b 73 4e 3d 62 64 bf
       0.0012583881707516117 -0.0024882504836684894
000450 ea ca c3 15 e0 16 7d bf 86 de 5d 76 a4 f2 8c bf
       -0.007101893741707535 -0.01413467870928221
000460 b0 73 a1 65 54 14 8f 3f 5d 30 52 21 97 0e 30 3f
       0.015175494529268224 0.00024501027775936606
000470 be 30 5a e7 9f 8c 52 bf 28 a3 81 a4 85 1a 95 bf
       -0.0011321603355183697 -0.020608986058877538
000480 ed 8b f8 d4 88 1c 8b 3f 41 d9 de 41 ad 6b 75 3f
       0.013238018988948464 0.0052296417106190715
000490 41 cb 2b 8a 88 a4 78 3f 15 40 18 57 d2 9c 88 3f
       0.006016286238024916 0.012017863543434296
0004a0 8f 29 1a 45 84 40 80 3f dc 91 33 6f db d2 9b 3f
       0.007935555800277409 0.02717154375285867
0004b0 21 df f9 34 e1 07 95 bf b7 37 0c 17 bb 67 95 3f
       -0.02053787122574058 0.020903514177056794
0004c0 c4 83 1b 49 76 3d 94 bf 7f 96 06 22 b7 16 79 3f
       -0.019765709125639366 0.006125178683225151
0004d0 3b 7e a7 eb 92 b5 81 3f de 2e 2d 2b bd 52 57 3f
       0.00864710599574813 0.0014235350942781093
0004e0 ae 7a 0e ff d7 e0 83 3f dd d1 d5 84 fe 11 8e bf
       0.009706199141701202 -0.014682758740243546
0004f0 5c 87 7b 26 8b e7 65 3f cd 29 8e 48 7f f0 91 3f
       0.0026738851337179525 0.017518986514497393
000500 41 b0 bf ea 2b b6 8d 3f 40 45 47 09 3c 03 80 3f
       0.014507620908226328 0.007818669350771246
000510 c7 3e ac 7a a3 29 76 3f 7f d5 e7 60 ec 1f 7c 3f
       0.005410803404415971 0.006866381982481128
000520 07 de 07 62 aa bf 7e bf af 3c d4 ab f8 c8 92 bf
       -0.0075070052703192286 -0.018344769942868207
000530 2f fb 90 81 0a 3f 6d 3f da 37 50 57 58 1c 86 3f
       0.0035700993726374346 0.010796251453964279
000540 17 6d 5b 49 af f6 95 bf 28 fa ff b6 29 a1 95 3f
       -0.021448840000499816 0.02112260035937133
000550 dc d0 56 5a a1 49 86 3f a1 24 a9 6d bb c8 96 bf
       0.010882626122885979 -0.022250107353361973
000560 d2 dc 2e f1 c8 9f 90 bf 59 b2 38 2d 97 67 9b 3f
       -0.01623453113617474 0.026762354025935717
000570 a2 5a 66 22 ac 3b 8a 3f de db b2 fe d8 15 87 bf
       0.01280912857036515 -0.011272139809404832
000580 bd ce 18 57 ad 02 62 3f 08 58 47 83 84 36 98 bf
       0.0021985421706406092 -0.023645468247046636
000590 75 cf d1 da 4e 84 91 3f ef 4b 83 45 65 d0 a4 3f
       0.017106277566611056 0.04065243218942515
0005a0 fb 60 34 c0 44 18 8b 3f 33 34 38 ef 6d 95 91 bf
       0.013229882350558322 -0.0171715905435585
0005b0 54 28 1b 7e 63 ce 48 3f 80 28 0c d6 8b 3a 7f 3f
       0.0007570253185005351 0.007624193415504021
0005c0 68 e1 cd 7e df 65 93 3f e9 3f d7 42 fa d6 58 bf
       0.018943302263751433 -0.001516098399736871
0005d0 16 3e 9e 64 97 3b 7f bf 4b 59 d0 15 f9 a3 71 3f
       -0.007625190142689605 0.004306767453292014
0005e0 7e ba b1 f7 21 e1 56 bf 47 80 2e 8e 00 b4 7a 3f
       -0.001396449252549253 0.006519319695968368
0005f0 36 f2 e5 77 d6 ff 96 3f 2f 6a f5 77 6a 07 91 3f
       0.022460318630225205 0.016629851886458432
000600 69 50 15 b5 ae fe 9e 3f f3 3f f7 b7 1c 56 7d 3f
       0.03026841144794937 0.007162201101394305
000610 21 2a 57 d9 eb a1 5f bf 60 15 01 d3 f9 94 81 3f
       -0.0019306948864704703 0.00858493018325629
000620 c9 fd b4 da c9 71 5d bf 67 ef 60 b0 ad 16 a2 3f
       -0.001797148822177396 0.03532927301463822
000630 f9 26 40 f3 3b 43 7e 3f 17 c4 a5 e6 aa 25 70 bf
       0.007388338261088861 -0.003942172605420977
000640 35 af 5a c7 d0 ec 98 3f 8e ae 4a 61 f0 3a 7f bf
       0.024340879600159588 -0.007624567970804142
000650 7e e0 10 a7 8d 0a 66 3f dd 17 f7 bc c3 dc 98 3f
       0.0026905790951126654 0.024279650124093045
000660 1d 12 2c e6 70 7e 79 bf 66 c7 33 a9 e4 79 91 3f
       -0.00622409917082625 0.017066548182760675
000670 0f ed 17 29 25 70 42 3f 2d 55 7a df f2 e9 90 bf
       0.000562685150895888 -0.01651744355202316
000680 2a 5d 56 ec af c4 8a 3f 83 af 79 5a 85 fa 84 3f
       0.01307046356195814 0.010243455718601307
000690 40 46 a8 a0 ee 10 85 bf 46 aa 6f ac 1b 7d 85 3f
       -0.010286201742050527 0.010492531013331374
0006a0 a1 83 a1 9c ea 59 81 bf 46 36 6c 80 0b 67 9d bf
       -0.00847228327273958 -0.028713397706317666
0006b0 8c 45 44 fb e7 9c 40 bf ba f9 b0 3a 76 05 41 3f
       -0.0005069859239787296 0.0005194499293635281
0006c0 dd 8d 96 33 d6 b7 97 3f f1 03 ac ef 70 e8 7c 3f
       0.023162218950927616 0.0070576106616053605
0006d0 a7 83 98 66 ab 83 80 bf df 41 21 79 05 e5 90 3f
       -0.008063639706110083 0.0164986472303229
0006e0 d9 e7 47 7b 9c 6b 95 bf 43 19 3c 00 44 97 91 bf
       -0.02091831686445986 -0.017178595079735414
0006f0 24 87 b8 61 88 8d 66 3f 6e f1 a0 99 6b c1 9d 3f
       0.0027530349450594228 0.029058152438879707
000700 97 8c d1 51 73 8c 92 bf e9 ac 26 b5 b7 01 8f 3f
       -0.018113901013191294 0.01513999482707225
000710 e2 e0 ef cb 3f 0f 91 bf 0a 81 d6 2b 00 13 88 bf
       -0.016659733602836797 -0.011754990899874435
000720 c9 41 4f 88 b2 6b 79 3f f6 cc 72 67 05 cb 9e bf
       0.006206223862094303 -0.03007133907221956
000730 c8 c2 33 21 6f 87 92 3f 29 c4 18 95 b5 55 63 3f
       0.01809476509237376 0.00236020531954086
000740 68 ad bd e9 dd 11 93 bf ce 5a 72 b9 31 c5 82 3f
       -0.0186228441156521 0.009165180656322571
000750 a3 e8 ba 10 a7 1a 83 3f 96 b8 44 1c c8 53 4b 3f
       0.009328179548323162 0.000833962164085172
000760 1e a3 3c ba 0c b0 78 bf f9 7b e8 aa c6 d0 81 3f
       -0.0060272690932741384 0.00869898995466477
000770 4c 9e ea 82 50 46 72 bf cf ef ad 0e ed c0 8f 3f
       -0.004461588380457803 0.015504695902329417
000780 e4 91 1b b0 3b 5b 86 bf 21 15 dd 1d 54 de 93 bf
       -0.01091620093524965 -0.019402803728799548
000790 f5 bb ed a6 b2 a7 77 bf 17 ae c7 69 14 a3 85 3f
       -0.005775163516644523 0.010564956167363566
0007a0 12 63 5a 04 ad a0 8c bf 93 59 60 b8 b7 a8 80 bf
       -0.013978339858384401 -0.008134303392620256
0007b0 b8 37 15 17 41 5c 97 bf 8f 44 1c 7b ed fb 86 3f
       -0.022812859567515636 0.011222701377422232
0007c0 17 3f 55 b5 40 08 92 3f 9b 35 fa e8 a9 1a 85 3f
       0.01760960680741083 0.010304763243108186
0007d0 07 d0 34 a4 79 3f 8e bf 1b aa e3 4f b5 5a 84 3f
       -0.014769506763151708 0.009938637257126228
0007e0 8d a0 ef 82 53 c0 7f bf 49 7b e3 23 6b cd 78 3f
       -0.007751775948214979 0.0060552773631730806
0007f0 95 95 f8 cf 48 47 86 bf a2 9a e3 83 41 92 94 3f
       -0.010878151747486334 0.020089172053213596
