weights/w_10_100.npy (npy, 8128 bytes, 1 tensors)

array f8 [10, 100]
0	0x3f7735dc31a02076	0.005666599399781194
1	0xbfab70b18f176dbe	-0.053594158856607774
2	0x3f86e0144a2d9a27	0.011169584764229757
3	0x3fc3c69591534cac	0.15449781032530063
4	0xbfaadc7d0a7cf9a4	-0.0524634433081588
5	0xbfbe5503edfb88ff	-0.11848473129387925
6	0x3fc706c917504f23	0.17989457739224077
7	0x3f8d878ceb062caa	0.01441869823681537
8	0x3fa5780eb873a858	0.04193159104927763
9	0x3fba06be61cc3b0d	0.10166540038720147
10	0xbf9cd6a7bb0b626f	-0.02816259459618425
11	0x3fbd8d6dcaea55f8	0.11543928340901022
12	0xbfcbd6f36958635e	-0.21749727863132312
13	0xbf95fc53bd60eb5a	-0.02147036403060141
14	0x3fadf2568c31ff8c	0.05848951779716946
15	0xbfc4b629317e725f	-0.16180910984702998
16	0x3f71cc9f432db6b1	0.00434553348428117
17	0xbfb57f4e132168a9	-0.08397376982739736
18	0xbfbfa4f3e52e6fc4	-0.12361072869538164
19	0x3f84264e72078b1b	0.00983868871202769
20	0xbfb4c9d494165ece	-0.08120468726553584
21	0x3f762a5fe67ea399	0.005411505328006516
22	0x3fa051b50e3073ea	0.031873376829231706
23	0x3fbd23491809616c	0.11381966435272312
24	0x3fac42a7049f71bc	0.055196017565069394
25	0x3fa1a4585b0fbc1e	0.03445697890844478
26	0xbfaeee6314481cc2	-0.06041249868945321
27	0xbfb6f6c4221b7f78	-0.08970285256100208
28	0xbfa7b57254c4755e	-0.04630620274313445
29	0xbfa7329f957cbbc2	-0.04530810069842729
30	0x3f7220377209c374	0.0044252553785647415
31	0x3f9e2408c9801346	0.029434335039712843
32	0xbfaede28fc0e539d	-0.0602886970220091
33	0x3faa23b1fd18c78d	0.051053583284001204
34	0xbfb21761a3175718	-0.07066927177160343
35	0xbfcbbdcf3d8b4681	-0.21673002724724102
36	0xbfc183a477d6e892	-0.13682990886247076
37	0xbf77884c7a709ae1	-0.005745218985828444
38	0xbfa08f08120a8d98	-0.03234124393682264
39	0x3fc1e64f402cc7c0	0.13984099038640174
40	0xbfc69932d30f677d	-0.17655024820015433
41	0xbfc7b2b8fdd97a16	-0.1851416816234212
42	0x3fba01352c0d2ca7	0.10158092809176598
43	0x3fa6bf21bc4ddd2b	0.04442696975359647
44	0xbfab6eeb1ed2983e	-0.05358061553242564
45	0x3fb011e41a19dff8	0.06277299535020109
46	0x3f8ba5f0baa3cdcf	0.013500099845692141
47	0xbfb1dff78dfde2ee	-0.06982371536822615
48	0x3fb94499621a1839	0.09870299000803663
49	0xbfb777771f52a389	-0.09166664614407528
50	0xbf9a774768523898	-0.02584563802934578
51	0xbf9953430a2dacc9	-0.02473168134330875
52	0x3fbe985c16473824	0.11951232475186707
53	0x3fc24c2992209a93	0.1429492915642255
54	0x3fb42f2a0ae5b9ee	0.07884466901825934
55	0xbf92d4646dce1488	-0.018388337327924137
56	0xbf9c713c0c28996a	-0.027775705568410393
57	0x3fc71145687ebb4f	0.18021457292840146
58	0x3fb820138be9fd92	0.09423944631452333
59	0x3fa600e176386053	0.042975469285182165
60	0xbfa072ecc7015f7e	-0.032126807491919415
61	0xbfbd15ee38a49245	-0.11361588366396187
62	0xbfc6e8e0e31bd710	-0.17898188676161242
63	0xbf9289f7ef8e81ae	-0.018104433056238704
64	0x3fc06c037ad25353	0.12829631325862553
65	0x3fccf258d5e1c048	0.22614584392022352
66	0x3fceb569386d32ac	0.2399112248916898
67	0x3faef7bb5f1278ef	0.060483794551361096
68	0xbf94fb29e06c1c72	-0.02048936302437849
69	0x3fb3e7dc36e22623	0.07775665607382413
70	0x3fbcb82929b534f1	0.11218507068879881
71	0xbfa781d912b34bbb	-0.04591253617549947
72	0xbfa11ac74f07c34e	-0.03340742912030824
73	0x3f9f0485c2b9ac42	0.030290689478004625
74	0x3fb0ba5520d43d4e	0.06534320880404218
75	0x3f9295ee95517a6d	0.01815007006040974
76	0x3fb3ed2ddb2e2882	0.07783781624871902
77	0xbfc3e3b43ad55397	-0.1553864753028875
78	0x3faa739d546c76f5	0.051663319163919676
79	0x3fc11f9244ac3125	0.13377598145633232
80	0x3f8f75137538c221	0.015360023512671241
81	0x3fab101f712c23ff	0.05285738235949821
82	0xbf9208fb821f99c3	-0.017612390343765726
83	0xbfa19d2ace0ca20a	-0.03440221562624764
84	0xbfb4157db1496e83	-0.07845292642871908
85	0xbf93a95e1d9dcf48	-0.019200773770946783
86	0xbfc7fdcf72a16342	-0.18743317696751133
87	0x3fcf01b18c0d2dff	0.2422391828389294
88	0x3fc503dccd9821a3	0.16418037451536546
89	0x3fc6b367926f7473	0.17734999323048192
90	0x3fa9e2a7db440152	0.05055737067778189
91	0xbfb1fad5d285bbe9	-0.07023369207102771
92	0xbf97cb66fe33b311	-0.02323685575986462
93	0x3fadd85b3ca4b719	0.0582912932899104
94	0x3fbceb700bc68c36	0.1129674938916175
95	0x3f8e34422144269b	0.014748112335399901
96	0xbf5cc74dbffb4d18	-0.0017565020825046126
97	0xbfb3850a23e01b61	-0.07624877334465686
98	0x3fc0922f19512235	0.12946118103197227
99	0xbf927a936d060147	-0.018045714883102162
100	0xbf9c9dd179a2f5dc	-0.027945778893572512
101	0x3fbf924999ce23b3	0.12332592015276482
102	0x3fad18557335a710	0.056826277078313336
103	0x3fcd084fb503a701	0.22681614245021112
104	0xbfb7bb768922ca85	-0.09270420883221149
105	0x3fbbd82c06eb6459	0.10876727265294174
106	0x3fc0ed9d50fa04fa	0.13225141958177017
107	0x3fb944db531b96d6	0.09870692042349147
108	0x3f9225a6ca091e3a	0.017721754151607018
109	0xbfa8b15cecced18b	-0.048228172213757046
110	0xbfc9432405787a02	-0.1973614718162509
111	0x3fb00ed3d8ec5a0c	0.0627262501333023
112	0xbfb9311da1b49294	-0.09840569684872441
113	0x3fc614ed3074010d	0.17251362672687556
114	0x3f909f3f426d95a9	0.016232479505011863
115	0x3fbbfdb163b16317	0.10933979686650407
116	0x3fa5a104df0bd040	0.042244102694809715
117	0x3faf7dcca902c372	0.061506648665619404
118	0xbfbe30bbcf4304bd	-0.11793111620046921
119	0x3fc7a46fa4b34a1c	0.18470569173821694
120	0xbfb5b7c5706c70aa	-0.08483537668911603
121	0xbfc0c1ec65d36aef	-0.13091807338681558
122	0xbfae2aaec8674e71	-0.05891939350445064
123	0x3fcb2de74ebffbab	0.21233836503230683
124	0xbf77f25418bf8d9f	-0.005846336844089888
125	0x3fba264a06ec2acd	0.10214674633986505
126	0x3fc160080b8fdf5a	0.13574314655829306
127	0x3fb0f9d90a34afdd	0.06631237506070371
128	0x3fa15ed042a67b63	0.03392649472811262
129	0x3fcd8ae638b39923	0.23080137032156597
130	0x3fa3385fc2fd7dd0	0.03753947501422383
131	0xbf8f09a5a014738a	-0.015155118892431724
132	0x3fbf3b803c7b85f3	0.1220016620314011
133	0xbf98e8b8966cf2e3	-0.02432526033520589
134	0xbfaa4653cb446a99	-0.051317804873368185
135	0x3f9b53a7752939cd	0.026686302686636233
136	0x3fb7a47d36b88bce	0.09235365472754539
137	0x3fb90c9565da80c7	0.0978482602754439
138	0x3fbb8390f4e9e511	0.10747629145943828
139	0xbfad8e00adb04cbc	-0.05772401924346002
140	0xbfb30e9f07f20540	-0.07444185203532516
141	0xbf80f62ed7195f03	-0.008282056750587246
142	0x3fa4bc3148660040	0.04049829491395984
143	0xbf981675e6058973	-0.023523180164724388
144	0xbf9ad27c8f1982e7	-0.026193567499265404
145	0xbfa63788d59a5c69	-0.04339244468172227
146	0xbfc16ceb8894edcc	-0.1361364762213796
147	0x3fa62b9e368008b4	0.043301529076431505
148	0x3fb078b62072d569	0.0643419102878703
149	0xbfc063f09e84d64f	-0.12804992427997994
150	0xbfa2f0c24559c163	-0.03699309441151646
151	0xbfbbefcf2640d89e	-0.1091279476539477
152	0xbfb8a75e579e6932	-0.09630384101038628
153	0x3fac73a3a2fbba8e	0.05556975712339805
154	0x3fc06a405877b815	0.12824253387174225
155	0x3f92b10f7950c39c	0.018253556994924133
156	0x3fb3cda833da9104	0.07735682741128264
157	0xbfb5dfbfdc584cd0	-0.08544539575113963
158	0xbfb1f4455fdee1f5	-0.07013352957336123
159	0xbf724a53badcb0cd	-0.004465415067709877
160	0xbfbf8d633607e23a	-0.1232511526976702
161	0xbf827b1f67032f91	-0.009023900347891163
162	0xbfb4c6146b3990c4	-0.08114745729250489
163	0x3fb019c1f6dc4f15	0.06289303089971228
164	0x3f75b57fc773459d	0.005300044190521017
165	0xbfc772c817db5658	-0.18319035687334195
166	0xbfbfe731504da94f	-0.12462146959811558
167	0x3fcbbc4ff7d58f23	0.21668433762817427
168	0xbfb146d29e541845	-0.06748691907350331
169	0x3fc4279c14690ed0	0.1574587917003698
170	0x3fad3126dc6a1e49	0.0570156234799098
171	0x3fc83cafc51d1f6f	0.18935200810141903
172	0xbfb851812186645f	-0.09499365871887865
173	0x3fb04e27cd7705dd	0.06369255796655389
174	0x3fb9d0e9096704e1	0.10084396819640375
175	0xbf9d4a98150bd06b	-0.028604866299204817
176	0x3fa686fd4c852357	0.04399863776286022
177	0xbfc9e7c849259bc6	-0.20238593646646857
178	0x3fc5342122476f8b	0.16565336393147975
179	0x3fc8c00b8d18e9c5	0.19336075200574335
180	0x3fa55bf32bc43f6b	0.04171714696178593
181	0x3fa96c3d1b3ee35c	0.049653920722852546
182	0x3f9b3b7eace4cbb9	0.026594142248722117
183	0x3fb7b07fadfd9963	0.09253690717523493
184	0x3fb31f335b233900	0.07469483351744444
185	0x3f639f81fc49db2e	0.002395395162518985
186	0x3fb9f21faa9ef7fa	0.10135076442290361
187	0xbfb9e59c1a7a4559	-0.10115981718469892
188	0xbf97b7ca50939b4b	-0.023162041824345263
189	0x3f8ffbff374912b4	0.015617364763906273
190	0xbfb3664451281a94	-0.07577921849597608
191	0x3fa1e28777fdc2f6	0.034931405446405536
192	0xbf9d1af74f99f591	-0.02842317984913262
193	0xbfae07e4252b5981	-0.05865395501830318
194	0x3fa91427a36cf343	0.04898189420644041
195	0xbfbdd768f1075b1c	-0.11656814465036941
196	0xbfb1b37ce5b24f15	-0.06914501769852806
197	0x3f808564e9627ac0	0.008066929218612073
198	0x3fb60d1553d9ee61	0.08613713547850345
199	0xbfabc4b66dcd4c34	-0.05423517313342821
200	0xbf982ca710f20d79	-0.023607836159965843
201	0xbfa2c69c620fd6f1	-0.03667153069538454
202	0xbfa1d08c6c8e629e	-0.03479422402523834
203	0xbf886704058a9011	-0.01191523687277399
204	0x3f8e4876d591cccf	0.014786651985764369
205	0xbfc12a33aded2e94	-0.13410039894585124
206	0x3fc4a9ad154136b5	0.16142810380772735
207	0xbfa78f1b21029930	-0.04601368692356045
208	0xbf7aef1fcbf64a2c	-0.006575702863659088
209	0x3f9aa51aebb9604d	0.026020451199969142
210	0xbf7bf24cafc6e547	-0.006822871739524067
211	0xbfcacf259dbf02fe	-0.20944662287185872
212	0x3fa9e5095a027544	0.050575535047054504
213	0xbf9e097c675ff6d8	-0.029333061036587477
214	0xbfc240e3db0d3a9b	-0.14260528751261323
215	0xbf88131382360fc3	-0.011755134974698827
216	0xbfa0a5ca4b6ec5eb	-0.03251487894830148
217	0xbfa7ed2c5dd30102	-0.04673136372866972
218	0xbfc3ad976d4235c1	-0.15373509249586273
219	0x3fc28017d6a660e6	0.1445340917678159
220	0x3fc7aa5d18b25667	0.18488658624544316
221	0x3fbf288ac51f703c	0.12171237289970888
222	0xbfc0bf9bcbd7bc91	-0.13084742978341926
223	0x3f92c945c7cb5108	0.01834591896006635
224	0xbfa68070c9b9488f	-0.04394867384384426
225	0xbf9c4207f0bdf82e	-0.02759563834069228
226	0x3faed3cbc2adc0fa	0.060209624781124974
227	0xbfb265644d8f9a15	-0.07185961621835475
228	0x3f9adf55cf5eb261	0.02624258115945322
229	0xbfc49596a6692db7	-0.16081507802515002
230	0x3fbbce14da09bbf7	0.10861330340570406
231	0x3f81b9349f5e5ea3	0.008654032815498985
232	0xbfbbca407a5863d9	-0.10855486857361941
233	0x3f9def696afe978d	0.029233595996309304
234	0xbfbab44979f06a5e	-0.1043134615614831
235	0x3fb31ddcb701e59c	0.0746744105143961
236	0xbfc211c1514631a4	-0.14116684406725455
237	0xbf95aef44411950e	-0.02117520966966873
238	0xbfb86a07e4792c0e	-0.09536790206873055
239	0xbfb293dbe6944d11	-0.07256864909532036
240	0x3fc2bf461399f097	0.14646221119972289
241	0xbfb570f7401dbaab	-0.08375497165045924
242	0x3f5e6fb65af67c52	0.0018576889814097175
243	0x3f859ed727463af2	0.010556870351846357
244	0x3fbe73ba7f72cc39	0.11895337688001541
245	0xbf7ce9278a621abc	-0.007058290915785189
246	0xbfc1fe518dc0f10b	-0.1405736868054038
247	0x3fa8c9435f84eb8b	0.04841051617628186
248	0x3f82fd4b872fb2f8	0.009272184432086203
249	0x3f93f32cb32f9a8e	0.019482325016634543
250	0xbf93945a703ead94	-0.019120610333329305
251	0xbf81cc196a9c1dbe	-0.008690069738363056
252	0xbf4ca05e8ef45031	-0.0008736097060215773
253	0xbf9964933037d4fa	-0.024797725503920433
254	0xbfa0e6da00e05026	-0.033011257750473796
255	0xbfb4e700f905e9c4	-0.08164983825364575
