weights/w_10_1000.npy (npy, 80128 bytes, 1 tensors)

array f8 [10, 1000]
0.02553042911088816 -0.035982991782973754 0.0539690550181343 -0.06325191280500683 0.012833281427048863 -0.05884484008228904 0.04785176923053841 -0.006019111618250452
0.02405846214186341 0.013886363261234108 0.05681445729542413 -0.016596575985438247 -0.015225734231758999 0.0581152181059821 -0.0006138218361176826 0.008332981791340646
0.0009405967891076785 -0.00746982280502215 -0.04758886282304909 0.0621510059324409 -0.026063388390227118 -0.05402310243445749 -0.005886068406683804 -0.03742851818634579
0.03718889946629383 -0.028372905726611778 0.030158438396646958 -0.009224619415997927 0.01303593187442597 0.019884778169291087 0.0014280301856815587 0.011564651445001897
0.010884768707244674 0.08628379700055286 -0.05217469955469812 0.005541215907027125 0.061810425831635964 0.06069185234370356 0.00640438854844194 -0.024565631792161202
-0.03920375354198534 -0.00180807213973047 -0.010378857642193122 -0.00553182856177567 0.025686344699059525 0.08010269946105329 0.017626119839980536 0.0564307571104041
0.04413453473973823 0.00131099635779521 0.08408794927537334 0.030686679960363623 0.002297425874918449 0.013800290950022491 -0.028630913792686518 0.05683096964118814
-0.031122463411243945 -0.059944385849687684 -0.002281066144662072 0.023979938258908116 0.0172159505397483 0.022943372407049897 -0.0005452203859159295 -0.0343953710517895
0.04022639756189231 0.03108464591422603 0.08065291351257763 0.0021712550591482787 0.0006628561467514688 0.030725623827787762 0.019598938120150018 0.024474988891552373
0.04246779069969991 -0.0173871659113645 -0.016235452328927483 -0.04230321861729069 -0.02251594918815363 0.03327353799452513 0.04124727633964832 -0.004720118807032023
0.045452207818701594 0.004568768011424452 -0.0012956490886062413 -0.032719319642683195 -0.03806442885470635 -0.017405740553280376 -0.010494934206958184 -0.007565788813689375
0.02743352129181322 0.08463861072032061 0.020919095794210564 -0.0019616408519726085 0.06802699372661039 0.011426876587281778 0.02977810411921843 -0.037896566117367525
0.018071516529659604 0.0003456496003261501 -0.03676041234128823 -0.04003664992315229 0.029570513323432464 -0.04099494922047619 -0.047860475494376956 -0.014931948305735063
0.01988404946691302 0.0289432555649181 0.021159966932971876 -0.005130817392325921 0.024180094131178206 -0.0415659345061247 -0.08044169990876025 -0.05127261704973087
-0.049180055623202754 0.061125361968442773 -0.024780654500674123 0.04650641109469523 0.028841416495370926 0.027103590008749887 -0.0036214056041551403 0.014730428738000668
0.024343030646402593 -0.001095775291090941 -0.06217600593988657 0.01721277184064133 -0.021264212271141628 -0.024499746170328705 0.04383201190593476 0.026990783904386133
-0.0029003640717584402 -0.037084104836723 -0.007766183106210421 0.00165488041384481 0.013362139255088125 -0.00801102673985453 0.039135616270203295 -0.020185212007609074
-0.03680336423613107 0.016962425585094542 0.06011152125750818 0.01328824923067248 0.023139226812261417 0.013945454664678053 -0.010431142926255686 0.026399349773223155
-0.019403203861897395 -0.03774567408464285 -0.046083483273514275 -0.04066472644372283 -0.020262673228027973 0.0675504982429337 0.04835627943966541 -0.0038869193570699114
0.01209493346901315 0.03781022815906812 0.01706946837988615 -0.03901133262987377 0.11503423390153424 0.028619414697832437 0.028325337493187715 -0.03408397778893853
0.005176166219755198 -0.004475720591416242 -0.04379520032482038 -0.0005149708910289655 0.0022998284385565846 -0.0487587618175773 -0.00875295267868762 0.006207749280284278
-0.011760100376046691 0.048378773931562494 -0.04829286445093993 0.0008126126250867877 0.023739549543398155 0.002558611423253659 -0.02741771042065095 -0.0014666802212149896
0.048742458709973256 0.04361339053691667 -0.023154372755119647 0.04017280551991972 -0.02121859340077566 -0.0016268344135116082 -0.02081947169765832 -0.06843449195131936
-0.019628637762768596 0.008059080214458695 0.03364949228128464 -0.029818936082823044 0.031708020432183175 -0.048112988770546525 -0.04005127186803001 -0.024928327848299122
0.0080472841453038 0.04386771497844401 0.03624519938038723 0.0584689289130141 0.03714243190454276 0.04760876338506382 -0.022152413807725358 -0.03227118229926112
0.03133448939865924 0.03853402312750275 -0.0026938618970708886 0.04119555569447973 0.023588828050916076 0.02701711500705913 0.03634603373867013 0.0011098899620460513
-0.01973392446794047 -0.014000200384162312 -0.01995942901987097 0.030362129724944297 -0.006041761163084527 -0.03734815113305698 0.01395269197198154 0.04458832632126858
0.07008904585163306 -0.05915543972643361 -0.016295047826180274 -0.009762314738972506 -0.012026581670519723 -0.029635540253348455 -0.020432088779790466 -0.006919428484032002
0.003272600998823549 -0.04574601487768073 -0.011781732136772366 -0.01985247936064461 -0.002290937914409296 0.0029868499987160233 -0.03761895318650918 -0.0024229234818739904
-0.02660006230514115 0.0020559662951255115 0.03726229902494322 -0.010803766965665974 -0.022828355108317377 0.023536314974936873 -0.031879448576725256 0.009531179716033409
-0.014102787721519438 0.038635834227327366 -0.03381664576054379 -0.07641639969797558 -0.0030799359105691117 -0.009077758153574098 -0.007593211303782489 0.02684102722708553
0.029582145676968135 -0.04929478719959182 -0.012000443904398774 0.008419760818495766 -0.02445464865570163 0.025369568910361684 -0.007541076768683695 -0.004223210695161204
00000000: 3221 5618 a624 9a3f 8718 d7d9 5c6c a2bf
00000010: ee0a 99fc d4a1 ab3f be2d e800 4731 b0bf
00000020: fc7e 3ce0 5548 8a3f 2b31 622f e920 aebf
00000030: f842 cdef 0680 a83f 295e d2f8 7ea7 78bf
00000040: cf8c 5d10 c8a2 983f a3fc 8920 7470 8c3f
00000050: 2234 0cd8 c816 ad3f 7407 555c b1fe 90bf
00000060: 04f8 a974 ab2e 8fbf 0388 5422 47c1 ad3f
00000070: c1db 185b 1c1d 44bf 6eff 2ce2 e110 813f
00000080: cf19 5639 4cd2 4e3f 63c5 784a ad98 7ebf
00000090: b128 f542 915d a8bf 4a63 c9b3 41d2 af3f
000000a0: d72f 0963 5cb0 9abf 9c70 5e84 eaa8 abbf
000000b0: 6e8a f074 fd1b 78bf 17a0 18ab d429 a3bf
000000c0: f7c3 f665 6c0a a33f c1ce c078 c90d 9dbf
000000d0: d3b7 728a dae1 9e3f 7495 ad75 5be4 82bf
000000e0: fc9d 9628 95b2 8a3f 1487 b3df ac5c 943f
000000f0: 2735 7ebc 9765 573f 1ba6 f73d 35af 873f
00000100: 9324 faec c04a 863f 96c5 4ae6 b116 b63f
00000110: 4138 8868 a4b6 aabf d3b2 9cd1 62b2 763f
00000120: ed56 ffba 9da5 af3f 1155 e6a1 0013 af3f
00000130: feea dcf5 7c3b 7a3f 8094 9ca4 bb27 99bf
00000140: 3ec1 afae 8312 a4bf 7b74 5fad 9a9f 5dbf
00000150: 2ffc 24b1 8241 85bf 6092 28ec 8aa8 76bf
00000160: a6b6 be69 854d 9a3f a7ac 814a 9c81 b43f
00000170: 0387 12e1 940c 923f 5c2f 8e00 7ee4 ac3f
00000180: eaa6 a93e cd98 a63f 578a d79e b77a 553f
00000190: 891c 20b0 c986 b53f d20a 693b 546c 9f3f
000001a0: 20a4 ed1f 0dd2 623f dcee 71b2 5343 8c3f
000001b0: f3a4 9319 6c51 9dbf dc8a 04e8 f218 ad3f
000001c0: 88c8 162a 91de 9fbf d63e 9bd1 07b1 aebf
000001d0: 1f07 b90f beaf 62bf 8614 546a 328e 983f
000001e0: d5ad 26e2 0ea1 913f 1cc9 97a8 777e 973f
000001f0: 3aee 01dd a3dd 41bf a439 9a23 459c a1bf
00000200: 74ae edeb 8d98 a43f 0af7 6f46 a7d4 9f3f
00000210: 5717 dd59 aba5 b43f fcd4 0caf 73c9 613f
00000220: 43b1 72bc 70b8 453f c04b f5b5 8976 9f3f
00000230: 42ab 0c79 be11 943f 13cd 6fb3 f80f 993f
00000240: 178e 6098 56be a53f 8a76 d6f3 f0cd 91bf
00000250: 516f 27c3 06a0 90bf 5f1f f478 c4a8 a5bf
00000260: 6d27 9bc5 6b0e 97bf 2d74 04ab 3a09 a13f
00000270: 0211 dbed 5c1e a53f e40d 8d3e 6755 73bf
00000280: db81 3904 8345 a73f 67c1 1253 b3b6 723f
00000290: f727 9c9d 583a 55bf 8619 a02f 96c0 a0bf
000002a0: c9cd 244a 2e7d a3bf 4289 c179 cfd2 91bf
000002b0: 605b 8a39 5e7e 85bf 562f 5ff8 4dfd 7ebf
000002c0: a5c1 0c73 8817 9c3f 86cc 0541 e0aa b53f
000002d0: 9a2d 31c1 d06b 953f 2a75 c8e9 db11 60bf
000002e0: 9a0d 4d91 376a b13f 6e05 e769 f966 873f
000002f0: fdd1 50bd 267e 9e3f b8a7 35c0 2d67 a3bf
00000300: b0a0 eff1 5681 923f c4d9 b1ba 09a7 363f
00000310: 6f2c 96c1 42d2 a2bf f567 1f0c af7f a4bf
00000320: 2fad 998e bb47 9e3f 1f00 683c 4afd a4bf
00000330: 5ae9 0912 2b81 a8bf f80b 1c2d a494 8ebf
00000340: 7f93 b0f8 7b5c 943f 8c47 5d00 4da3 9d3f
00000350: 0aa2 d857 f5aa 953f 14b9 6d4e 0d04 75bf
00000360: 6ccb 07a6 aac2 983f 34b8 a952 2148 a5bf
00000370: dfbf 57c6 d397 b4bf c35e d18a 6740 aabf
00000380: 86c3 08d5 202e a9bf b2a3 38cd d24b af3f
00000390: 3f90 9d92 1960 99bf 117f 6935 b0cf a73f
000003a0: 72c3 78b2 9a88 9d3f 2c60 c422 0bc1 9b3f
000003b0: 082d 5554 a3aa 6dbf ba75 7cad fc2a 8e3f
000003c0: d21b 0c22 61ed 983f d6fb 7ec2 03f4 51bf
000003d0: 5d26 3790 88d5 afbf 6a29 8490 39a0 913f
000003e0: 2478 1e21 49c6 95bf 0659 3f22 7616 99bf
000003f0: 5ec8 4e43 2671 a63f bea5 a6d8 78a3 9b3f
00000400: 2cd4 b51a 81c2 67bf 4448 f312 b0fc a2bf
00000410: 4b74 4be7 6ecf 7fbf e078 6650 121d 5b3f
00000420: c773 d7f8 9b5d 8b3f f827 d7ce 1568 80bf
00000430: 4989 fa5f 9509 a43f acf5 bda5 6eab 94bf
00000440: 91cd 8dfb e3d7 a2bf e362 981c 995e 913f
00000450: 70de d3f3 efc6 ae3f 6e47 ef9e de36 8b3f
00000460: 7a4f a739 cfb1 973f 1d7e b33d 6f8f 8c3f
00000470: bf4a d34d ec5c 85bf cc89 a55f 6e08 9b3f
00000480: b80e 19f8 6ede 93bf b79d 84a7 6653 a3bf
00000490: ac4c 171b 4198 a7bf 2968 5acc 01d2 a4bf
000004a0: 3a2b 60fb bcbf 94bf f92a c84c fd4a b13f
000004b0: 97cb 7f7d 27c2 a83f 716e aaf0 75d7 6fbf
000004c0: 48db 927d 3ac5 883f 9484 cbba dc5b a33f
000004d0: ef8e cea1 a87a 913f bf2a a31b 4bf9 a3bf
000004e0: 810a 8730 e272 bd3f f7a3 a168 684e 9d3f
000004f0: efc1 b938 5101 9d3f fa97 d783 7473 a1bf
00000500: 42c1 1e8a 9a33 753f a504 0f19 2255 72bf
00000510: a9d6 3b12 536c a6bf 9c85 5391 e3df 40bf
00000520: 02a7 c2fd 16d7 623f fdc5 cc8e e8f6 a8bf
00000530: 93b8 fc6b 11ed 81bf bdd9 3f02 4c6d 793f
00000540: c135 1af4 ad15 88bf 4a99 b647 1ac5 a83f
00000550: 5ed6 e4a2 d7b9 a8bf 578b 1453 b0a0 4a3f
00000560: d785 a433 2e4f 983f 257e 5a0c ccf5 643f
00000570: f200 5a66 6313 9cbf 041e 5de5 b307 58bf
00000580: ab03 2c84 c5f4 a83f bb26 0c8c 7e54 a63f
00000590: 9a74 f8a6 c7b5 97bf 3b12 cbab 8791 a43f
000005a0: d5d0 e4b2 53ba 95bf 83d1 8726 70a7 5abf
000005b0: 26ea 3e18 b351 95bf 316b d940 ec84 b1bf
000005c0: c644 0695 8719 94bf 8fd0 a76f 4781 803f
000005d0: fc0f c099 813a a13f a0e4 1bed da88 9ebf
000005e0: 87e3 8d9d 083c a03f 468b 9002 44a2 a8bf
000005f0: cc3b acad 9981 a4bf 5fde 68c3 cf86 99bf
00000600: 593b ce31 187b 803f 7286 5d42 d475 a63f
00000610: 2897 f313 bb8e a23f 4aef 06b3 a3ef ad3f
00000620: 99d8 a534 5504 a33f f1d3 7b03 2d60 a83f
00000630: 3d99 5353 1faf 96bf b73b 2831 d985 a0bf
00000640: d07f 68fe 120b a03f 6f5b 3b42 bbba a33f
00000650: 1078 ee17 7011 66bf 6e8c e578 9517 a53f
00000660: 165d 1e74 ab27 983f 55e4 8ce5 5faa 9b3f
00000670: c969 7e84 f29b a23f 6793 b445 372f 523f
00000680: 8e9d d840 2135 94bf d5a4 4c16 23ac 8cbf
00000690: b178 8c9b 3e70 94bf 737a d208 4017 9f3f
000006a0: 03e9 b0e9 3ebf 78bf 8c76 5dff 4b1f a3bf
000006b0: b0c3 af9d 3a93 8c3f 689c aaf6 47d4 a63f
000006c0: 8498 bd0f 5bf1 b13f 08d5 022e 9f49 aebf
000006d0: 7934 0026 a6af 90bf 0a13 4cb4 43fe 83bf
000006e0: bb12 a977 64a1 88bf dceb bf70 c758 9ebf
000006f0: 4f86 6444 26ec 94bf 521f bcf0 8b57 7cbf
00000700: 19e4 6848 24cf 6a3f 03d9 a48b 056c a7bf
00000710: 83c9 bd51 0521 88bf e2d8 6456 3554 94bf
00000720: 4bfd 6ced 71c4 62bf 195a 00e2 e077 683f
00000730: dca7 4a9b ca42 a3bf db05 b123 3dd9 63bf
00000740: 6a46 b0f6 0b3d 9bbf 1bcb f97f acd7 603f
00000750: c92e 5f47 0b14 a33f 7a41 540e 4920 86bf
00000760: e060 72fa 5060 97bf 15c4 575c e719 983f
00000770: 9864 1aca 8052 a0bf a59c 6149 1585 833f
00000780: 13f0 5e20 ece1 8cbf 798b eb78 13c8 a33f
00000790: 2233 3457 6a50 a1bf dbb3 9471 0690 b3bf
000007a0: 1f38 4f00 183b 69bf e5f1 1f13 5c97 82bf
000007b0: 41b4 8a23 0f1a 7fbf ef87 86d8 367c 9b3f
000007c0: 5b8f e930 c84a 9e3f b463 c595 2a3d a9bf
000007d0: 6ee1 da50 b093 88bf 1e3b d82a 613e 813f
000007e0: 917b d8b0 a30a 99bf c06d 22f3 7afa 993f
000007f0: 31e8 9161 64e3 7ebf 170b 1e7d 5b4c 71bf
