weights/w_10_2154.npy (npy, 172448 bytes, 1 tensors)

array f8 [10, 2154]
000000 be 8b a4 31 d6 0d 5b 3f 48 82 52 f9 b9 69 83 bf
       0.001651248143908587 -0.009479000970089704
000010 7b 13 8b 3f 4f eb 83 bf 0a 10 ad f6 41 ce a1 bf
       -0.009726161123930535 -0.03477674614126165
000020 e6 34 98 7a 53 d7 76 bf 9a c7 a2 90 d2 29 89 bf
       -0.005576444711107719 -0.012286801375328161
000030 eb 18 d8 e9 45 36 31 bf d2 24 f1 eb 67 b1 92 bf
       -0.0002626343428747807 -0.018254874969248665
000040 ec 27 cb a3 8c f5 a4 3f 48 f8 b3 f3 7a 58 8c 3f
       0.04093589305337261 0.013840637743211329
000050 24 f9 30 ef 81 3c 91 bf a3 b3 66 08 2b 6d a2 3f
       -0.016832380508497682 0.035989136481794824
000060 43 7b c1 05 6c bf 89 3f 7c c5 c3 45 66 66 74 3f
       0.012572139669087106 0.004980468275094348
000070 75 95 ed 93 b6 a2 72 3f e6 d6 d3 d5 47 81 93 bf
       0.0045497066447287475 -0.019047853876108876
000080 67 68 c5 34 7f 59 95 bf c6 69 e8 bc 15 17 5a bf
       -0.020849216075795953 -0.0015924179348362085
000090 0e 91 c2 22 5a 96 89 3f 87 f2 f0 c5 09 d0 61 bf
       0.012493805108825497 -0.0021743956454243793
0000a0 73 6a df 03 1d a1 97 3f 71 0d 21 73 d7 62 72 bf
       0.023075536118862105 -0.0044887939457710505
0000b0 52 eb 92 cb bd ee 89 bf c9 2b 45 f7 9d 83 72 3f
       -0.012662394309122558 0.004520051054281057
0000c0 42 56 c0 0a 30 8d a9 3f 19 78 0e 38 33 12 87 bf
       0.049905301391998794 -0.011265182636460523
0000d0 55 32 9d 98 10 94 99 3f 45 09 a7 8e fc 30 a3 3f
       0.02497888499719843 0.03748311272967667
0000e0 22 34 14 69 20 61 96 bf 5f 1d 2b 8a 10 8e 7d bf
       -0.021854883588322 -0.007215561493189553
0000f0 29 1f 7b 20 52 c5 98 bf 39 ed 0e 0d eb 5d 87 3f
       -0.024190219147185808 0.0114096034393386
000100 ec 32 cc 58 8a af 90 bf 8b 31 ec ef 4e 7a aa 3f
       -0.016294633550432744 0.05171438864462904
000110 85 1f 11 83 96 ed 96 3f 1d 5c fc 84 85 82 6b 3f
       0.02239070105522913 0.0033581359674701564
000120 cc 32 34 44 47 41 9b bf cd 81 29 89 27 ee 83 3f
       -0.026616204774699878 0.009731587289196231
000130 a0 89 56 62 d9 49 78 3f fe 44 6e e6 8d a8 85 bf
       0.005929803044099208 -0.010575398058593862
000140 89 a4 14 42 a0 87 82 bf 8b 0e 0f 53 00 54 89 bf
       -0.00904774858152481 -0.012367250952485939
000150 d3 8f 1e 15 6b 78 9c 3f bf 31 09 93 f3 af a0 bf
       0.027803109325432573 -0.03259240312454236
000160 35 7a 59 a0 1f 0f 86 3f aa c5 c3 34 48 63 a8 3f
       0.010771033364275965 0.047632461968429254
000170 bc a0 b0 9c 16 77 7b 3f be 28 30 05 b3 3f a1 3f
       0.0067053683551778175 0.033689112075153
000180 db cb 2f 0c 57 9a 37 3f 1d f4 ef 72 ec 8f 9b bf
       0.00036015153108265107 -0.026916212573258592
000190 f3 4c 52 b3 64 68 92 3f 40 0d 90 7b c2 4c 9d bf
       0.017976354069628674 -0.028613127509754976
0001a0 69 1f 15 af 16 b9 93 3f bc 69 bc a5 1e 58 77 3f
       0.019260744510830295 0.005699271885328757
0001b0 57 6c 03 ed 29 76 8a bf 77 b8 5b 09 3f 02 8e 3f
       -0.01292069201047334 0.014652721856205126
0001c0 0a 6c cb 80 8a de 9d bf e1 e3 48 37 03 0a 90 bf
       -0.029169239150046912 -0.015663194894134484
0001d0 c9 11 e8 11 0a 0b 3b bf 3c 77 1d 21 7d aa 7f 3f
       -0.00041264530037235216 0.007730950151964507
0001e0 60 0e 12 47 1b c1 6c bf d0 27 9b 9c 58 f1 7d 3f
       -0.0035100491300584097 0.007310243739718517
0001f0 cf 74 23 67 91 15 a9 bf 78 a1 30 f0 f3 70 91 bf
       -0.048992675628804265 -0.017032443556816074
000200 fc eb 9d d9 cb c0 9c 3f c0 2c a2 e3 b5 e4 64 bf
       0.028079209477692033 -0.002550463917093987
000210 a5 fe e9 65 0d 50 70 3f e4 b1 0c ae ff 47 a2 bf
       0.003982593857130877 -0.035705556865966576
000220 87 41 54 6d 04 ea 98 bf 3d fa 50 5a 5d 29 97 bf
       -0.024330205128593654 -0.022618731152983285
000230 cd 5e 86 ec 2a 5b 81 bf 17 1c ae 45 42 64 a7 3f
       -0.008474669783751132 0.04568678951823573
000240 cb 7a 66 33 32 6a 92 3f f4 a3 ea 5d 39 87 7e 3f
       0.017983230960107826 0.007453178490927737
000250 47 db 4a 57 18 9d 8d 3f 4e e3 4d ed c4 02 91 3f
       0.014459791339829343 0.01661212633505054
000260 ad 0c 8a b1 53 c5 90 3f 51 33 48 e8 af 97 96 bf
       0.01637774249185202 -0.022063015510912113
000270 0c 27 6f b9 e3 0f 97 bf 85 53 13 bf 9e 57 89 bf
       -0.022521551316265806 -0.012374153333817759
000280 69 b7 45 37 43 cf 84 3f f4 55 01 e3 4b 29 83 3f
       0.010160946964528699 0.009356110444211453
000290 30 c8 f8 8a 5a 7a 27 3f 5e 8f 99 d7 3a 12 5f bf
       0.00017912249812607325 -0.0018964361792308186
0002a0 f1 12 ac aa 70 58 63 3f 4d e9 3b e7 56 5f 92 3f
       0.0023615074654820202 0.017941816199688976
0002b0 8f e8 03 ae 10 46 88 bf e9 ad b7 62 df 9f 69 3f
       -0.011852388678097263 0.0031279910087869023
0002c0 98 76 25 b3 7b 5e 74 3f e8 1f 1d ce c1 06 97 bf
       0.004972918703371264 -0.022486713605104486
0002d0 42 95 39 91 a4 79 94 3f 6e ae be 20 fb 09 a1 3f
       0.019995280612780116 0.033279273745702706
0002e0 08 1a 27 c9 28 3c 57 bf ea 68 98 f4 4e c3 a8 bf
       -0.001418151693188487 -0.04836508498938648
0002f0 c0 68 83 0e 35 4d 95 3f 83 f8 6b bf a3 e6 93 3f
       0.02080233479578264 0.019434507902581288
000300 dc 86 11 8c 7d f6 97 3f 07 3c 5c 74 32 a8 8e bf
       0.02340122382555064 -0.014969247985872526
000310 9f 08 dd ca 5a 20 72 3f e7 dd 8e 61 1a 6e a1 bf
       0.0044253870563030475 -0.0340431446160741
000320 de 37 94 25 96 11 83 3f e5 81 a2 19 85 47 85 3f
       0.00931088735753954 0.010390319676219792
000330 30 e7 a5 6b 64 72 97 3f dc 88 c5 34 34 79 a6 3f
       0.022897309370342345 0.043893462602470484
000340 2b b3 61 3f ff 62 a0 bf ae 2e a8 de fb ce 9e 3f
       -0.0320052876348654 0.030086455788519366
000350 6e a5 26 1a a3 5f 7a 3f bc 8d 6f 8a cb 01 98 bf
       0.006438862912923822 -0.023444347691009546
000360 45 99 74 46 22 c9 8a bf 2e e2 04 be b7 1f 98 3f
       -0.013078944945459478 0.023558493588298805
000370 de 99 0f 6d 84 c7 97 bf 59 78 df db 14 90 9f bf
       -0.02322203555731927 -0.030823064727762837
000380 22 b6 f2 35 d4 a0 2f bf 5b 26 45 f2 ce 17 ac bf
       -0.0002413043066317603 -0.0548691435565842
000390 cb 4c e6 45 ac fc 94 3f 0d e1 66 2d 7d 47 92 3f
       0.020495120779355596 0.017850833793745347
0003a0 26 9c 11 e7 43 66 a2 3f ba 2f 21 be 1c c4 9c 3f
       0.0359364718977349 0.028091858963577222
0003b0 5e 86 f5 d2 7e 4c 72 bf 12 a4 90 91 3a e8 7c 3f
       -0.004467482954483152 0.007057408126493152
0003c0 85 1f 77 bf 71 58 9c bf ec 92 5d 67 4f 04 75 3f
       -0.0276811383353386 0.005131063624365533
0003d0 2c 97 02 33 32 50 91 bf ff 41 d4 3b 6b 00 1f 3f
       -0.016907486308489414 0.00011826185705766239
0003e0 69 02 87 ac ec 0b 8f 3f 92 05 9c 80 00 d5 73 3f
       0.015159462943189443 0.004841806375908491
0003f0 1d 4f f2 b2 4e 2a 77 3f 9f c7 3f f3 a1 8e ab bf
       0.005655581872946927 -0.053822575515268804
000400 13 5f 9d 9a 81 68 96 3f 31 d6 34 21 cb d5 85 3f
       0.021883034765180897 0.010661684943083479
000410 03 33 04 8e 89 3e 9b 3f aa c3 f6 7e 0d 9b 8a bf
       0.02660574845599496 -0.01299105209077019
000420 2d cc e8 be 37 6f 88 3f 9d 13 94 9d 2f 51 96 3f
       0.011930881036368824 0.021794075005363223
000430 52 45 f8 e3 63 9e 8d 3f 56 38 7f 78 bb 47 93 bf
       0.014462261576258104 -0.018828324536848427
000440 39 85 67 60 77 2a 72 3f ca 5c 02 d7 05 eb 90 bf
       0.004435030283702895 -0.0165215408784121
000450 0a f5 47 c3 40 5a 60 3f 6c 52 c2 0f d1 2f 85 3f
       0.001996160974384713 0.01034510926573625
000460 a3 92 db 6f 49 3e a0 3f a4 da e8 26 9f b1 a0 bf
       0.031725211052422674 -0.03260514593096289
000470 29 62 fe 95 80 f6 5d bf bf 91 98 d8 c6 2b 88 bf
       -0.0018287902566723835 -0.01180224750994163
000480 1c 4e 42 1c bf 53 64 bf 65 76 45 db 00 e5 98 bf
       -0.0024813397049656804 -0.024311078437099804
000490 70 56 81 39 a5 fb 91 3f ef 1a f6 8e ca 06 8a 3f
       0.017561513552513508 0.012708265769800301
0004a0 2f b4 3f df e9 bd a5 3f b6 75 a4 fa ed 27 8c bf
       0.042464550497108504 -0.013748034678935688
0004b0 a5 f1 57 50 18 61 a1 3f 1d cf 3e 58 2b fd 8d 3f
       0.03394390087848657 0.014643038397344871
0004c0 8c 5d 71 83 5d 9d 5e 3f 08 22 ec 9e d8 f5 a2 bf
       0.0018685734956046278 -0.03703190746279367
0004d0 3e 3c 7d 01 09 08 7f 3f 49 51 b2 1f 6c 95 92 bf
       0.007576022318814655 -0.01814812606296926
0004e0 86 a5 ff 35 4e 78 67 3f e6 fc f6 e3 99 e4 85 bf
       0.0028649833256976813 -0.010689928311761365
0004f0 46 87 9f 62 ae 84 88 bf 0a a0 c8 9d bb 7c 98 3f
       -0.01197181929086678 0.02391331816230039
000500 82 83 58 0a ac 41 93 3f fb 7c d7 5f b2 28 72 bf
       0.018805206424193262 -0.004433342719010409
000510 02 f8 51 d9 dc 8b a2 3f d3 cf 05 77 9a 83 87 3f
       0.036223317650168965 0.011481482274326915
000520 81 6c 67 48 82 77 47 bf 5c bd 3f 0e 13 4d 97 3f
       -0.0007161508700010006 0.022754953140915787
000530 91 af e9 57 2a f1 8b 3f 15 51 6d d0 ff 4d 76 bf
       0.013643580253493133 -0.005445479654401693
000540 74 b1 7b b1 d5 5f 89 3f 41 8d 97 f1 89 4d 96 bf
       0.01238982150922461 -0.021780162211041846
000550 5e 46 31 b6 a4 9e 80 3f 99 97 0f 1e a0 e9 7b bf
       0.008115088281701318 -0.00681459947461418
000560 b7 b7 34 a1 6c 3f a3 bf be 05 c0 da f3 d6 9f 3f
       -0.03759326427312664 0.03109341642994478
000570 7a 16 c8 51 32 3d 6d bf 43 57 12 07 12 ce 7e 3f
       -0.003569219856447256 0.007520742817311024
000580 16 6e ab 16 22 27 9d 3f de bf 50 18 ea bb a1 bf
       0.02846959365238718 -0.03463679835147081
000590 66 5c c7 26 1f d4 95 3f 10 99 f5 c7 88 c8 99 3f
       0.02131699251353005 0.025179040150214382
0005a0 c3 b7 bf 07 05 1e 96 3f b4 89 0d c4 b9 35 83 3f
       0.02159889087481993 0.009379817290839344
0005b0 b6 69 88 be 60 9c 99 bf 18 b0 56 fd a5 53 97 bf
       -0.025010596875384393 -0.02278003081089261
0005c0 e7 a4 76 59 94 71 94 3f 33 9e b0 9a 7c ed 6d bf
       0.019964521370330692 -0.0036532815625099023
0005d0 53 a9 39 78 3a 80 95 3f 49 fa 74 36 24 26 9d bf
       0.020996965015379242 -0.028465810607708062
0005e0 9b 3a 8f bd ba c1 90 bf f2 b0 b6 25 18 56 8e bf
       -0.01636401922206208 -0.014812649393967512
0005f0 4a 54 0b ba 0a 47 64 bf 6b fd 66 b7 04 cb a2 3f
       -0.002475281668334027 0.036705157649971586
000600 87 1b 0e f9 39 5d 9a bf 85 03 3b 8c 70 fd 92 3f
       -0.025746255708806422 0.018544920500747537
000610 09 cc 03 c3 25 17 96 bf 68 a2 b4 75 c3 a8 80 bf
       -0.021572675731430766 -0.008134390859212817
000620 8a 70 3d 55 79 5c a7 bf bd 0d 42 b6 49 d8 80 bf
       -0.045627395301125764 -0.008225036501477651
000630 4a 05 78 74 61 76 92 bf 42 96 1f d4 54 f7 68 3f
       -0.018029711469357758 0.0030476242836694764
000640 3e f6 87 75 ed f0 98 3f a2 a8 4a 5b 6e 3b 83 3f
       0.024356565760163422 0.009390699540137885
000650 15 d7 2b b2 78 6e 92 3f ce 55 f1 68 17 97 a6 bf
       0.017999540209493754 -0.04412148624457367
000660 45 14 19 ed e9 12 84 3f a1 12 77 2b a9 99 89 3f
       0.009801700161128699 0.012500116003942909
000670 b4 5c a3 c7 48 88 8d bf 61 19 81 f7 e5 c6 45 bf
       -0.014420097916099862 -0.0006645796665985354
000680 05 65 4b c5 13 ff 99 3f 3c 41 7b eb e7 ba 95 3f
       0.025387104908849007 0.021220802066467245
000690 bd d9 98 49 31 c4 87 3f 60 ad 7a 25 20 27 9b 3f
       0.011604676302437217 0.026516439712094608
0006a0 ee 07 05 7f 34 c3 62 bf fa d7 c5 f8 9e 49 98 3f
       -0.0022903466525869753 0.0237183417643436
0006b0 c4 3c cb ec 92 a3 a0 3f 96 23 0b 54 1e 50 40 bf
       0.03249797001409996 -0.000497832115876939
0006c0 ad 35 e8 6a 51 5c 8b 3f 0e 4d 0d cc 64 db 72 bf
       0.013359676432652312 -0.0046037614236695956
0006d0 77 f3 cc 19 0f cc 81 bf 94 7d 60 33 2d 26 92 3f
       -0.0086899928806987 0.01772375703887759
0006e0 5a db 7d f0 ff 57 8c 3f 24 5f ad 57 e8 42 54 bf
       0.013839721228334479 -0.0012366551370259294
0006f0 da 4b 0a 79 15 8c 70 bf e1 a8 7f e1 df 24 a9 3f
       -0.004039844396760162 0.04910945537251777
000700 3b 5c 1c d6 0f c3 a2 3f 29 28 32 98 ae 06 74 bf
       0.036644453894205196 -0.004889184961152573
000710 28 bd ea b2 93 57 92 3f 9d 39 f7 a9 17 23 9a 3f
       0.017912204547141958 0.025524492024311497
000720 c6 79 3f 1a 67 2d 8a bf a4 c2 e0 f7 6c 75 73 3f
       -0.012781911362193987 0.004750657708470971
000730 23 e3 77 27 bd d8 94 3f 07 32 7d 9b 3b 19 8e 3f
       0.020358043226198618 0.014696565325402323
000740 a8 df 1d 46 aa 74 8b 3f f2 e7 33 82 3e ff 59 3f
       0.0134061148307721 0.0015867338595953987
000750 22 a2 6f 45 6c 26 6d 3f cb 84 c5 4c b0 17 76 bf
       0.003558360545401721 -0.00539368502754307
000760 2e 20 22 a6 7a cb 61 bf e9 7a 65 4e 4e 40 9a bf
       -0.0021722217071023153 -0.02563593247884458
000770 90 ec d8 df b4 da 72 3f a4 18 99 c4 4d cc 85 3f
       0.0046031060606380875 0.010643584787555511
000780 69 af da 43 30 28 84 3f 96 5e 3d d3 11 03 aa 3f
       0.009842278547999421 0.05080466941461485
000790 0b 94 e2 4c 76 8b a3 bf e8 12 a2 c8 7a 50 60 3f
       -0.038173386464485835 0.001991500675162395
0007a0 d4 a6 a3 0d 52 3f 78 bf 1f 56 fc 8a 73 ec 96 3f
       -0.005919762154215486 0.022386365278256656
0007b0 85 0b 84 23 1a af 93 bf 56 3a f2 05 02 27 90 bf
       -0.019222649018967104 -0.01577380334179631
0007c0 e3 4c 17 77 b0 3d 94 bf 29 6c 1f d6 84 ce 66 3f
       -0.019766576069582775 0.002784022756697553
0007d0 53 1f ac 70 24 30 93 bf ec 88 b2 26 73 ee a0 3f
       -0.018738335968947094 0.033069227670482565
0007e0 2e dc 59 a0 24 f2 86 3f 80 e8 7e 3e c3 1a 69 bf
       0.011204038756870895 -0.0030645192491337014
0007f0 73 c6 94 a9 98 91 85 bf 94 93 34 41 23 c0 63 3f
       -0.010531609225469673 0.0024109543388867814
