weights/w_10_104.npy (npy, 8448 bytes, 1 tensors)

array f8 [10, 104]
000000 15 d5 dd 23 66 e1 c4 bf f8 6c 9e c4 7f b8 b2 3f
       -0.16312863112731493 0.07312773275627993
000010 6b 29 16 79 54 b7 b7 3f c6 72 7a 81 ba 80 b7 3f
       0.09264114338126254 0.09180799161044736
000020 05 e5 a2 c1 3c 41 a1 bf 71 17 ff b6 76 00 c0 bf
       -0.033700846326107516 -0.12501415191053014
000030 a2 d1 5c b9 a4 84 b9 bf cd dd c3 8a 0e a5 99 3f
       -0.09968022847608052 0.02504370424227691
000040 2b 19 82 de 4c d0 ab 3f fd 55 d8 23 6d 89 c0 3f
       0.05432357994236477 0.12919391870734379
000050 fd 35 7e 6f 89 b5 c3 3f 66 c2 b8 b0 a5 92 b6 3f
       0.15397756523127262 0.08817515911574389
000060 04 0c 81 00 2a 21 6c 3f 50 e9 bc 87 70 74 9b 3f
       0.0034337826109847053 0.02681136921385391
000070 c3 8a a1 09 f0 62 98 bf 58 62 c8 11 87 54 bb 3f
       -0.02381491717131713 0.10675853904866395
000080 1b c7 09 94 23 cb ae 3f 62 17 57 6a d9 5e 96 3f
       0.06014357740504136 0.02184619628476215
000090 40 2c 04 ca f3 43 c0 bf 86 90 d0 e6 17 1e bb 3f
       -0.12707373966290625 0.10592793831944122
0000a0 34 57 e7 4f 9e c7 c3 bf b6 83 fd 45 ed e9 bf 3f
       -0.1545293703226719 0.12466319044825877
0000b0 ac a4 fa 08 a9 82 b9 3f c9 7d 88 a1 33 8f c4 bf
       0.0996499678536959 -0.16062016856538566
0000c0 8f 5f ec 3c 1e 17 74 bf 42 68 7c 08 d7 14 c0 bf
       -0.004904859654537476 -0.1256359855113392
0000d0 83 2a d7 e6 9f f9 8d bf 20 c4 f5 be 72 c4 ac 3f
       -0.014636277420227778 0.05618628102354983
0000e0 05 c1 be 5e 22 52 8c bf 3c b9 ac 08 00 ab c1 bf
       -0.0138285336650772 -0.13803100989884765
0000f0 70 ae c7 e9 db 07 9b 3f b1 98 ee d4 51 e4 9a 3f
       0.026397167342948114 0.026261595364893867
000100 5d e0 11 c3 68 94 66 bf 35 ca e9 ed fe 13 bb bf
       -0.0027563139088293957 -0.10577386196545364
000110 6a ec 39 ad ed 1f a2 bf bc f8 bf f3 23 d4 9b 3f
       -0.035399844547065865 0.02717643904906518
000120 62 92 0e b8 89 11 90 bf 8f d1 7d 8a 18 5e cb 3f
       -0.015691902026122036 0.21380907785681955
000130 14 c4 05 96 e5 89 9a 3f 92 f8 26 6b 77 6d 95 bf
       0.025916659623764174 -0.020925393977215885
000140 ba 43 e7 cd c3 01 a9 3f 90 09 ff e8 e5 a3 bc bf
       0.04884158981770477 -0.11187588632950551
000150 ba 58 9d 55 68 cd a5 3f ab b4 13 b8 c7 f1 c4 3f
       0.04258276028728987 0.163628544694267
000160 71 89 10 26 b5 e5 b6 bf ce 96 fc 7c 38 f8 9e 3f
       -0.08944255999862151 0.030243761662083916
000170 33 e1 d5 a1 f5 df b3 3f a9 8d f6 74 a8 ef c5 bf
       0.07763610077916354 -0.1713762827977068
000180 58 df 48 8a 0d 3b c5 3f 96 51 f2 e1 0f 13 bb bf
       0.165864651223951 -0.10575961366914152
000190 24 e5 9a 48 90 5c a1 bf 73 88 0f 9d b2 b9 a3 3f
       -0.03390932928364013 0.03852613608593538
0001a0 53 fe 22 c8 0d 1b 98 bf 88 2a 13 2b 90 cd b4 3f
       -0.023540702190756168 0.08126164485580933
0001b0 fe 8d 7b 44 3b 48 8f 3f 9c c9 32 5d df 85 ad 3f
       0.015274489428924728 0.057661991240269134
0001c0 d9 5b 74 ca 4e 14 7f 3f 49 23 9b 9a 9a 11 c3 3f
       0.007587726380072512 0.14897472905274814
0001d0 54 e2 ac ba 00 1c ca bf fa 85 c6 b4 c9 dd a2 3f
       -0.20397957911497377 0.03684835750324207
0001e0 f1 ae 97 9c 72 27 9f bf e0 fe 83 de e2 d8 b8 bf
       -0.03042391854061938 -0.09705942089567143
0001f0 06 67 71 0c 17 07 b5 bf f9 67 3c c0 6f a3 ad bf
       -0.08213943532737397 -0.05788754674559011
000200 de 94 16 40 bd f8 ad 3f 97 5b 8e 47 ae 37 b7 bf
       0.058538354943530754 -0.09069337126707776
000210 e4 a0 3a 78 54 e9 90 bf 1a a7 79 55 78 86 9c 3f
       -0.01651508315868079 0.02785671254824882
000220 df 62 6b 58 e9 f1 bd bf 5c 66 12 6c c5 d1 bc 3f
       -0.116972526633059 0.11257585419152732
000230 dc 00 32 8b b9 5e cf 3f 24 5b b7 e2 7d 76 b1 bf
       0.2450782708801914 -0.06821429047645872
000240 4b a9 c7 e3 54 d2 b7 3f bc 2a 78 e4 f6 0b a0 bf
       0.09305315552743314 -0.03134128130849009
000250 f0 d5 d5 b1 3b a3 ab 3f 4b 33 89 67 b7 d4 92 bf
       0.0539797453483678 -0.0183895737593958
000260 e3 70 65 8e 97 9c cc 3f 5a f4 e2 ad 54 ce a0 bf
       0.223528809098645 -0.0328241789115757
000270 64 08 40 04 d4 91 b4 3f a7 05 b9 78 d7 78 af 3f
       0.08035016158831493 0.061468823897040274
000280 db 87 c0 37 7b 15 bc bf cc 88 a9 d6 1b fc cb bf
       -0.10970277892241091 -0.21863124829821456
000290 6e 30 56 2e b7 01 ae 3f 7c a5 e3 d3 5b e1 b5 3f
       0.0586068386138273 0.08546995089604609
0002a0 80 5b ad 0f 83 cf ab bf fb 4f fe d2 ec 68 b0 bf
       -0.054317565597265194 -0.06410102988439796
0002b0 ab f8 3c 7a c0 4e b9 3f 2c 65 1d 3c 82 18 b6 3f
       0.09885790809946353 0.0863114735378942
0002c0 fd 52 f3 32 f4 c3 b8 3f 61 07 03 8d 1b 17 9b 3f
       0.09674001926334692 0.026455336076430472
0002d0 80 a3 21 e9 53 6c b4 bf d9 bc 31 a5 56 8e bf bf
       -0.07977795068440052 -0.12326566250861805
0002e0 11 05 91 6f d8 d1 c9 bf e1 2f 17 63 49 e9 77 bf
       -0.20171647498686032 -0.0058377138788720815
0002f0 48 a2 93 bb 8b dc c8 3f 33 75 97 91 5f c3 a8 3f
       0.1942305246259528 0.048365580103317284
000300 e9 bd 10 de 15 87 80 bf ac 34 c2 7c 41 b3 c3 bf
       -0.00807015499057591 -0.15390795318345363
000310 4f fe 56 12 1e 4e b1 bf 62 fc 9e f3 e3 60 40 3f
       -0.06759822795628988 0.0004998314900531815
000320 22 8f 0d dc 93 07 97 bf 6b 2c 18 f3 a8 88 b7 3f
       -0.022489843660323257 0.09192901549265435
000330 64 a3 af c3 e7 6f 90 bf c4 89 e1 f4 b0 03 b2 3f
       -0.016051884955149545 0.07036882380047077
000340 f4 22 d7 3f 82 5e 87 bf a6 5c 7f b6 cc 69 93 bf
       -0.011410729954961486 -0.0189582811725272
000350 a9 37 cf a5 eb 19 c0 3f 8a 9e 86 28 5f 3b b3 bf
       0.12579103084720814 -0.07512469043160244
000360 a3 36 a8 48 da f4 9c bf 04 a7 09 3c ed 87 c0 bf
       -0.02827778881515165 -0.1291481536057334
000370 2d f2 de 41 00 cb 83 3f a9 6f 58 c8 45 5a bb 3f
       0.009664537439555943 0.10684620038267546
000380 14 96 28 1b 4c 6d b1 3f ea 3a bf 1f bf c5 b2 3f
       0.06807399428415578 0.07332987332413735
000390 6c e0 09 9e 83 ee ba 3f 38 84 90 10 e6 fa af 3f
       0.10520193680156503 0.062461080095325305
0003a0 0f b4 f3 5c 80 64 b3 3f 70 32 59 2c 8d a6 a4 3f
       0.07575227994284738 0.040333186782480435
0003b0 5b 2a 8c ac 18 f2 b8 bf 65 87 81 4a ef e8 aa 3f
       -0.09744409763895005 0.05255840095993739
0003c0 c4 f6 77 54 f0 30 b8 3f f6 e8 89 65 8a cf b6 bf
       0.09449674665662672 -0.08910431841823993
0003d0 ba 2c 00 6c 53 24 98 3f 25 ab af 08 6e b1 bb 3f
       0.023576072184408693 0.10817611419740254
0003e0 de 16 9c 98 79 1a a3 bf ad 71 a7 e6 cb e4 c0 bf
       -0.037311363104931536 -0.13198231470495383
0003f0 b0 a2 1d 4d 09 2e 79 3f 4a e8 c9 97 1d 61 c4 3f
       0.006147419293349429 0.15921373282964374
000400 de f2 4c 44 44 59 b7 bf 9f 8e 30 67 1b 90 85 bf
       -0.09120585124487543 -0.010528768622015959
000410 c0 05 5c c2 2c 35 b3 bf 0d 09 bb 39 7c 5c a2 bf
       -0.07503013367752143 -0.03586185650557825
000420 9b c4 5e cf 68 04 98 3f f7 1d ab 89 85 e2 c2 3f
       0.023454320580360215 0.14753789159861672
000430 23 1d fe 1f 09 54 b2 bf f8 c2 62 c6 ba 1f b2 bf
       -0.0715947821719181 -0.07079665511515632
000440 e9 51 d6 1f 7a 50 b6 bf 71 ca 9b 1e 4d f9 bb bf
       -0.08716548230433542 -0.10927278516082041
000450 23 78 05 0a 05 a0 c3 bf f7 90 0d 88 69 c5 b5 bf
       -0.1533209132130092 -0.0850435216103199
000460 89 6a 7f f7 45 a6 85 bf b1 04 a3 2e e2 b8 70 3f
       -0.010571047416239725 0.004082568668480822
000470 5f 93 f4 62 4c fc bd 3f 90 c7 f6 c6 35 03 b5 bf
       0.11713101783659628 -0.08208023173827272
000480 89 c9 d5 d6 6f f2 b3 bf 70 5c b4 a3 30 5b b3 bf
       -0.07791804308889118 -0.07561019894306908
000490 40 35 cf 76 60 06 94 3f b0 8a 4b 3a 39 36 90 bf
       0.019555575610685993 -0.015831846411752337
0004a0 d5 7e cf 3b 91 e0 b3 3f c1 a3 38 61 b0 2e b4 bf
       0.07764537534921641 -0.07883741735044138
0004b0 19 27 1b 9c 51 5b b7 3f 76 82 e8 7b da 1a b8 3f
       0.09123716412718998 0.09415975117782147
0004c0 13 97 63 c7 bf d9 9a bf 21 ea 32 c1 cb d7 af bf
       -0.026221272034397346 -0.06219326718697383
0004d0 46 71 d4 0c a0 88 92 3f 5b d7 af 32 5b 3e b4 bf
       0.018099308760711773 -0.07907648074600841
0004e0 9c 31 c7 f0 b6 79 c9 3f 41 aa 2e 59 60 d3 8c 3f
       0.19902693516486358 0.014075043412806855
0004f0 04 e1 19 6b 4b 44 b4 3f ed 84 8e 08 06 34 c0 bf
       0.07916709294102381 -0.1265876333027686
000500 b9 f6 77 27 4f 63 c6 bf c2 6d d8 33 b1 93 b1 3f
       -0.17490567614725253 0.06865985408551636
000510 bb 2d 13 ed 42 63 aa 3f bf 4a b0 57 db 73 b3 bf
       0.051538554611024044 -0.07598658457599593
000520 30 e9 53 f5 9f fd ac bf 47 89 59 2e c0 63 b1 bf
       -0.056622503945577995 -0.06792832500062672
000530 cd 65 28 3b 8b 4e 97 3f a2 8e 3d e9 ac a0 b7 3f
       0.022760558591562053 0.09229546255442725
000540 2f a5 ea b5 47 c1 c3 bf 4c f9 84 82 e9 7c a8 3f
       -0.15433594114919333 0.04782800405745266
000550 e1 90 86 49 61 5b b6 bf 2d f1 41 59 45 28 ab bf
       -0.0873318485742547 -0.053041617532445386
000560 99 b9 65 80 a0 69 90 bf 62 50 ae ed e0 68 c1 bf
       -0.016027934872391823 -0.13601314168465978
000570 c7 1d a2 7a fb 2e d2 3f f3 2e 40 58 72 02 cf 3f
       0.2841175744619843 0.242262166110201
000580 08 70 03 4a 49 3d b3 3f 40 75 bb 9e 15 c7 b0 3f
       0.07515390450447523 0.06553778767871155
000590 3d ee a5 69 c2 b0 ba bf 01 8d 03 65 87 66 ce 3f
       -0.10425963477421703 0.23750393326108823
0005a0 8c a1 5a a2 5a fb 5d 3f af 13 da 8c 31 3f 89 bf
       0.001829947004276719 -0.012327563391645173
0005b0 7a d2 2b ae d3 ca be 3f de dc fd 54 13 ae 9a 3f
       0.12028239252306064 0.02605467039344666
0005c0 4e 88 d0 e3 9a dc b3 bf d4 13 a9 98 51 65 96 bf
       -0.07758491575126067 -0.021870875303893048
0005d0 00 23 47 87 a4 3c a3 bf 3c ca 81 f7 0d 75 7a 3f
       -0.03757204200116426 0.006459288175494179
0005e0 5c 08 ff 63 53 5c ac 3f 68 ca cd 95 31 40 ab 3f
       0.05539188953072546 0.0532241340032627
0005f0 c2 79 5a dd a2 a3 c0 3f 0d 9a d7 ab 1c dd 3a bf
       0.1299937802150009 -0.00040990781766794896
000600 15 95 46 b8 b2 80 b8 3f ad 66 1a e6 f4 d2 c5 3f
       0.09571377753180273 0.17050038562301975
000610 c9 05 6b 5a 0e 5b bf bf 4e ce d1 a0 5d 39 b2 3f
       -0.12248315532180877 0.07118783165224693
000620 b3 ed 32 fb ce 6c bb bf e3 63 7a 77 96 45 c3 bf
       -0.1071290362623845 -0.15056114992037725
000630 03 d7 27 78 93 43 c4 3f 4d 45 06 4a 47 0a bd 3f
       0.15831225745176178 0.11343808705557486
000640 79 c4 23 20 4a c5 aa 3f 93 fe d5 8a 29 65 a8 bf
       0.0522864498360684 -0.04764680690550196
000650 3c 53 2d 44 15 3a c3 3f 5b e0 28 42 95 7b c1 bf
       0.15021005467374404 -0.13658395510151675
000660 88 15 da 72 cb 93 7b 3f f4 dd 8d 2b 24 d1 a8 3f
       0.006732744904757289 0.04847062141100969
000670 94 05 61 67 8f 75 c0 3f 8e cd dd 6b f0 84 c3 bf
       0.12858765170862496 -0.15249448077120714
000680 52 00 d7 2d 35 74 d2 bf 6c 4a 49 d0 fd 3b 86 3f
       -0.28834275700137824 0.010856612128155883
000690 5b c0 d2 ca 67 96 9e 3f 79 90 1a 0d 68 bc 90 3f
       0.02987062621531354 0.016343713569441285
0006a0 12 86 a7 1c 0f 22 b5 bf 85 a1 b4 39 7f 05 71 bf
       -0.08255094956941658 -0.004155632948176784
0006b0 68 ed 3a e7 e6 8c c2 bf 26 34 f1 5f ac 43 a4 3f
       -0.1449249867490423 0.03957880660218675
0006c0 8a d4 14 f0 ab 80 b5 3f e0 2f 12 63 81 a2 b1 bf
       0.08399462329255605 -0.06888588589407574
0006d0 35 30 e3 3c 3e 23 c8 bf e6 a6 98 99 00 03 89 bf
       -0.1885755345632575 -0.012212757766139015
0006e0 f6 98 18 18 ad 20 93 bf dc 03 e6 79 c4 11 7f bf
       -0.018679337115963222 -0.007585303769133991
0006f0 92 d3 a2 e2 43 67 bf 3f 8f 53 3f 3d d8 b5 8a 3f
       0.12266945155245271 0.013042153710481034
000700 3f f5 8e 2a 7c 1a c9 3f 44 4f b0 3a 28 58 a2 3f
       0.19612075880096744 0.03582883564391051
000710 65 1d f6 f6 10 31 ba bf 20 fa ab 32 18 4f bb 3f
       -0.10231119183855737 0.10667563664535651
000720 13 7b f1 2e 4b 69 81 bf ed 8c a5 15 96 8c a7 bf
       -0.008501613016219467 -0.04599446310273856
000730 87 21 c5 16 5f ec 9a 3f 57 7e da 2d 0e 1f 86 3f
       0.026292310490391848 0.010801420950257752
000740 75 68 69 81 fe c5 c2 bf 24 ba d7 b6 0e 77 b4 bf
       -0.14666730231221306 -0.07994167293484417
000750 e4 f9 ce c6 86 c0 bb 3f bd b6 e5 fd d9 f3 90 3f
       0.10840647081111104 0.016555219766295027
000760 45 8f a7 a8 5d c9 ae 3f d4 1b 04 24 5f 93 b8 3f
       0.06013004955073468 0.09599871281908118
000770 62 c7 01 0b 9a 97 c5 3f f3 f5 ff b6 ba ca ae bf
       0.16868901765297567 -0.06014045223126265
000780 82 e4 af 4a e6 f1 b0 bf d9 f0 3d 51 88 45 b6 bf
       -0.06619109462180187 -0.08699848159261893
000790 80 1c d8 31 10 ee ac bf d9 30 0e dc 00 fc b5 bf
       -0.05650377853822253 -0.08587651607939807
0007a0 9f fd c8 ae b1 20 57 bf 81 66 6c 38 d9 db 84 bf
       -0.0014116034682415191 -0.010184952768713675
0007b0 3b f8 5a 81 18 01 ac 3f 5d e1 f3 fd d9 ae bc bf
       0.05469585970921328 -0.11204302263275197
0007c0 02 73 92 2c 63 80 af bf 02 6c 6d 0a a8 51 a1 3f
       -0.06152639311878795 0.03382611396110492
0007d0 6b 79 7d b8 9f d4 b0 3f a7 e8 56 59 64 e7 cb bf
       0.06574438337472592 -0.21799902307777083
0007e0 b9 06 02 ae 0b 02 ad bf 3b c7 0b c6 65 70 98 bf
       -0.0566562318717962 -0.023866262638825502
0007f0 f4 c2 72 3e fd 95 c8 bf f4 e7 c8 80 59 9e a5 3f
       -0.19207730817063118 0.0422237367351527
