weights/w_10_4642.npy (npy, 371488 bytes, 1 tensors)

array f8 [10, 4642]
00000000: 4d6c 1a63 0062 90bf e96d 03f6 ace3 9bbf
00000010: e0d9 24a1 3ca5 95bf a174 d6df 505f 8f3f
00000020: 2819 1def 1ee9 96bf 3476 fac4 f17b a43f
00000030: 4219 6789 0bb9 8c3f 594f d3c9 73ec 7b3f
00000040: b984 3f76 8bdd 933f c13e 8560 ddd6 5e3f
00000050: 0018 0d8a 2e57 79bf b7a1 8ee0 1a12 8ebf
00000060: f35e 78d3 83f3 8b3f 4515 516d 9769 90bf
00000070: 434d 57b0 423b 893f 94dc d6ec b9e6 24bf
00000080: abd0 e692 e50c 933f 975f e75e 8c29 713f
00000090: 20cb d2d8 8f37 80bf 08b2 2362 43e8 753f
000000a0: 1640 72c5 71ef 713f 7758 777f 7aa6 933f
000000b0: 06ba c964 f3f8 6d3f 59fe 3960 1304 77bf
000000c0: f607 de95 3e9e 613f 0ee0 a99a c0fb 7abf
000000d0: d0c9 a978 0ee4 85bf 6eb9 bdf8 7e4b 90bf
000000e0: 452f 608a f7a4 883f aae4 fa96 b424 7c3f
000000f0: 7c76 ca8e ae9c 81bf 659f 33b6 6ef6 86bf
00000100: ef5d c010 e4d2 833f 9371 f082 df1a 673f
00000110: 6e46 20cb e396 6bbf b0d6 793d 1864 763f
00000120: 12a1 e956 728a 733f 7f83 f519 58f9 543f
00000130: d25b ac6b 28ec 82bf aea9 b620 fd0b 8fbf
00000140: 7698 ff79 6c3d 91bf 9b78 00a9 b232 953f
00000150: 9d83 941c 1913 93bf 82b9 96ed 3f21 9bbf
00000160: 06f2 4a11 abd2 973f 6769 bce5 d930 81bf
00000170: 0c06 c460 76e7 9c3f f330 ea63 695d 823f
00000180: 6c67 0385 cb93 92bf 70ea 6625 8ef6 733f
00000190: c54f f852 a7b1 933f 2367 1652 c195 74bf
000001a0: beca 26eb a467 9bbf 43ae 0a00 d3b2 553f
000001b0: b850 32e3 47e9 733f 6809 4cc8 9c1f 9a3f
000001c0: 5535 6470 c2ab 74bf 5005 8824 01b0 76bf
000001d0: f365 3e76 a6fb 86bf 693e bf19 5962 993f
000001e0: 079c fbcc 5669 7cbf b4a4 d1e2 3f05 a03f
000001f0: b526 411a 0440 573f 0576 35f0 887e 783f
00000200: e69c 89c7 1b25 a43f e3a6 4950 21e2 6a3f
00000210: 7163 a029 b13a 99bf f83b c3f6 c8d7 903f
00000220: 8722 de4b 5f78 663f 7a68 9806 a70f 623f
00000230: e934 afd1 eb66 a33f 59cb 11c6 42f6 833f
00000240: 70ca 9916 cf97 a03f c525 4ea6 2055 94bf
00000250: 4caf bf12 cf75 8c3f 6a40 935b 17a4 8c3f
00000260: e901 cfb8 aa8d 8c3f 3c2a 41a2 239c 663f
00000270: 50b1 c638 1211 68bf a807 3331 7a99 843f
00000280: 1fa9 e1ea 737b 96bf 5ec1 048a bb16 87bf
00000290: 32b1 f8f6 4914 853f 3518 2b4a 8891 733f
000002a0: 9c43 131e fb62 973f 3714 1c25 4f78 933f
000002b0: b787 17ff a7ac 943f 1e6c 2ffc 6a1e 83bf
000002c0: a30e 06d3 d265 523f a89b 8bca c413 663f
000002d0: 849f cdce fdeb 653f 0a26 954f e729 96bf
000002e0: bc73 b297 f109 6d3f 812f ab2d 71a5 7a3f
000002f0: 7140 c137 6984 613f c611 4d83 ffa1 603f
00000300: cf6e a496 c763 8cbf 1318 f741 2754 74bf
00000310: 2d42 3b01 8a58 923f 7c14 17bb cf08 843f
00000320: 9360 622f 93f1 873f 808d 8a4a a2d1 86bf
00000330: 70c0 54a4 504a 843f 15d4 9ee9 9662 82bf
00000340: cdf0 3ba6 26b0 7a3f 45fe b64b 6968 a0bf
00000350: bca9 3150 6d0e 85bf ca90 c762 a294 63bf
00000360: 5cdf 8097 a67c 9b3f 9546 ab29 c308 8b3f
00000370: 8ff5 d7a3 fc2b 7d3f b6f5 cb14 798c 7c3f
00000380: 62ca a780 1195 853f c305 e4b0 c3d6 923f
00000390: beb1 fb6e c92a 5fbf b160 fc8a 25c8 963f
000003a0: 009c 3bd3 8ed5 76bf 01ca 8bad 5d14 7ebf
000003b0: 0bec edd7 b373 97bf 501c 529e 480b 88bf
000003c0: 4f2a 5abb ecc2 92bf 8bf3 08fe 661e 693f
000003d0: b40b 45c4 ebfe 673f 1dbb 7ca7 47bc 613f
000003e0: 67aa d6a8 431f 7ebf 6945 cd1a 294d 5cbf
000003f0: c22d e3a1 c032 3f3f a617 bca4 8378 93bf
00000400: 085b 343d 67cf 883f b11b b0cf 3a09 97bf
00000410: ff5e 10f5 b58d 89bf af4a b002 99b8 8ebf
00000420: b061 2c9d 5f61 96bf 00e9 c1c1 a36f 53bf
00000430: 620c 568a c275 96bf 453e fd55 3132 9e3f
00000440: 1f02 1720 9df2 9d3f 5a70 1ddd cb7b 87bf
00000450: 2cc0 9e13 2878 8b3f 35c6 db94 ce0c 493f
00000460: e593 1c0d 6bcc 813f 5d27 1ae9 57ae 5b3f
00000470: 11d3 44c7 1983 8a3f a2da 9e4a b3cc 5fbf
00000480: 60dd 1dc8 c792 61bf 260c 42b7 f25e 9cbf
00000490: e998 26ea 75f5 513f ef2d fa2b 2a06 8a3f
000004a0: be70 a35c 298b 64bf 0b08 2fd2 3e94 99bf
000004b0: ad3c 3dd4 c4b6 84bf 1611 98bf 9f09 9a3f
000004c0: 8d6b dd76 170b 75bf a5ec 54c6 f6a1 97bf
000004d0: 9c9d 25ea 35bc 673f 7e6a c0c8 e29e 703f
000004e0: 9a59 8018 21ec 7b3f d000 6600 80d2 78bf
000004f0: a6c6 278b 1a23 a73f 13b5 45cf 18f4 51bf
00000500: ecaa fc70 bc2a 7fbf 244c 7914 0b20 86bf
00000510: 04e2 7709 a25f 8dbf 3d7c 1d5e ca98 6e3f
00000520: 9a07 ba9c 4a5b 89bf b15b e7be cebe 7ebf
00000530: e776 9874 88d1 8cbf e961 3501 25b1 81bf
00000540: fea5 135f 4bcd 86bf 3ad7 aa0b debd 5cbf
00000550: 4af9 0a51 2325 84bf fcd6 237c 7036 583f
00000560: edf4 5eb5 382d 91bf fa4e 95f8 ce99 813f
00000570: ad6f 776c e895 72bf 3774 c72d 8218 78bf
00000580: 6a0f ca5c b36b 9a3f e117 39c1 3801 923f
00000590: e1f3 55bf 3fae 933f 6066 c9eb 6d51 8abf
000005a0: 246c 1e14 5c7f a0bf e531 7eb9 eee1 833f
000005b0: 7f22 e3a2 76cd 803f 7a37 a8ea 7668 813f
000005c0: 49e7 d7bf 83f0 61bf 517e 7811 54c8 413f
000005d0: 8437 71aa bff1 7abf 1ccc d9ea 53c0 6e3f
000005e0: 8698 5089 81c6 72bf f3ac 77a8 b069 7b3f
000005f0: 1f60 666c 3745 933f c776 854c 6b6a 613f
00000600: 0d9b 51d9 8d14 6b3f 9455 4de1 3dc5 91bf
00000610: 58c3 60f6 c2fe 74bf 014d 353e 85ea 81bf
00000620: 8fb4 2f18 19a0 75bf 4e6e dbf1 2bc0 46bf
00000630: 7020 681e 9e60 843f f07a e14c 5f50 73bf
00000640: a2b4 4b2d fff0 36bf c8e6 a769 3159 95bf
00000650: 4b29 78f3 0d55 7bbf 66ac 1cc5 bf95 66bf
00000660: cba3 44fd 9e97 9cbf fd14 001d 188e 923f
00000670: 8ef2 c10e 368a 673f b1f6 b1d6 71bd 913f
00000680: 6c00 b036 629c 663f 5e2b 3fcc d9ad 66bf
00000690: c6e8 6531 b0ba 86bf 4c3e 1bb9 0e5c 863f
000006a0: e99f e3cc bde1 903f 8dbc 101b 3d84 8d3f
000006b0: 359c 28cc 16ba 133f fdd6 34b2 a9c9 7dbf
000006c0: ef35 a91b 39d4 813f 9438 473e 263c 7dbf
000006d0: 1730 5af3 24ef 8c3f 7597 feb0 19e1 753f
000006e0: 4b71 71fb 31bf 73bf a1a1 bd20 1bed 703f
000006f0: 9f3b 50bc 0b51 943f 1238 d6ab 212f 84bf
00000700: 3526 5038 4f2b 8f3f d62f aa53 5493 8a3f
00000710: 2079 4b15 2530 94bf bbff 01d3 0dfb 773f
00000720: a83f 8650 a787 8bbf 4180 4494 5827 633f
00000730: 5aed 13f2 b2ee 8abf 43b8 a183 667b 823f
00000740: e2e7 090e 4735 93bf 24eb 6f21 45f2 a23f
00000750: 2a6f ba2c a0d7 913f b7cc 1599 9590 8e3f
00000760: 8db9 0c9e 49e8 afbf 8298 e3bc bfcf 8cbf
00000770: c8e8 ddb8 de83 88bf 7891 ac36 ffe6 8ebf
00000780: 00d2 1e2d 5a08 823f 6b0d 726b aa29 663f
00000790: fb58 561e 1a4f a03f e7f5 484b e985 663f
000007a0: beb0 431f 1662 823f 533c 79c5 7188 7b3f
000007b0: 57eb f9f4 4489 96bf aec6 0d0a f7ac 8f3f
000007c0: 324e d4e9 f255 a7bf aa70 1936 09b9 7abf
000007d0: 4db3 446c 1c22 99bf ab41 d2a5 5e07 75bf
000007e0: b459 f238 d6e6 403f 80d5 570d 9727 8c3f
000007f0: a2cd 4cd5 6e54 883f 5560 6baa 6985 9b3f
-0.015998846100597586 -0.027235701098886542 -0.021138140998312127 0.01531851943109991 -0.02237366041597358 0.04000812081833907 0.014024820452402612 0.006817295359002739
0.01939981374005548 0.001882282436856217 -0.006186658662789668 -0.014682970025959514 0.013648061648424447 -0.016027799651302094 0.01232006168985456 -0.00015946406931075365
0.018603884783900664 0.004190014193646527 -0.007918475918221868 0.00534845658897299 0.0043787426176465 0.019189752607268375 0.003658748033834816 -0.005619121253061709
0.002150652157923534 -0.0065877460098065065 -0.01068888955817196 -0.015912994319870526 0.012033399496452222 0.006870942524693261 -0.008599628193503898 -0.011212220130303494
0.009679586182797599 0.002820431276189869 -0.003367848309616054 0.005466551483200341 0.004770704878503078 0.0012801514020212843 -0.009239497934272398 -0.015159585533940891
-0.01683587545985473 0.02070120960717557 -0.018627540940659427 -0.02649402511240729 0.023264573030916245 -0.00839395744656164 0.028226709037886308 0.008967231141717913
-0.018141918176162106 0.004873805292329267 0.019232382239422714 -0.005025630148702639 -0.02676255879641575 0.001324373297545104 0.004861145792478698 0.02551121685520155
-0.00504661514993406 -0.005538944686578631 -0.01122217224456088 0.02478923053405283 -0.006936396661081374 0.031290050924164176 0.0014190712036161017 0.00598004809884634
0.039345615489588856 0.003281655374213753 -0.02463795486991977 0.01644815450782386 0.002742944837283826 0.002204729292100413 0.037894601198425644 0.009747049016572683
0.03240821028602603 -0.019855985784976733 0.013896577605883607 0.013984854204324122 0.013942083134566867 0.002759999844817144 -0.00293782767240295 0.010058359743542258
-0.021955310069111108 -0.011273827695362722 0.010292604302855144 0.004777462369650866 0.022838519774100882 0.019013630523677185 0.02018988127191054 -0.009335361310084219
0.001122909434429533 0.0026949733331664456 0.0026760060485919186 -0.02164422438844408 0.003544780598146306 0.006505434134577715 0.002138333800793695 0.0020303717123246494
-0.013862189564455644 -0.004963067388819925 0.017915874791301235 0.009782431504286253 0.01169123638491979 -0.01114203252774959 0.009907369627939228 -0.008977107052354364
0.006515646909744 -0.032046595089465536 -0.010281423578096908 -0.002390210304144079 0.02684269237235469 0.013200306615007743 0.007122027277998723 0.006969902967055066
0.010538231600525087 0.018397386237671186 -0.0019022910236642233 0.022247873886130424 -0.005574758444459427 -0.0073436412137533056 -0.02290230756214488 -0.011740271884504022
-0.018321703848906797 0.0030662547653989617 0.0029291729753437527 0.00216497416467777 -0.007354034705182678 -0.0017273808873209068 0.0004760475438955991 -0.01901441281281504
0.01211434035807947 -0.02249614613176804 -0.012477323094614244 -0.01500052966551854 -0.02185582539377301 -0.0011862849414954746 -0.021933593457572072 0.029488345025411773
0.029245810588465312 -0.011466591534990456 0.013412774180182017 0.0007644661615968164 0.008690677964816327 0.0016895159245983928 0.012945367234900059 -0.0019408942120954582
-0.002145185660022683 -0.02770594829099706 0.0010961200247066544 0.012707070796088763 -0.002507763657474709 -0.024979573801609017 -0.010114228941942771 0.025427337712259655
-0.005137530953869607 -0.023078780989845744 0.00289736299707828 0.004057775378920268 0.006816987304793543 -0.006060123449401725 0.04518969486879358 -0.0010957948953447857
-0.007609115695042173 -0.010803305208503096 -0.014342561639737468 0.003734965562145058 -0.012381155879896789 -0.007506187057933753 -0.01407152753659653 -0.008638657664662612
-0.01113375553036899 -0.0017542522825073196 -0.009836460028392797 0.0014778231130185273 -0.01677406889915727 0.008594147645147644 -0.004537494568889783 -0.0058827481375063806
0.02580147031632355 0.017582785409352545 0.019219394734580567 -0.012850626714839553 -0.03222167726126937 0.009708275829120214 0.008204390378879765 0.00850003150574329
-0.002189881632827549 0.0005426798333622672 -0.006578205770962135 0.0037538184176866395 -0.004583841325290666 0.006692590780839713 0.018818727484898653 0.002125939911066552
0.003305699394832279 -0.017353979946468437 -0.0051257720679565785 -0.008748093567794603 -0.00527963449984016 -0.0006942953657147006 0.009949908545437064 -0.004715320841653478
-0.0003500578871314474 -0.020848056863519898 -0.006672911163614191 -0.0027569528109743667 -0.0279221384127231 0.01812017132762821 0.0028735214055458152 0.017324236611321712
0.002760116408808291 -0.0027684453834572595 -0.011098267085561619 0.010917773269652951 0.01648613513034994 0.014412381542653807 7.525219101776964e-05 -0.007272398829902602
0.008705564648290724 -0.007137441051282906 0.01412800662662765 0.005341625554057807 -0.004821009867637403 0.004132371872266922 0.019840415352571857 -0.009855521256010778
0.015219324976004514 0.012976321032759513 -0.019714908051235658 0.005854658127759589 -0.013442332405958116 0.0023380975782316964 -0.013150594723348053 0.009024430172044023
-0.018757925254682457 0.03700462372940752 0.017424109201427708 0.014924210294998337 -0.06231908850019172 -0.014068124725280965 -0.011970272080123925 -0.015089029174824672
0.008804993154492458 0.0027054146299307267 0.03185350056007682 0.0027494007611312712 0.008976147488703009 0.0067219204134537245 -0.02200801606384614 0.015466623300855655
-0.0455776129184894 -0.006524120313397367 -0.024544185741592717 -0.005133981435520611 0.0005157991416975733 0.013747387022685187 0.011879793056869318 0.026876116777970378
