weights/w_10_4642.npy (npy, 371488 bytes, 1 tensors)

array f8 [10, 4642]
000000 e5 26 d3 49 aa 2c 91 3f 2e ff 7d 23 4c 67 70 3f
       0.01677194667426009 0.0040047620931316485
000010 c8 c5 89 28 85 c3 81 bf 00 1c 84 e9 61 a6 78 bf
       -0.008673706340433976 -0.006018049687788185
000020 a7 d8 a3 8f 6a 40 87 3f 29 d2 18 24 3d 75 9d bf
       0.011353333004518197 -0.02876754315203037
000030 91 62 3a f3 b7 1c 83 3f 11 9b 0d 64 e3 19 82 3f
       0.009332120046836397 0.008838440409545652
000040 ec 1e 11 57 4c f3 6e 3f f9 01 98 c6 e9 28 95 3f
       0.0037781229989696154 0.020663883920862578
000050 85 e0 b4 e4 21 1e 8a bf ca dc 1b d8 44 54 73 3f
       -0.012752785484380755 0.004719036982115907
000060 02 88 52 46 a7 ff 94 3f 8f 52 cc 97 2f ae 9e 3f
       0.020506490389955452 0.029961341514609215
000070 c4 25 c8 4d e5 0b 51 3f 24 48 23 44 e0 5e 6e 3f
       0.0010404338164583396 0.0037073497961524083
000080 44 d0 b3 79 a7 7d 8b 3f e2 d2 f8 64 9c 19 6d bf
       0.013423260118067167 -0.003552251298766116
000090 be 7a d5 79 51 f2 7b bf 8b a2 a2 f5 d1 f1 77 3f
       -0.006822889581001133 0.005845852045390241
0000a0 85 fd b5 fe 60 a6 9e 3f 8e 3b 10 e9 11 e6 80 3f
       0.029931560083694037 0.008251323628454956
0000b0 61 c2 17 5a d4 d2 78 3f eb b8 8f 79 e5 aa 96 bf
       0.006060437679011516 -0.022136292976875287
0000c0 cb 4f f0 15 4b 9c 70 3f c7 3b e9 06 c4 86 8e 3f
       0.0040553029093821176 0.014905482731732434
0000d0 e0 05 d7 9c 56 34 93 bf 40 2d fb ea 44 6b 90 bf
       -0.01875434238696083 -0.016034199564086693
0000e0 2f 90 9d 10 16 c4 7e 3f 5a 8a 34 d6 a6 a2 7b bf
       0.007511221114189267 -0.006746913629543794
0000f0 07 32 a9 d3 83 93 72 bf 7b 0a be 3e b6 27 58 bf
       -0.0045352124676125765 -0.0014743118035488712
000100 f8 c9 44 02 0d 0a 63 bf 76 68 fe 66 56 23 7c 3f
       -0.0023241285399759858 0.006869637974796663
000110 35 a4 f9 0c e7 64 97 bf 06 ac 76 e6 18 cb 87 3f
       -0.0228458501500521 0.01161784604376771
000120 74 d0 4c 21 68 51 8a bf 43 9b bc a9 0e cd 78 bf
       -0.012850583568799069 -0.006054932858922171
000130 09 f5 de 1e 37 03 93 bf 3f 57 b3 01 d9 56 9a bf
       -0.018566952952586955 -0.025721922615807854
000140 a9 a0 d8 3d cf 05 99 3f 5c 59 26 b0 9f a1 8b 3f
       0.024436224126617976 0.013491866648831667
000150 aa cb ac fe e5 86 79 3f a9 db 8b 16 b3 a8 85 3f
       0.006232164780885544 0.010575675130423639
000160 74 67 8c e2 c6 db 64 bf 91 2a 72 43 65 9c 9f 3f
       -0.002546204039742978 0.030870039216589765
000170 9a d3 9f 28 bf dd 88 bf de 6a f1 e1 3b 3b 63 3f
       -0.01214169829106897 0.002347580869849749
000180 93 6a 89 94 a3 02 9e bf 30 28 5f 1b 1d 1b 92 3f
       -0.029306941929784513 0.017681555553089534
000190 d9 ba 8e 56 e9 96 93 3f f7 c6 ec ba 19 3a 8e bf
       0.01913036909871377 -0.014759255425448965
0001a0 c7 3c c2 7b 7d ae 97 bf f7 fc 9f c1 74 89 93 3f
       -0.023126564673074747 0.01907904083054476
0001b0 05 3a 90 e7 a2 86 93 bf 71 07 52 88 47 50 83 bf
       -0.019068284400470165 -0.009430464599293949
0001c0 60 fd d7 2b 74 22 92 3f fa 91 ca e1 6c 91 a0 3f
       0.017709555793769538 0.032359507143414803
0001d0 d7 30 05 87 66 33 79 3f 5d 99 06 da 3b 38 a3 bf
       0.006152534959550779 -0.037538404812311944
0001e0 c4 a6 49 13 88 e4 88 3f ad 80 ec 10 0b 9e 7d bf
       0.012154639328588408 -0.007230799891459733
0001f0 59 5b 0e 40 7f ce 76 3f 58 c0 7b a7 43 f1 78 bf
       0.005568024703186258 -0.006089462541908196
000200 7a 7a e6 6d b0 79 83 bf fb 7b b2 2c 34 9f 7a 3f
       -0.009509447435275254 0.006499484831834042
000210 fb 08 84 94 3b 98 87 3f c8 f2 6f 8a 36 8c 8e 3f
       0.011520829648820277 0.014915872669001642
000220 3f 97 46 b6 8f b2 40 3f da 83 ab fc d7 53 91 3f
       0.0005095674246617734 0.01692140083003211
000230 a8 dc 72 66 3b 70 70 bf 66 12 f8 44 76 7c 6b bf
       -0.004013282806389608 -0.003355246539060541
000240 8b 1a ad 3b ac df 70 bf 70 b5 d2 ff dc 19 7b bf
       -0.004119560990892733 -0.006616462019491606
000250 b5 aa 0e 02 a2 e5 30 3f 08 e1 da 10 60 24 65 3f
       0.0002578278090889328 0.0025808216367658766
000260 b3 e6 e1 bb 33 0e 95 3f 41 cd aa 00 22 14 84 3f
       0.020561989157136206 0.009804025311814459
000270 0b bc f4 f1 06 70 0d bf b5 17 0d 2f ac 0b 63 3f
       -5.614777750861257e-05 0.002324901863548024
000280 31 94 6c 97 50 99 8e 3f b4 b1 87 57 68 5d 94 bf
       0.014940862294290454 -0.019887571661387063
000290 89 85 c6 ff c5 ce 90 bf cd fb 7d 53 8c e4 7b bf
       -0.01641377805356606 -0.006809757374752712
0002a0 b5 7b c0 38 b2 83 93 3f 7b 5c 50 57 c3 62 92 bf
       0.01905706855188401 -0.017954876140802583
0002b0 d4 76 f6 1e 41 76 82 bf db f2 d6 ea bb e3 91 3f
       -0.009014614827545321 0.017470298965906444
0002c0 86 7f a9 c9 65 21 aa bf 11 73 72 7b 1d 20 75 3f
       -0.051036053530650924 0.005157580532934928
0002d0 a0 b6 13 ac 0d 8d 91 bf 9a 15 cd ec b8 4c 96 bf
       -0.017139638545748626 -0.021777047589485933
0002e0 ab dd cb 66 99 10 1e bf 7f 27 e1 17 eb af 9b bf
       -0.0001146882656931555 -0.027038262684335287
0002f0 d5 d3 4f e3 af 4d 82 bf 6c 48 c3 cc a7 e6 87 3f
       -0.00893723881197587 0.01167040914188907
000300 7e 69 aa ae 79 24 80 3f dd 91 81 78 6a 13 89 3f
       0.007882071154473588 0.012244064142756745
000310 2e 0d 45 72 7a 32 92 3f cc 67 20 f7 34 7c 96 3f
       0.017770684456320733 0.021958186705979973
000320 f6 07 bd b3 04 c4 9b 3f c6 3f a1 d7 7f 0f 98 bf
       0.027114938230859274 -0.023496625457766894
000330 f5 35 f6 cb 6c e9 65 3f de 04 4d 35 d3 f4 89 3f
       0.0026747822700545717 0.012673997940171263
000340 41 a3 ba dd 24 4f 64 bf 9a 61 9d dc 60 ba 44 3f
       -0.0024791450540146147 0.0006325695951359567
000350 09 b0 94 bb 0c 01 6a 3f 84 e9 03 3d a8 b0 92 3f
       0.0031743286787300246 0.018252018665387407
000360 e5 00 01 72 54 33 4e bf 62 a8 dc 7f e6 97 7a bf
       -0.000921646340437146 -0.006492519749182165
000370 ec ec e1 c1 45 2f 5d bf e6 59 9b 5a 0d d5 8e 3f
       -0.0017812901710659258 0.015054802253342946
000380 4b 4b 31 73 29 23 61 bf f9 f4 df 7e 94 e3 7e bf
       -0.0020919618196243764 -0.007541256009060187
000390 e1 71 94 3c 8f 38 90 bf 80 f8 51 24 fe 80 92 3f
       -0.015840757439137824 0.01807019325905701
0003a0 d5 76 f1 92 f8 89 81 bf d8 0a 36 68 3e ce 65 bf
       -0.008563940033293896 -0.002661821259324664
0003b0 1a 25 a8 fb db 12 85 3f 3e 33 54 0e f4 9f 72 3f
       0.010289877526718661 0.004547074645654457
0003c0 41 a6 64 68 46 5d 93 3f df 8b 89 55 be 64 8c bf
       0.01891050350346846 -0.013864027963057466
0003d0 ac 2f 38 c0 49 2f 81 bf 2c 25 de a5 23 96 77 bf
       -0.008390976122448844 -0.005758418321314889
0003e0 02 82 a3 87 74 56 90 3f 67 0a d3 96 65 dc 72 3f
       0.01595480039475384 0.004604718048713075
0003f0 b6 7b f1 10 f0 f1 73 3f 0e 77 85 77 3c 0f 8d bf
       0.004869401701482914 -0.014189216992857048
000400 9c c4 17 93 eb 76 79 bf fd ce 3d 83 d1 25 91 3f
       -0.006216926778038669 0.016745828280774856
000410 a5 9f 66 0b 46 02 74 bf 0c 06 15 57 44 e6 8a bf
       -0.004884980784858249 -0.013134511859450825
000420 16 e6 f1 6c 82 5f 78 3f 59 99 e4 25 b2 7d 8d 3f
       0.005950459933154592 0.014399902135278241
000430 37 68 90 15 10 38 94 3f a4 fc 8c da 7c 8d 91 bf
       0.01974511272064935 -0.017141295279767946
000440 89 76 25 bd a9 5e 94 bf b9 44 d8 55 6e 74 7c bf
       -0.01989236084897653 -0.006946974751842188
000450 01 48 8b a0 1a 44 86 bf eb c7 2a 7f d3 f8 9a 3f
       -0.01087208559457409 0.026339821468987095
000460 5b ad 6c 05 b1 3d ed 3e 6e 03 61 0b 74 24 5b bf
       1.394318694066556e-05 -0.0016566403624127218
000470 b2 88 d2 af 62 a7 83 bf ce 1a 22 15 7b 20 7b bf
       -0.009596606245683457 -0.006622772971360559
000480 2c 57 a7 b3 81 cc 96 bf 25 32 6b f7 9f ba 93 3f
       -0.022264505949201638 0.019266604877701838
000490 9f 3a d4 d8 5f 35 92 bf 79 22 e4 f0 ff c9 76 bf
       -0.017781732186501583 -0.005563735742051373
0004a0 b4 81 e3 59 e9 fd 8d bf 52 31 54 b3 79 0a 81 3f
       -0.014644454055486068 0.008320761475737602
0004b0 75 ec 04 36 d1 e0 8f bf a9 84 d3 be 2d f8 7e 3f
       -0.015565523587261357 0.007560900395419492
0004c0 d6 61 c6 a7 c4 47 8d bf 83 81 a2 da bb 99 8a bf
       -0.014297043199619813 -0.01298853646250176
0004d0 ba 81 ea 42 ca 7e 86 3f 29 f8 b6 14 38 ad 92 3f
       0.010984020392528094 0.018238903297735618
0004e0 b5 38 59 9b 73 fb 8f bf c5 02 e3 d0 86 41 9d 3f
       -0.015616324594841616 0.028570276736675355
0004f0 e5 4d 47 80 86 7f 93 3f 95 d0 d4 10 c8 84 92 bf
       0.019041158275127663 -0.01808464625101232
000500 75 81 5c ff 68 fd 96 bf 6c eb aa 18 57 f4 78 bf
       -0.022451057992954177 -0.006092395992420712
000510 51 d9 f7 33 44 49 98 3f 56 3c 0a d6 dd 5a 87 3f
       0.023716989204296827 0.011403782934648426
000520 75 e1 c0 fe 7b 13 a1 bf b1 48 b9 11 57 73 8c 3f
       -0.033351778838951164 0.013891868809114834
000530 d2 71 e2 d9 50 38 50 bf 54 4d 74 33 11 d2 5a 3f
       -0.0009899892388950293 0.0016369979837847675
000540 4e 4a 56 44 ef 4f 70 bf e1 04 4f 6b 89 07 8c 3f
       -0.003982481609812695 0.013686250293064752
000550 66 0e 8b e0 d9 d9 7d bf 7a e8 0d 5a 50 62 7d 3f
       -0.007287837107188366 0.007173837541694645
000560 7d 93 42 91 71 9b 6c 3f 7e 2d c4 d9 e0 63 76 bf
       0.003492090045329409 -0.00546634514126809
000570 69 92 58 89 75 33 84 bf e8 69 33 f2 fa 35 88 3f
       -0.009863775495497511 0.011821709171660325
000580 36 0d 8e ab de d6 92 3f dd fa fe f9 a3 be 94 3f
       0.018397788258437596 0.02025848592142664
000590 ec 59 0f ff 82 2d 96 3f ba 30 a7 28 6d a2 92 3f
       0.02165798837435233 0.018197732549922498
0005a0 af e1 aa ee 65 33 9b bf fc ea ba 4f 0a c2 76 bf
       -0.026563255970104723 -0.005556144980512153
0005b0 ad dc 73 87 9c 9b 60 3f b5 19 7c a6 a1 71 94 3f
       0.002027326317712039 0.019964719568656714
0005c0 43 30 15 85 18 56 80 3f d7 05 ef b5 56 22 69 bf
       0.007976714669574508 -0.003068131787103505
0005d0 3f 58 a6 b6 bd 1b 72 bf c2 6f c7 c3 98 0a 93 3f
       -0.004420987194313552 0.018595110844998215
0005e0 8f f8 ef ec 1a f3 89 3f 84 95 25 77 9e c9 82 3f
       0.012670717578654482 0.009173620234558262
0005f0 16 b6 da 02 b9 a4 9b 3f 1d e6 90 9a 4b 69 a5 3f
       0.02699555473252787 0.04181896459381227
000600 56 f8 14 a8 8a 4a 6f 3f 04 af e0 54 3e 8e 88 3f
       0.0038197239051945093 0.011990057912121717
000610 e4 6b 55 45 cd ed 66 3f 28 72 a2 ee 60 6e 91 bf
       0.002798939628218632 -0.017022623601052583
000620 7c 48 a8 1f 64 14 a2 bf e4 65 bc 17 12 47 83 3f
       -0.03531182180826506 0.009412900304186907
000630 71 e6 85 93 31 77 91 3f 89 8f 57 64 44 c4 95 bf
       0.0170562502184794 -0.021256512283698768
000640 7f fb 78 44 ec 70 97 3f 3d d9 19 5b 92 79 6b bf
       0.022891704253420905 -0.0033538683426811698
000650 7e ac 19 59 e5 10 82 bf 20 a2 59 13 8b 81 57 bf
       -0.008821288854241379 -0.0014346941146873363
000660 bd f3 78 c5 e8 4e 82 3f bd b2 0c cd 70 82 8f 3f
       0.008939569975263123 0.015385514505021342
000670 e6 86 e8 43 e7 60 92 bf 9e 04 82 a5 36 0e 61 3f
       -0.017947782058519567 0.0020819728197812434
000680 f6 aa 3a d8 80 8e 7a 3f 98 32 8c da 33 bc 65 3f
       0.006483557986636459 0.0026532185332882145
000690 03 e1 d8 13 aa d7 81 bf a1 3f d1 8f 44 94 92 bf
       -0.008712128382385225 -0.018143721845546804
0006a0 c5 12 40 c1 d5 01 34 3f 20 90 52 e8 7d 55 99 3f
       0.00030528515458198526 0.024740187935677338
0006b0 2e d6 23 e4 61 84 93 3f e3 84 2d 74 e1 07 7b 3f
       0.0190596862311933 0.006599312476141625
0006c0 9a 2a c9 c5 0c 2a 7f bf ed c7 19 4f a2 bb 76 3f
       -0.007608461277934931 0.0055500354952631005
0006d0 f5 fa bd 8c 8e 6d 9a 3f 0e 45 4d 13 6e 59 83 bf
       0.0258085511591117 -0.009447917903943306
0006e0 f7 ad 64 1c 32 8e 8a 3f d9 af 8c 4a 6d ca 76 bf
       0.012966529361242414 -0.005564143103395446
0006f0 51 4e 3f 02 41 6b 7b bf 01 6f 54 98 38 5c 89 bf
       -0.006694082203427224 -0.012382928990113397
000700 8f ae f9 12 db 06 41 bf 96 c2 05 8f 46 bb 82 3f
       -0.0005196160982001307 0.009146262397480325
000710 e9 ce 11 49 2c 89 93 3f 58 65 43 66 59 2c 93 bf
       0.019077960929691527 -0.018723866335539213
000720 9c 3d 1d 18 5d f1 67 3f 81 2d f4 3c d8 cd 78 3f
       0.002922708344079884 0.006055683784562561
000730 3d 41 64 99 bf 61 74 bf a1 ae ff 24 b1 fd 80 3f
       -0.00497603267128027 0.008296379033672809
000740 61 42 6f d1 04 95 94 3f ce 29 c4 7d d4 71 78 3f
       0.020099711687921466 0.005967931789437176
000750 7a a4 df 7c 5e a0 91 bf 7d db 5a ba 07 64 92 bf
       -0.01721332204025259 -0.017959709881974362
000760 2a 14 00 be 61 6d 9d 3f 17 72 0e 8d 13 12 90 bf
       0.02873757097406241 -0.015693955883408685
000770 5b a8 65 51 da dc 90 3f 92 18 a7 02 00 cd a2 3f
       0.016467486589512564 0.03672027618772335
000780 d8 ec 10 a2 a3 11 9f bf af cb ea a4 4e 97 8e bf
       -0.03034072567627963 -0.014937033088562616
000790 f3 d0 02 69 4f ab 92 bf d5 c3 0e 9a 23 8c 77 3f
       -0.018231621536600916 0.005748881406291558
0007a0 70 be 38 39 d6 70 86 bf f1 89 93 37 39 40 8e bf
       -0.010957406636492112 -0.014770934113077923
0007b0 12 c3 6c 79 90 8a 92 3f 92 ad 1c 67 67 34 8e bf
       0.01810670605772475 -0.014748390039662582
0007c0 ad ae dc 28 e8 be 97 3f d5 31 98 37 20 1b 6f bf
       0.02318918942834951 -0.003797114299919561
0007d0 53 ec 76 c3 31 53 78 bf 6b 38 22 6a 84 7c a0 3f
       -0.005938715351869811 0.03219999118401592
0007e0 7f 96 ef f0 c7 4a 59 3f 6e 82 79 3f 82 42 6a 3f
       0.0015437080908155263 0.0032055419831496434
0007f0 da b0 e2 18 f0 17 8f bf d4 e0 34 8b 4d 76 53 bf
       -0.015182376632161643 -0.0011878735793527289
