weights/w_10_990.npy (npy, 79328 bytes, 1 tensors)

array f8 [10, 990]
-0.03181958459377548 -0.032958670061042666 0.04474158771102203 0.0052509816601423705 -0.02024735742995628 0.00209771532771467 0.01686893074461411 -0.07826180540304004
-0.022379128778488005 0.03600932339538466 -0.007350195866708378 -0.03882025725332683 -0.029484847743319664 0.02936086622204041 0.028890130160411205 0.0071284198819949
-0.029756417220629532 0.0479071881408921 0.06352024634579376 0.03032400127489458 0.021331161128565628 -0.0740035726441163 -0.004710189490010008 0.002379626863193627
-0.021202178801335587 -0.011064100351232427 0.002058765819593279 0.00715869602657307 0.020045863308403494 -0.04763347676104642 0.06693418631276803 -0.03701486093718467
-0.0689844157890126 -0.01297315379298934 0.035810387856283925 -0.0459413870224109 -0.009392330545917649 0.016141875876196855 0.03415084751064246 0.017458256576940546
-0.05299846984589893 0.022514636584913324 -0.012375114151058847 -0.045465164781705356 0.013924750576372961 0.09962796194236032 0.04230308686543205 -0.012467745891876408
0.0235377422700822 0.0032556597287039246 0.041562266106999514 -0.020065565385773594 0.033733880250420005 0.03425290159090122 -0.03237720323104284 0.039872609564590426
0.0012018491699511131 -0.011289458335160402 0.005534472340850361 0.0050250869471849015 0.013556951606323822 -0.0424529649432511 -0.016567545177923935 0.029030336898440607
-0.07411479019976343 0.034257580001123444 -0.002630444294555745 -0.04148920132919039 0.018213974901214826 0.04644799626360034 -0.04432196733764927 -0.03281545212781094
0.02714680910457782 0.026121063750138382 -0.004921206523063585 -0.03648594579695597 0.0002869771959402934 0.008398185943072085 0.06319400438199906 -0.023489044497624435
-0.017170829987088545 -0.0065480320438118566 -0.027650746957348416 0.03949676777865185 -0.04077200803266019 -0.0016995606372283171 0.024842692591616807 -0.0183156611463236
0.054323055581102245 -0.02399018596044356 -0.03196973353483211 -0.038335608546114605 -0.023448339940782745 0.07522356646710557 0.012882712701570504 0.07939748003919213
0.022343351438416238 0.059937984054577766 -0.03984139741838082 -0.04392157693748776 0.011241621517587386 0.002178671115403744 -0.030739294801232983 -0.02518355483462086
-0.0049239515367650215 -0.02296081057747125 -0.00037875783183726006 -0.0186641865242292 0.009830216128255288 0.013161961801408077 -0.03062233148313517 0.009819368313894627
-0.009154805539465103 -0.06691691906311648 -0.03513904456403248 -0.055159027759160116 0.018375048357633178 0.0034233662690475613 0.07106679286749433 0.03392254481303025
-0.027340744992948064 -0.018139861080208698 -0.004815844930700803 -0.0006805933203315345 -0.05033212277304241 -0.06897339930748175 0.017336325599756595 0.023737454757647256
-0.07612094727591684 0.027566905519307634 0.01581874263403433 -0.007594245061877536 0.016090528508894173 0.027531932984204626 0.026140594805681545 -0.015436142729991087
-0.014445103287083002 -0.005023422183063342 0.011738091558613764 -0.01927961328669025 -0.004405001903902259 0.009183947552163643 0.031068099635482765 0.008518923094091382
0.028300334035541063 0.013895801838723375 -0.01986206223691467 -0.008144629362051237 0.0010537186322144554 0.007962526519425198 0.02732862538553238 -0.05044844282369278
0.012067692251358217 -0.052839979628722354 0.0015886166929282772 -0.02942588736663239 -0.026509304678662887 -0.004834016861533513 0.017356203237124005 -0.00928717523050295
-0.048946951616481195 -0.025684536367455598 -0.02422563081787718 0.014051845780884236 -0.030440207977334974 -0.02371105395488719 0.016601509818738397 0.023430255409964074
-0.001750107336448277 -0.029297637672654135 0.06957719523059781 -0.0369974481489458 0.01296299193658967 0.013754792159993688 -0.021864542202167634 -0.050520716971045654
-0.043348241581013996 -0.00201530251368609 0.022129085819136602 -0.03940589473549264 -0.009603000837487911 -0.03892857672558874 -0.022333877171532603 0.0014797435797182497
-0.006980358404650301 0.03899704332908452 0.018119703399716146 -0.04406730839332475 0.017888889946706944 -0.010287056681659431 0.05416809081636578 -0.02002158728542838
0.003097176220666522 -0.007075270580213682 0.03784320668365577 0.06491863785471037 -0.0262083902795899 -0.017760754704069345 0.0006889838388658757 0.03053457543923572
0.030031413480328076 -0.012554550560710554 0.02731466926712035 -0.044146880140865756 0.006672774362457827 -0.014729538110632611 0.016649847934426386 -0.042700637179941506
-0.004504848767412029 -0.015881106543635604 0.02722200724746251 0.02768303738765934 0.0054733815131754035 -0.007177566598849595 -0.013658374332878802 0.021126060349163752
0.03359669424109797 0.03272391500272343 -0.0009653786403603211 0.023776293203179276 0.04154418482583297 -0.05045410676905502 0.0008446357436590495 0.020656536410788594
-0.015333348803854133 -0.012278111502884628 0.02330670943298818 -0.003291578665486976 0.03254106907921563 -0.01172336125738513 -0.004665349731272874 0.01898309468375205
0.04495584063417723 0.058269709789396815 -0.05972134463813427 0.01969961366323706 0.07043463217684048 0.047955127766156215 -0.043294768999982074 -0.01570005920302326
-0.024074024401569787 0.004504346491995299 0.02038399616480211 0.007029674731045114 -0.014216321722274787 -0.04125715029545643 -0.02745702919887625 -0.025260691852770467
0.02200246253670065 0.010601899010062274 -0.012463747306008105 0.09231839015662216 -0.0011172146764008954 -0.009350982127272646 0.008908090280586112 -0.024637219101085687
00000000: 67b7 6716 a84a a0bf 5c4c 1074 f5df a0bf
00000010: 66db fa8f 5ee8 a63f 7d0a 09a8 0d82 753f
00000020: 16e5 f727 b9bb 94bf 55c2 5257 3a2f 613f
00000030: b467 77c7 1646 913f 9662 bb36 f708 b4bf
00000040: bbc6 dde8 8dea 96bf c124 ab64 d06f a23f
00000050: 0308 de2d 3d1b 7ebf b093 a6ae 3fe0 a3bf
00000060: 90f0 23a3 4631 9ebf 0bd6 d260 c610 9e3f
00000070: 4256 ddd0 5f95 9d3f abc4 3ea4 b032 7d3f
00000080: 0b25 3c5b 7778 9ebf 3ded 9d7c 4a87 a83f
00000090: 6e65 b0e4 dc42 b03f 6bc3 0947 410d 9f3f
000000a0: 0b49 bbfd d5d7 953f fa2b 4bec e5f1 b2bf
000000b0: 80b5 14dd fd4a 73bf 482f bb71 707e 633f
000000c0: 6504 3922 06b6 95bf 117c 5869 c6a8 86bf
000000d0: cf56 b07b 8bdd 603f 21e5 0ed5 6f52 7d3f
000000e0: 7897 511d e786 943f 3b56 c441 6a63 a8bf
000000f0: 179d 324d 9922 b13f 73e4 61a2 9cf3 a2bf
00000100: 885a bf71 f6a8 b1bf 778b 223a ab91 8abf
00000110: 274e 6639 bd55 a23f af98 9625 a185 a7bf
00000120: a037 3944 493c 83bf 3dfb eff3 7e87 903f
00000130: 80b6 604a 387c a13f fd2b 2cc4 93e0 913f
00000140: 9ccd 738d 9d22 abbf 720d 41af 130e 973f
00000150: fd27 81b4 1f58 89bf 4e79 b0c7 3547 a7bf
00000160: 2fd2 a462 9484 8c3f fe3f 4fd6 3781 b93f
00000170: b0b8 360d c0a8 a53f 5032 e286 b088 89bf
00000180: 3e33 1625 471a 983f 4058 f901 9dab 6a3f
00000190: 8dbb 5a3b a647 a53f 123b 6e4c 118c 94bf
000001a0: 0fae e230 9145 a13f a086 40a8 9889 a13f
000001b0: ebcb 06aa be93 a0bf 5714 2cc4 2e6a a43f
000001c0: 7e6d 4cb8 ebb0 533f 9069 b672 ed1e 87bf
000001d0: 01ea 459b 50ab 763f 443e 9081 2f95 743f
000001e0: e8cb 423e bfc3 8b3f cc57 1920 65bc a5bf
000001f0: 8653 db22 15f7 90bf 455c 48ee 20ba 9d3f
00000200: 91d1 0ed8 2ff9 b2bf 5067 7da3 358a a13f
00000210: 3398 0207 718c 65bf 2a2b b195 123e a5bf
00000220: aa9f 1f2a afa6 923f 1673 d521 08c8 a73f
00000230: 924e 6b70 5eb1 a6bf 7682 62db 2fcd a0bf
00000240: aafe 2d85 5fcc 9b3f 0c9f 2cea 7abf 9a3f
00000250: 6aba 2c51 4228 74bf e150 ec2f 49ae a2bf
00000260: 90c8 d7ab adce 323f ca0f c56f 1133 813f
00000270: 47bc 1f76 7b2d b03f 9af1 b917 830d 98bf
00000280: 8779 f5e4 3a95 91bf 2589 b3f7 1bd2 7abf
00000290: 8d2f 9137 7a50 9cbf 7064 d09b eb38 a43f
000002a0: 6a5f 2f92 11e0 a4bf 0c8c af56 79d8 5bbf
000002b0: 4ffd e6e0 5c70 993f cf26 8336 57c1 92bf
000002c0: da7c 4746 3bd0 ab3f a110 8020 e290 98bf
000002d0: 7ee5 fc3f 565e a0bf dea4 f491 b9a0 a3bf
000002e0: 79bd c374 d702 98bf 065d dd05 da41 b33f
000002f0: 0a65 e56d 4062 8a3f 6134 27ac 6453 b43f
00000300: da18 d8ee 2ce1 963f e5eb 9a02 31b0 ae3f
00000310: 76b5 e075 1766 a4bf 4e0d 1291 e37c a6bf
00000320: 5a27 2de6 d805 873f 548e 0f26 01d9 613f
00000330: 2c5c 7e27 1f7a 9fbf bd99 a5c1 b7c9 99bf
00000340: 5575 142d 232b 74bf 045e 14ea 0983 97bf
00000350: 105f 3780 80d2 38bf 047b e95a b41c 93bf
00000360: fa8a 4446 dd21 843f 0fef e79b a8f4 8a3f
00000370: d745 fde0 755b 9fbf c056 344e 2d1c 843f
00000380: 325c 2533 c1bf 82bf 90d7 ec9a 7721 b1bf
00000390: 7e2f 6eae befd a1bf 0b08 9cd8 cd3d acbf
000003a0: e8a7 089f e8d0 923f a586 5ec5 510b 6c3f
000003b0: fb8e 32ef 6e31 b23f c05b 23b9 4b5e a13f
000003c0: 2a38 5f56 36ff 9bbf 1db9 5f78 4193 92bf
000003d0: 3bf2 ad87 c7b9 73bf 94df be06 3b4d 46bf
000003e0: fb37 7fca 21c5 a9bf 34d0 519e 3da8 b1bf
000003f0: 595f ef1d 9dc0 913f 0c5c 7f9f a14e 983f
00000400: c431 1793 a97c b3bf e21f a1b6 7f3a 9c3f
00000410: b2aa 1bd9 c932 903f e76f dba2 241b 7fbf
00000420: 895c e216 097a 903f 5b21 0dbf 5431 9c3f
00000430: a24f 279f 99c4 9a3f d314 9d01 fc9c 8fbf
00000440: ab95 a4f1 6495 8dbf c018 d89f 7093 74bf
00000450: dbc2 e4fa 230a 883f 5ef6 2ef2 08be 93bf
00000460: 8a74 dbb1 fa0a 72bf 2ee9 1393 08cf 823f
00000470: 6877 88df 50d0 9f3f eea9 b080 5e72 813f
00000480: d316 9844 c3fa 9c3f 6c94 97f3 6675 8c3f
00000490: a164 f46e b856 94bf 6002 fca5 21ae 80bf
000004a0: 7b89 21c4 9d43 513f 82a9 f437 a84e 803f
000004b0: e01b 1a01 09fc 9b3f 92af 1fd8 60d4 a9bf
000004c0: 5853 763c f2b6 883f 5374 da80 d70d abbf
000004d0: 5b09 7d2f 2407 5a3f f4f4 94df d121 9ebf
000004e0: 48c9 8952 4125 9bbf 06f1 4185 d5cc 73bf
000004f0: 910b 2515 d3c5 913f cb0c 198f 2705 83bf
00000500: 4d05 dd28 930f a9bf 3f36 d80e 0c4d 9abf
00000510: b8db 5990 9ace 98bf f660 9ed0 36c7 8c3f
00000520: 8cff fbc6 b72b 9fbf ebe3 28e5 b547 98bf
00000530: 785c f176 fcff 903f 7011 e4d2 19fe 973f
00000540: 54fb 9171 7bac 5cbf 3ece 9d2e 3300 9ebf
00000550: 4915 10a2 cfcf b13f 729c ab5b 54f1 a2bf
00000560: fe5f 6853 578c 8a3f 1971 ecf3 782b 8c3f
00000570: 2921 cd96 a863 96bf 707d 52f6 d9dd a9bf
00000580: 9cef db9f bd31 a6bf ff16 694c 6582 60bf
00000590: 55c6 88cf 01a9 963f b52e 516a 022d a4bf
000005a0: 8fe2 52f4 bcaa 83bf 271c d547 72ee a3bf
000005b0: 2aaf 2d20 b1de 96bf f9bb 0192 7e3e 583f
000005c0: 9b4f ffb0 6f97 7cbf 046d 7aa3 6bf7 a33f
000005d0: 635c 0fb6 f88d 923f c280 be80 fd8f a6bf
000005e0: 4da3 2115 7751 923f 4b9a 2860 6111 85bf
000005f0: 840a 1685 ebbb ab3f 4771 6bfa 8980 94bf
00000600: 059d 7cd2 3f5f 693f c5b3 097c f5fa 7cbf
00000610: 1905 2a4e 2f60 a33f 1da2 7c02 829e b03f
00000620: 67cd 864c 5fd6 9abf 5fce 6c12 e02f 92bf
00000630: 3765 1787 9d93 463f 9292 a2ab 7444 9f3f
00000640: b4ad 000b 8ec0 9e3f 0d06 9840 33b6 89bf
00000650: e337 d06c 60f8 9b3f 9fd4 d97c 6b9a a6bf
00000660: 78c4 903a e954 7b3f 4648 c323 852a 8ebf
00000670: 866a 7261 a80c 913f 6a94 69a0 dbdc a5bf
00000680: 4145 1222 ad73 72bf 1db5 ea04 2343 90bf
00000690: 46f3 6ffb 15e0 9b3f 878e ef30 f158 9c3f
000006a0: 4fd9 8fa9 416b 763f f425 e95c 3966 7dbf
000006b0: dc23 9cf8 ebf8 8bbf 1f03 2ce9 11a2 953f
000006c0: 2ad8 09fe 9533 a13f 21b2 7761 30c1 a03f
000006d0: 6d31 24d8 2ea2 4fbf 763a e906 d058 983f
000006e0: 0cf5 5486 4745 a53f 6d41 0be5 1ed5 a9bf
000006f0: 94b5 b172 51ad 4b3f 26f6 54b1 fc26 953f
00000700: a8a9 343d 1767 8fbf 4e6a e43a 4425 89bf
00000710: 7f11 2bcb b6dd 973f a427 0ed7 f0f6 6abf
00000720: 23b8 f116 39a9 a03f b1e8 98e9 6a02 88bf
00000730: 8fd1 5248 f91b 73bf 25d5 5feb 4d70 933f
00000740: ff71 93b2 7304 a73f 4e26 c903 87d5 ad3f
00000750: cf17 30cc cb93 aebf 4ab2 b5b1 222c 943f
00000760: cc8f b409 0108 b23f b5be dc12 938d a83f
00000770: 5fb6 e261 bb2a a6bf 92fb 4923 ad13 90bf
00000780: 7b8e f36d dca6 98bf a1b1 f74d 2673 723f
00000790: 1af7 8ed3 8adf 943f 9146 24f1 25cb 7c3f
000007a0: e9c3 ee66 721d 8dbf 4483 7d3e a81f a5bf
000007b0: fa65 d109 b21d 9cbf 8026 8755 f0dd 99bf
000007c0: 963b 1b44 d087 963f 0b90 30cc 72b6 853f
000007d0: 10f1 84d8 9786 89bf 7ac4 8a92 2da2 b73f
000007e0: b02f db1f f04d 52bf a17e 6093 9b26 83bf
000007f0: 2d43 66a3 673e 823f b1d5 36c9 7f3a 99bf
