weights/w_10_215.npy (npy, 17328 bytes, 1 tensors)

array f8 [10, 215]
0	0xbf954a49abac0b4c	-0.020791197875051723
1	0xbfb2e14b1dc97598	-0.07375020482273553
2	0xbfa223269916c879	-0.035424429118749275
3	0x3fb78398d25aee75	0.09185176025033022
4	0xbf9f866e6100f81e	-0.030786251707688554
5	0xbf96e0f809d2a5c7	-0.022342563247240734
6	0x3fb58a97f7bedd19	0.08414602087474456
7	0xbfbe55cd9596bd44	-0.11849675085135397
8	0x3fb0592525083814	0.06386024622062819
9	0x3f93ec87336a9038	0.019456970704269078
10	0x3fa1ac9ea84fece2	0.03452010922043215
11	0xbfbabe2caa1e6356	-0.10446433213509229
12	0xbfa9d05603a8a449	-0.05041760248816069
13	0xbfbd308455c68395	-0.11402155965926249
14	0xbfa8f5fbec005bd0	-0.048751709517254604
15	0xbf8ccda892716392	-0.014064137429316923
16	0xbfbedf632226a540	-0.12059611877216003
17	0x3fb19625634ff13b	0.06869729685417252
18	0xbfa4239f9bd0a273	-0.039334285517104293
19	0x3fae74d75fe4dffd	0.05948517842847421
20	0xbf515459cc5046d9	-0.0010577084478921499
21	0xbfabfb1ca7200262	-0.0546502069482855
22	0x3fa20c6173e9cd1a	0.03525070705372908
23	0xbfae9c74cd583d1e	-0.05978741652153928
24	0xbf862b36f4f8e2ba	-0.010824612952192825
25	0x3f8eeb906d05d2a2	0.015097740485296388
26	0x3f8841c50fb575b1	0.011844195882697446
27	0xbfbd1166bf00ce12	-0.11354677355921464
28	0x3fa49cef35d51c59	0.04025981456884926
29	0xbfa516cb56848f9f	-0.04118953162313165
30	0xbfbe2768d02fccf0	-0.11778884012874236
31	0x3fb9a171ce76634b	0.10011969843470785
32	0x3fbd6250c643e203	0.11478142586191357
33	0xbf99616f57d85036	-0.024785747276908597
34	0xbfa4ac30c3b2ed7e	-0.040376209153204265
35	0x3f95938aff7cadaf	0.021070644229593757
36	0xbfa7504eb45c4d86	-0.045534572140378635
37	0xbfc317bbc961565d	-0.14916179020899537
38	0x3f99a94f5898f8b9	0.025059928686680808
39	0x3fab8070e48dfaf4	0.05371430196736596
40	0x3fb31bed7e1350d8	0.07464489295972798
41	0xbf6ab712e81c4e85	-0.00326112454139055
42	0x3fb0cc3a4890d4b9	0.0656162669336763
43	0x3fbd8b378d2b9c3e	0.11540553280393426
44	0xbfb27a44049ceff0	-0.0721781264555259
45	0xbfbc21137d1a4f39	-0.109879701655072
46	0xbf8b973c12d99b4e	-0.013472050976998464
47	0x3f8334e56f805cd0	0.009378235306981259
48	0xbfb2c83ed3e8a91e	-0.07336800263934548
49	0xbfa4ede2cd1e53eb	-0.04087742570769833
50	0x3fbd16f242b0da8c	0.11363138321108063
51	0x3fb59896eab0f538	0.08435958127752918
52	0x3fc3f57155a86eea	0.15592781717793197
53	0x3f8a8346b2887e48	0.012945701907539534
54	0xbfb06b2d3e85b8bd	-0.06413538719582142
55	0x3fb1b085946f51a0	0.06909975885293429
56	0xbfa8074e2446db13	-0.046930734566038045
57	0x3fc24026a273f974	0.14258273060108773
58	0xbfaac1625f3f6814	-0.05225665486041478
59	0xbfb002492134db84	-0.06253487644867844
60	0xbfa0727d746d870f	-0.03212348982084567
61	0x3fa5c6e27d898cd3	0.04253299505651289
62	0xbf6ab40f293eb244	-0.0032596870532500006
63	0x3f91c5865a128599	0.017355059859828968
64	0xbf9f6efc97ef4abf	-0.030696818135605094
65	0xbf610d4c32beface	-0.0020815361258138326
66	0x3fb730b31401e111	0.09058684576473676
67	0xbf86522346168779	-0.010898852898040922
68	0x3f090daf72d2d9be	4.7785679592338395e-05
69	0xbf8cc6a8970c6f02	-0.014050786122929097
70	0x3fa1fe0db98c35a9	0.03514140024172303
71	0xbf9573e9f8cf3e0c	-0.020949989138726408
72	0xbfa503608019ccb3	-0.041041389119436465
73	0xbf7a6663e6f0e405	-0.006445303194646539
74	0xbf93c7bf5ea36f50	-0.0193166638863283
75	0xbfbce989a00cff9e	-0.11293850095262178
76	0xbfaac7574f0713b7	-0.052302101513795156
77	0x3fb84dae4773160f	0.09493531460164938
78	0x3f6925c149b16f26	0.0030697608140552056
79	0xbf96b212dae4eedb	-0.022163672075506163
80	0xbfac2cb1342e3c1a	-0.0550284744450595
81	0x3fa453449cb663e1	0.03969778454774776
82	0x3fbb6432b5396f99	0.10699765133307294
83	0xbf8eb86464592e98	-0.015000137627019058
84	0x3fb5266139132961	0.08261687892369231
85	0xbf8c30fbabed20c7	-0.013765302833818173
86	0x3fafdc4bc29099d9	0.06222759962138342
87	0x3fb09350fdc3647b	0.06474786944763082
88	0x3f805161815e2304	0.007967721710671956
89	0x3fc3a152f0d861c4	0.1533607173921735
90	0x3f871ad2a3a98c08	0.011281629199578105
91	0x3fbea54d6f76c110	0.11970981570516792
92	0xbfaa71c19431bb53	-0.05164914068233508
93	0x3f91840df9074b2c	0.01710531074952397
94	0x3f7310121e00d3ef	0.004653998155892388
95	0xbf8c22a83e20601e	-0.01373797835917406
96	0x3fc13de300ae4902	0.13470113309137594
97	0x3fac5feffccaf314	0.05541944466447127
98	0xbfc131554357c5ac	-0.1343180254766997
99	0xbfb732d7ae97052f	-0.09061954510163582
100	0xbfb44476aa87a564	-0.07916967070891229
101	0x3fa0c0d6be657f5a	0.03272124361205782
102	0xbfa02eb9d4b232d1	-0.03160649033916275
103	0x3fae4f15006b41d8	0.05919709806551382
104	0xbfb2a9c116166624	-0.07290274419065007
105	0xbf84bd98b9a2ae87	-0.010127251782555703
106	0xbfa1e338815aa357	-0.03493668154744139
107	0x3f458e9e8cf90ae4	0.0006578706906526757
108	0xbfba16ba68b4e5f4	-0.10190930420221617
109	0xbfc0ca79de5964c1	-0.13117907864469738
110	0xbf919d5dc8b84d00	-0.01720186746213148
111	0xbfb1bd050b449cab	-0.0692904617795757
112	0x3fb1ce06e31c2e7d	0.06954997105293077
113	0x3f8e9b20af0c0174	0.014944320051200256
114	0xbfab78bcd1a5eb86	-0.053655529586612835
115	0xbfa4179c2126254b	-0.039242629095563496
116	0xbf8d509f39572932	-0.014313930451767296
117	0x3fadadb20febbbc0	0.057965816920720226
118	0x3fb2c743507ba96f	0.07335301127355874
119	0xbf76c3dd277ee765	-0.005557884105593523
120	0x3fa48394673e3ae4	0.040066373446384224
121	0xbfa854c14c3d6904	-0.04752162986433642
122	0x3fb6785ae1e15877	0.0877739716973752
123	0xbfb25ac8e4287f48	-0.07169776506679881
124	0x3fa8a168a724fb8b	0.04810645141923605
125	0x3fa16239057cf08d	0.03395250503533118
126	0x3fa68ee972bddc45	0.04405908132223905
127	0x3f794c402a3271cd	0.006176233905673856
128	0x3fbc9a78d0e158cd	0.11173205470672372
129	0x3f368a61711bae29	0.00034394148779767986
130	0x3fb8dcf853788fea	0.09712173498024837
131	0xbf8c85afc16eb6c3	-0.013926861849394517
132	0x3fb126e53a53028d	0.06699974702770302
133	0x3f6117972ad6ec4a	0.0020864441382549047
134	0xbf9f63ae50c77667	-0.03065369003331
135	0x3f4f142e522397fb	0.0009484506774952711
136	0x3fb34f50dced1c1a	0.07542901414591122
137	0x3fb95e1d5e5ca717	0.09909232667692112
138	0xbfb9345219e79320	-0.09845460064350364
139	0xbfb7eb76b835a219	-0.09343664166738853
140	0xbfa7e2ca4fc86219	-0.046652147521118965
141	0xbfa315fefbf90ee9	-0.03727719140854708
142	0x3f949a5a482a89b4	0.02012005868403728
143	0xbfb5aac5052826ff	-0.0846369874563173
144	0xbfae869fb263084e	-0.05962084820340917
145	0x3fb0d298d62f85b2	0.06571345547810983
146	0x3fb8a42f9307ad8b	0.09625527705764207
147	0xbfb2ebad2ed76ba2	-0.073908637939367
148	0x3f8de82c2a7e01bb	0.014602990195044954
149	0x3f554dcbd7b8d9ff	0.0013002863551158093
150	0xbfa9427ed13f701a	-0.04933544449133383
151	0xbfb1167599aa74fd	-0.06674895288093192
152	0x3fb0e2e78edfedd9	0.06596228826668184
153	0x3f8e094d43036ab5	0.014666179282746364
154	0xbf9276b65ab3e3af	-0.018030976568272624
155	0x3fa1bb2dda19ccf5	0.034631188272124115
156	0x3f90edff94277a03	0.016532891671767313
157	0xbf682ebeb5781fb3	-0.0029519772322181503
158	0x3f8fb836d168034f	0.0154880793243152
159	0x3fba4d5807753659	0.1027426737029712
160	0x3f841dd0a91fc537	0.009822492753274943
161	0x3f853aed7ff751e8	0.010366301982608087
162	0x3f74ac72431c4dc2	0.005047270142103101
163	0x3fc41941687563f4	0.15702073669925165
164	0x3fa55aee79d913e5	0.04170937764551023
165	0xbf9c27cfd948f9df	-0.027495620381381754
166	0x3f8c79a2ea30385f	0.013903877994405343
167	0x3fb1fccdb1e9cc1f	0.07026372521959033
168	0x3fba14d9b0c033d6	0.10188065114216668
169	0x3fad1cac82db93ac	0.05685938928016951
170	0x3f82d51c9d7c863f	0.009195540958503943
171	0xbfb1508c4838890c	-0.06763531459049349
172	0xbfb4d8829ed75b70	-0.08142868402442871
173	0x3fa36b907c5db4f7	0.037930026227380446
174	0x3fb18f9a3b85d27d	0.06859744980995149
175	0xbfaaedda2161babe	-0.0525959172963346
176	0xbfa7bebe600d77f8	-0.04637713358418688
177	0xbfb30a3ef1f30321	-0.07437508971180452
178	0x3fafc3890a3acd46	0.06203869104265407
179	0xbf77ce1ace29d344	-0.005811791141799475
180	0xbfa8771bfbeffad3	-0.047783731941299167
181	0x3fb2d8d7e5943a48	0.07362126688915638
182	0x3fb02f4516f4eadc	0.06322128115145226
183	0xbfb3ca7daf9c3c1e	-0.07730851685867932
184	0x3fc536f536cf2dbb	0.1657396810172552
185	0xbf93188671563729	-0.018648243587043787
186	0xbfa8084d21a803b5	-0.04693833385318361
187	0x3fa453cbdb68bc32	0.03970181516012196
188	0xbfa2c53bec834d09	-0.03666102659340182
189	0x3fad99dd73a2a64d	0.05781452213825542
190	0xbfb7162481f34d93	-0.09018161938302276
191	0x3fc1a031c12bad39	0.1377012437072638
192	0x3f9a2202a715ce56	0.02552036423499112
193	0xbf7c94ee14b96081	-0.006977968219494924
194	0x3fb1837186481347	0.06841191795690547
195	0xbfa5eeaad49563ba	-0.04283651204122614
196	0xbf6664dbad2f2464	-0.002733639770188522
197	0x3fc1b9a61f324682	0.1384780552221408
198	0x3f813cd4ebf8b1bb	0.008416808558728719
199	0xbfb6f4297d498596	-0.08966311749238395
200	0x3fca580eef6db99b	0.20581232729769003
201	0xbfb82b1824db5445	-0.094407567022544
202	0xbfa5174624b2ba56	-0.0411931915090135
203	0xbfa153bf232e944a	-0.033842061085387856
204	0xbf92e3d8d4ee41f8	-0.018447292324312387
205	0x3f896ae92ccfd01d	0.012410947494551345
206	0xbfb64cb29746182f	-0.08710781281669776
207	0x3f92b14721c1a273	0.0182543863633406
208	0x3fc383f01c352ff9	0.15246392609913054
209	0x3fbf7eb5abbcbf3d	0.12302718584828383
210	0x3fa8a567d38a29cf	0.04813694436332449
211	0xbfb4cc4a40cedab1	-0.08124221880175743
212	0x3fa609a7d6401187	0.04304241648063383
213	0xbfa52765f9e6ab08	-0.041316210513590745
214	0x3f9d439e484eb738	0.028578255809114966
215	0x3f66482c4e96b96a	0.0027199616785857266
216	0xbfcaacdbcc6a786d	-0.20840022546048279
217	0xbf8e07e5d0c323a8	-0.014663501199167886
218	0x3fa016b51f1cb35e	0.031423244521966195
219	0x3faa98a6c20b8054	0.05194588774406897
220	0x3f6254974689964f	0.002237601718934091
221	0xbfb5d4750041fc08	-0.08527308708470127
222	0x3fab05e6a269b697	0.05277939541416037
223	0xbfa179b80f078de4	-0.03413176711526569
224	0x3fba8366cce4ecbc	0.10356752874661174
225	0x3fb823d452dcaa63	0.09429671309468683
226	0x3f9ccb1d799803cf	0.02811857275628765
227	0x3f833b514aecff0e	0.009390482996991103
228	0xbfc2bd60512c4ce9	-0.14640430415656816
229	0xbfa4372b0c30cb5a	-0.03948339961825438
230	0xbfabbbc793c6356a	-0.05416701964268607
231	0xbfafa9b874229485	-0.06184173982300315
232	0xbfc40fcec1f094ba	-0.15673241109576513
233	0x3f76943515538121	0.005512435299550839
234	0x3f892d24917308c2	0.012293134392511344
235	0x3f855fd979c4dc1a	0.01043672469005057
236	0x3f849ca23558ce88	0.010064379933374626
237	0xbf959eb0096442fe	-0.021113157819004684
238	0x3f9432ec642e5aad	0.019725507368628815
239	0xbfb62c56326e5506	-0.08661402446007935
240	0x3f9055d12fb9f794	0.015952366388311726
241	0x3fa7c916c4d8033a	0.04645606186750802
242	0xbfaf5de6b5e551ea	-0.06126328440101132
243	0xbfac6e471e155a8d	-0.055528852865497226
244	0x3fac0c0d55001769	0.05477945005990998
245	0xbfb3cf2466f41f2f	-0.07737948907390256
246	0xbfafe2c9e0219cbf	-0.062277134523179616
247	0xbf9cf5833cef8588	-0.028280306429115082
248	0x3f6eb600c1995022	0.0037488951464102064
249	0xbfc44fb1966869eb	-0.15868205875524607
250	0x3fa729abb3148f96	0.04523979722060216
251	0xbfc28ebb31374386	-0.14498081114882327
252	0x3fa97e2e46b34b7a	0.04979080784837371
253	0xbf970959d9b7187a	-0.022496608651430418
254	0x3fb1cfd38f4acbac	0.06957742927879335
255	0x3f92dd64c73baf2e	0.01842267480871767
