weights/w_10_599.npy (npy, 48048 bytes, 1 tensors)

array f8 [10, 599]
0	0xbf90e84182e60fa4	-0.016510985960408356
1	0xbf884e28a501ae2d	-0.011867826018906314
2	0x3fac0cbb8d535587	0.054784642221117834
3	0xbfa7f53f9c17cb89	-0.04679297237807762
4	0xbf9896f7eb21f3fc	-0.024013398863178978
5	0x3f65e5e1341864a7	0.002673091745930184
6	0xbf6886672fe9481a	-0.0029937758802498606
7	0x3fa8682f6f03eca4	0.047669870664287545
8	0xbf899c36bec102f6	-0.012504985519741645
9	0x3f8d40d08f6e089f	0.014283780457621296
10	0x3f562044ada786b2	0.0013504667937173473
11	0xbfa205eadb46ba55	-0.03520139624321376
12	0xbf89f3f59542648e	-0.012672346704038408
13	0xbf536a2b6a347b72	-0.0011849807713770447
14	0xbfa0dd902d158957	-0.03294039297431322
15	0x3fbb666253e17e74	0.10703100726959197
16	0x3f82dd8a9ea0397f	0.009211619344594578
17	0x3fa611b016f7b2f4	0.043103697589549045
18	0x3fb19477519e9036	0.06867166273747291
19	0x3fb5274a5cf8245f	0.082630775163254
20	0xbfb30781b82b29f6	-0.0743332934027093
21	0xbf9b0f6618333e2b	-0.026425929286061283
22	0xbfad93bc6da572ae	-0.05776776159720974
23	0xbf94b65b4a513f8a	-0.020226885233853
24	0xbf8e1aa70a2204e8	-0.014699273106318647
25	0xbfaf10bfddceb596	-0.06067466337786269
26	0x3fa76fac4c3b3ce8	0.04577387266692218
27	0x3faae81d184b492a	0.052552136626802984
28	0xbf9ddadab40b81a7	-0.029155175437041738
29	0x3f9cba3451366e51	0.028054063278985023
30	0x3fa206d5b13ff65d	0.035208394896454755
31	0x3f9bed636c9f9224	0.027272752289620908
32	0xbfacaa7485466297	-0.05598796965495472
33	0x3fb9cec236045f84	0.1008111364247935
34	0x3fb607182505e252	0.08604575065499745
35	0xbf94a72236698ae8	-0.020168814250051265
36	0xbf938d9979dc686f	-0.01909484678535772
37	0xbfac16c42c16e3cb	-0.05486119306755873
38	0x3f99f47d0c06a1fc	0.025346711977961775
39	0xbf21403e2318f8e9	-0.00013161428937453278
40	0x3f945902182c421a	0.019870789266010026
41	0xbf91c6cff974fd96	-0.01735997161926902
42	0xbfaaa50c6dc0a928	-0.052040470502406955
43	0xbfa4484cf41f3186	-0.03961410980227513
44	0xbf9a0ed8ff20374a	-0.025447264262815218
45	0x3f7932c2c1287731	0.006151924857958056
46	0xbf833675126d81c1	-0.009381212830420151
47	0x3fa070e6375d9f7a	0.03211135316706666
48	0x3f9ca0dd30812401	0.027957397542454746
49	0x3fa3b6f4b3f9c399	0.038505217523272246
50	0x3f890afa2d339922	0.01222796869701576
51	0x3fb3965684aeb7e9	0.0765127252513761
52	0x3fb6a07a41aa70d6	0.08838619330566941
53	0xbf94be6de3a21c49	-0.020257679957037564
54	0xbfa652c17c3d3985	-0.043600126663124995
55	0x3fa0302e159d76db	0.031617584360658056
56	0x3f98cb605dfb436e	0.02421331952683963
57	0x3fa0f06cf9cc88b9	0.033084302418744334
58	0xbf95034c47c3a001	-0.02052039325727151
59	0xbfa59ec5c3db4639	-0.04222696319415004
60	0xbf7a738ee28a1224	-0.006457861084190362
61	0x3fb253b65f964cc0	0.07158984979314464
62	0xbf81120e6441c74c	-0.008335220751380178
63	0x3f9d6283d22694dc	0.02869611711652885
64	0xbf97c344170919e2	-0.02320581808660361
65	0xbfa291adc350e1b7	-0.036267690746572816
66	0xbfa0e59a78d1ea89	-0.03300173497060139
67	0xbfb7c32b53e9b06c	-0.09282179640439531
68	0xbf9babbedb335edc	-0.027022344712206756
69	0x3fa2a5a65b8683ba	0.03642005793813703
70	0x3f5d4293fb90ac3b	0.001785892977077776
71	0xbfa1db5f8466ed9a	-0.03487680903659936
72	0xbf6219085e7fe3a8	-0.0022092021426911197
73	0x3f85ef93238414e8	0.010710858842239948
74	0x3fa1917ac60cc3da	0.03431304614640114
75	0xbf9edf77e9681124	-0.030149339314463522
76	0xbf347f8f1ccb65d4	-0.0003127788921069828
77	0x3f8c1afadef01b51	0.01372333519794969
78	0x3fa63c6beba047d3	0.043429729950858274
79	0xbfaa65ff18e0b43d	-0.05155942133601641
80	0xbf89d1d4233d21ee	-0.012607247662928391
81	0xbfb2fbfb35cbca85	-0.07415742934589716
82	0xbfa1b904c55e92d8	-0.0346147051743963
83	0x3f8c76c614b80465	0.013898417956627005
84	0x3fb209d2a95217dd	0.07046238550000745
85	0xbf841c19433ea350	-0.009819218983311423
86	0xbf90f4010094cb76	-0.016555801067805707
87	0xbfa5188f7fb77e25	-0.041203007069040155
88	0xbfacd966da650e6f	-0.056346143874660075
89	0xbfa23040b1f9adc4	-0.035524389005185536
90	0x3f9a340d4ebef46e	0.025589187556523667
91	0xbfb61e78e9138f66	-0.08640247049657787
92	0xbf8165b7d9a0bc1f	-0.008494793251967945
93	0xbf9cd6d7b574a5b2	-0.028163309526609566
94	0xbfa6115f7236f00d	-0.04310129422398754
95	0x3f841595e5a6d85d	0.009806796141543278
96	0xbfa0b8fbee1bd9c9	-0.03266131669618095
97	0xbfa6f4d3226cfb82	-0.04483661456332923
98	0xbf98a2aaf4deb3e8	-0.024058028407740212
99	0xbfb04ccaba0bf700	-0.06367175142437631
100	0xbfb15b522abbb5a7	-0.06779969733516698
101	0xbfa0d0bd0360afb3	-0.03284254709464509
102	0xbfa82be348fec746	-0.047209837589788736
103	0x3fa2cf24a328958a	0.036736626545727694
104	0xbf6ba9cf4f8f80a3	-0.0033768700636614564
105	0xbfa891f0ad653acf	-0.04798843495028892
106	0xbf71e7632af24a00	-0.00437105882078237
107	0x3f9d991890cfad0a	0.02890432723863249
108	0x3f985522d8769e96	0.02376226850688442
109	0x3fb2188a517ab240	0.07068695534935276
110	0xbfa0f119f097628b	-0.03308945714861008
111	0x3fab14483027df46	0.05288911426390412
112	0xbf8f29bfae5be7f6	-0.015216348179354338
113	0x3f69c81091838fbc	0.0031471561052160684
114	0xbfa21e99722ee878	-0.03538970488394083
115	0xbfa5e9b7d1662615	-0.04279875212803234
116	0x3fb32c72ec5684c0	0.07489698667497446
117	0x3fb3f5c0e4717d92	0.07796865060071514
118	0x3f88faf91437efab	0.012197442941207578
119	0x3fa19c6a8aee1542	0.03439648576663014
120	0x3f822244c3824b85	0.008854424683055981
121	0x3fb0b2164dc46e45	0.06521739386192234
122	0xbfb2cb36aaf2c4fd	-0.07341329263251235
123	0x3fb1343c621de2f1	0.0672033061545212
124	0xbfb1bb3d0a8fa7da	-0.0692632818969793
125	0x3fb0e03550f1193e	0.06592114664190249
126	0x3fb6957d035a6aec	0.08821851093163574
127	0xbfaa732ff4c685ae	-0.051660059575861936
128	0xbf9dec402ad1481c	-0.02922153722131081
129	0xbf40a0451a76d945	-0.0005073869150951446
130	0x3fa19dfb1766f03c	0.034408423048688935
131	0xbfb6e48a8172ee99	-0.0894247594869121
132	0xbf7a844977b9da8f	-0.006473814948199887
133	0x3f9c1fb2d92ff7e0	0.027464670663896018
134	0x3fa0953a2c398f6b	0.03238851346830426
135	0x3f9b729c2f97d96d	0.02680439033971409
136	0xbf931a67a788da02	-0.01865541420030504
137	0xbf91592ec95e98b1	-0.01694176773130413
138	0xbf97ce69051c914c	-0.02324833005617792
139	0x3fbab10743575b1c	0.10426373857567878
140	0xbfa5c17b72e01cb7	-0.04249177720344604
141	0x3f847af7293bd580	0.01000016302666995
142	0xbf8ac3d7ae9cd41c	-0.013068852440122618
143	0xbf7ba5e97c99726c	-0.006750022943006511
144	0x3f8b1ba01ef788b7	0.013236285157237722
145	0xbf988e20fd35bb95	-0.023979678587632575
146	0x3f596416bcfcd8a8	0.0015497419407899757
147	0xbf92f47743299d76	-0.018510688280370023
148	0x3f9ef4a9d1dff181	0.03023019164537422
149	0xbf90e9d2a600f84b	-0.016516963369433573
150	0x3f6373bae6815048	0.002374520339836681
151	0x3f2c2c613cdd916b	0.00021494566902470076
152	0x3fb3e4ac5083a323	0.07770802465132624
153	0x3fb390dd5f3f2b1c	0.07642921042785783
154	0xbfa950e4fe3b1145	-0.04944530108835691
155	0xbfa0dac01b6a309e	-0.03291893324521421
156	0xbfaed71c0d1034ae	-0.060234905810014325
157	0xbf906b9c7103d456	-0.01603550376690451
158	0xbf759279142b4de8	-0.005266640628821297
159	0xbf9ee0d1955c0890	-0.030154490224056973
160	0x3f8a54d25a694c98	0.012857097038397478
161	0xbf97395f10997220	-0.02267979182066615
162	0xbf6eb865d730f44a	-0.003750037104991698
163	0xbfb414a2019307f9	-0.0784398321002583
164	0x3f995481f78aedfc	0.024736433728987692
165	0xbfa5523ff8e14b7b	-0.04164314187132497
166	0xbf94a5806ca422ae	-0.0201625887212084
167	0x3f986e05aa2b316d	0.02385720111014804
168	0xbfaefe0292d903b7	-0.060531692910906036
169	0x3fa4e8d7a65757c1	0.04083894639522568
170	0x3f839b768351b27e	0.009573865778486065
171	0x3f82b032bf037b36	0.00912513394763224
172	0xbfae666c76604c2d	-0.05937518067380441
173	0xbfacf4363f6786e5	-0.05655068897227781
174	0x3f574903aebeceba	0.0014212165797119884
175	0xbf8c530822710545	-0.013830245543547401
176	0xbf9a01876ff49277	-0.02539645787068642
177	0xbf7ade4fa68ef74e	-0.006559668669920372
178	0xbfa3a4d6239b6c35	-0.038366977545330284
179	0xbf7efa51fe3e8472	-0.007562942777355907
180	0x3f953148f3a88070	0.020695819732396037
181	0xbfa39474fc80e8e8	-0.03824201185530446
182	0xbfa28a4aa0a1620f	-0.03621133051700919
183	0xbf7ac4ae1631d24a	-0.0065352249395017135
184	0xbf952b33d9ada5dc	-0.020672617112188138
185	0xbf74160b88ce10b2	-0.004903836303928143
186	0x3f500df1671b91f5	0.000979886765372415
187	0xbfb2a68ff492ebda	-0.07285403939287907
188	0x3fb04487f077b59e	0.06354570027152426
189	0xbf849972b7d66ae8	-0.010058304057385795
190	0x3f58cbf658da5af8	0.0015134721501561237
191	0xbfaa3674c37f3637	-0.05119671713292145
192	0xbf89624857a2b10c	-0.012394490408347746
193	0xbf8d4b21f6b0c582	-0.014303460446259523
194	0xbfa6e8aba6a69588	-0.0447438851290754
195	0xbf87507960145fec	-0.011383960957161286
196	0xbfb0db81ac157dfe	-0.06584940387028124
197	0x3fb7782b8f604ea8	0.09167740106959832
198	0x3f7c3348221e7acd	0.006884843607535896
199	0x3f9255b3337b2bf3	0.017905044572028527
200	0x3f83790853207f8c	0.009508194958527637
201	0xbfa209b2eecb2d49	-0.03523024716340701
202	0x3f4d0b0f6006430d	0.0008863282273968445
203	0xbfbc9ac2a3191b52	-0.11173645479094077
204	0xbfa6846c21d77f1e	-0.04397905266864498
205	0x3f96536f76953b02	0.021802655804374467
206	0xbf8a387b149fa4ed	-0.01280304104507698
207	0xbfb77705ba08eef4	-0.09165988723628599
208	0xbfaf980d71f58ea3	-0.06170694366553888
209	0x3fa0e938bd1952da	0.033029339869846644
210	0xbfb30bac9209a7b4	-0.0743968826806441
211	0x3f4e87f6b583bc45	0.0009317354806891517
212	0xbfb3bbdd2e481a82	-0.07708532695697026
213	0x3fa21da7c763cfd8	0.03538250264128323
214	0x3f94907d3a64ea80	0.02008243245038921
215	0x3fa2c201cba4a575	0.036636406048567695
216	0xbf8fcb8b4c871f93	-0.01552494838041677
217	0x3f8d121a55a2677a	0.014194684732774954
218	0x3f7e7f26b8cf4a05	0.007445479638550361
219	0xbfac2c9075feca47	-0.055027498630256626
220	0x3f64d47f78b33abf	0.0025427331616819366
221	0xbf9e01bb89360be8	-0.029303484201147173
222	0xbfaa68dfb86a6ad5	-0.05158137441795466
223	0xbfa8ac534f256def	-0.048189738665964536
224	0x3fa71b588cc95e48	0.04513050764643062
225	0x3fa119b690f4f950	0.033399300761163375
226	0xbf9056d48db61f13	-0.015956231259706643
227	0xbfb5e0483bc50b3b	-0.08545352420064216
228	0x3f9801dfe060c06b	0.023444650716726672
229	0x3fa834dc65d622cd	0.04727829688187555
230	0x3f9a3087253d72fc	0.025575744293166544
231	0xbf864b6ce0d0aa32	-0.010886049853145872
232	0xbfae3adf21e638e7	-0.059042904747103546
233	0xbf70e77a450c9f5c	-0.004127004257305913
234	0xbfa33fc3f1164e2c	-0.037595866374570214
235	0xbfa0fc20af747491	-0.03317358152183048
236	0xbf6f13b9ea85e7cd	-0.0037935858892383712
237	0xbf9b7681c094ebdc	-0.02681925523686944
238	0x3f63a72b3a213a57	0.002399048259611274
239	0x3fa34b299a5379c7	0.03768281945098156
240	0xbfb0032e9eec9a15	-0.06254855518327702
241	0x3f855456fafa3d16	0.010414771589494037
242	0x3f90cbb606a8b8d4	0.01640209594386806
243	0xbf89a0c94b61e539	-0.012513706791866685
244	0xbfb5b1cca4443c29	-0.08474425325788161
245	0xbfa2ce0bcca6e5f7	-0.03672825692360598
246	0x3fb7eb0710924029	0.0934299865205054
247	0x3f9df0551ce1f240	0.02923710812364022
248	0xbfa9959f4692968e	-0.049969651570148974
249	0xbf90d54cc2b86545	-0.016438674340041776
250	0xbf9307732c1253b8	-0.01858310657970083
251	0x3f6bd0be302049b9	0.003395434819148249
252	0x3f8854815ed89ae9	0.011879931170438467
253	0x3fa0981c3e03b32d	0.03241050965320933
254	0x3f7310073393d88b	0.004653957491646331
255	0xbfa2ce330aec565e	-0.036729426463506284
