weights/w_10_10000.npy (npy, 800128 bytes, 1 tensors)

array f8 [10, 10000]
0.0019586242314241146 -0.0002692396082246948 -0.010930554690307065 0.001607085282358868 -0.0017040629460613973 0.0017965515811358412 -0.004386468341164672 -0.0074124036556433
-0.012469638946725236 -0.01334406346477917 0.01770795835976296 -0.015169492908035952 -0.00967914467103821 0.015159313850774027 0.018978266175455127 -0.030215117242899842
0.006113437405322592 -0.016852798019687316 0.005016261405897473 0.025178473496609788 0.0020379346852651835 0.0066953914663160415 0.009425853197293632 -0.010880026009546052
0.007164949657020769 0.009232592726480313 -0.0025957473380254868 -0.015611137910628377 0.005933108261940017 0.0012498617279822234 -0.0036489499674745734 0.006509137849306056
0.010677727180944216 -0.01377938343087015 0.0004654463022689077 0.010745379725064817 -0.001669742821222581 -0.00110214910789458 0.004340459466364396 0.00033036950822174784
0.009397369456337448 0.009631183314734112 -0.005798619097421447 -0.005829040332493297 -0.0003208434650642327 0.005739419995850105 0.002675831229062154 -0.012646420383302213
0.011911049684211056 -0.005313134201977779 -0.0026088382495921604 -0.0016828029796293448 -0.009446062392996994 0.0035995408944890384 -0.004578972006702952 -0.004658654298240801
0.016246373309293145 0.009708418724287618 -0.012455834992171833 0.00150343034611495 0.019788846360537512 -0.007031035141113774 0.012038491206881753 0.01170167095484522
-0.008621904681984307 0.007182328522264714 0.007945590911505082 -0.015500992599406054 -0.007059862078429859 0.0026093800847901195 0.014963677208574345 -0.0039021614315619675
-0.006259582927191952 -0.008890033980690765 -0.00572831952817472 -0.0011403237718610548 -0.00832427921860615 0.004868496562397762 0.01408507931250051 -0.011758393440848539
0.01025504461559028 0.0006236505983132675 0.008398420239144182 0.010963282351102638 0.0012086069207373562 0.0007532811203372724 -0.019162344396995486 0.015952731066843
-0.007738123116390958 -0.000752536682920166 0.019995317515377316 -0.0028114410784766206 0.0008716555973128814 0.0007353420499167547 0.0015045962014400296 -0.009336958863418447
-0.0004615037387635147 -0.0012170708422379883 -0.008267267069906476 -0.004849781456156147 0.020950720518029098 0.002304160311923389 -0.005826577894298028 0.0016653185821218683
0.013550536738590297 0.00027202380935170955 -0.003093832370821222 -0.00793758156492706 0.0036740073867043534 0.009880640903871618 0.0008831112231837818 -0.008575967821612207
0.00582878717185472 -0.003509802869002668 0.019228623318399137 0.0008484415041813431 -0.012360306719556126 0.005872063842954428 0.002116714219606404 0.0024723084784120768
0.008748257165502838 0.006355030426643008 -0.011103893530862946 -0.009743813280940006 0.013184430529253728 -0.013376780690289056 0.01294467120626398 -0.007951850063256933
-0.013437072928244718 0.02003130267532788 -0.011276545985937305 -0.00670068228366969 0.0032181252242800425 0.016731604896708684 -0.001206587947131405 -0.0008462470555508172
-0.007688493657089865 -0.00014374523335053933 -0.0062643251676431835 -0.0034553628980052214 0.011119611607249313 0.0006419358204098922 -0.005222807150360679 -0.007994757958318152
0.010420549338608838 0.009083191037456738 -0.02183809279921886 0.00504327960426398 0.004005907140508341 -0.004582150092232549 0.008067027728912685 0.0036233863168982985
-0.004952812709574386 0.0050916192770742484 -0.015600918591266501 0.00528060279261111 -0.002364745375958654 -0.00935700945930858 0.006392122894375627 0.0027913571615934218
0.009029504435865926 0.009036478680859588 -0.006010489184344418 0.0070459082852366885 0.009974654101985305 0.004548796487613944 -0.014523853479282967 0.0035984189127514915
0.0011531145992675742 0.00880082277287203 -0.014400090985203916 -0.009489471094658095 -0.02057345787713562 0.008141053914646687 0.005644933793529259 0.0011040590816867408
0.01637715514192426 -0.007271868751835581 0.0041109320804889075 -0.0004274202718528608 0.0025497995728828576 0.00035209177678070406 0.0018251684023785422 0.03872095668439922
0.0011456909867931647 -0.012419261233555022 -0.003720641078085546 -0.00013754534757252725 -0.006142010838609528 -0.0049980365192483275 -0.0006621085551053664 0.005395594442793858
-0.005283673992136554 -0.019439447266027175 0.0026426870969282466 0.004456907558300689 0.000327408259885287 0.010713894174199354 0.020079618849086423 -0.007400495376957383
0.004860687301577706 -0.009471561066814765 0.009915818224600149 -0.009615076811117429 0.016499037065859083 -0.015471220156471283 -0.0022832842523562023 -0.011720327913143801
-0.019567345883518692 0.005025706334336804 -0.006705133653764893 -0.014259659196962834 0.00911434336811715 0.012355893478139425 -0.012557048990638277 -0.013599742293677799
0.021225410708938935 -0.0018569505766114203 -0.004251473277319267 -0.0001451282327825107 0.0054529161266293836 0.007395719109104655 -0.005892003866562636 -0.0030692385141364224
0.0013388081771955275 -0.007561752690169497 -0.004111605813360789 0.009719028821226869 -0.008672823768563865 -0.004585365537712878 0.008749428543926102 -0.003720217726389677
0.011567567787845403 0.006563997708277842 0.005975079010998488 -0.012248459533550943 0.009016572777930406 0.004338658922469088 -0.002231210179505235 -0.006953477043557251
-0.005342507742191003 -0.017290436247788015 -0.012593814527292784 0.006635265213521323 -0.008142783445186248 -0.0056895733373815115 -0.0113129842691573 0.005756999294020193
0.017043363526554636 -0.008011123201553259 -0.002403261911685844 -0.022633309576012523 -0.0025654642692493615 0.01743090657574179 -0.015426513181425922 -0.006354876525091346
00000000: efa0 9c60 880b 603f d2a1 e64f 17a5 31bf
00000010: dd45 6037 c262 86bf 0600 b2ae 9a54 5a3f
00000020: ea07 eaa7 5beb 5bbf 00ed 5692 486f 5d3f
00000030: b2b5 1fa1 8bf7 71bf de62 92f4 775c 7ebf
00000040: 33be c09b ae89 89bf dc71 6ae1 2154 8bbf
00000050: 2eee 22f8 0822 923f 0ccf 7edf 2e11 8fbf
00000060: 67dc 85ce a8d2 83bf 2741 c0a9 d80b 8f3f
00000070: 73c3 3be2 096f 933f e5bb 9c31 b6f0 9ebf
00000080: ad53 8d5b 670a 793f 82d3 5c21 dc41 91bf
00000090: dcf8 fb6a ee8b 743f 70b0 ecc0 62c8 993f
000000a0: 611b 63da dbb1 603f 86a0 1b76 a06c 7b3f
000000b0: 4d12 c199 dc4d 833f 7402 205f 4448 86bf
000000c0: 192f 4587 fe58 7d3f 2548 8a9e 89e8 823f
000000d0: 14af 9d3d ad43 65bf b167 3c76 bbf8 8fbf
000000e0: dfb5 2d9f 504d 783f 8bd5 c1cf 4c7a 543f
000000f0: 2528 cd18 67e4 6dbf f2bd 0163 53a9 7a3f
00000100: 1858 4d48 34de 853f ff9a 8e89 5d38 8cbf
00000110: a633 73a5 e480 3e3f 329e 0474 ac01 863f
00000120: 4e1a d5b3 685b 5bbf 0513 eb97 bf0e 52bf
00000130: 7087 5237 4dc7 713f 9aa0 c03b aea6 353f
00000140: 1b00 de93 ed3e 833f be56 de8a 83b9 833f
00000150: ac8a 2af6 4ac0 77bf 68a0 8519 31e0 77bf
00000160: 98b8 8830 dc06 35bf 4e09 e2d2 3782 773f
00000170: 4e3d caf3 9feb 653f 3f79 a9cf 5de6 89bf
00000180: 3076 d606 d264 883f 9024 309a 39c3 75bf
00000190: 4d3a cd5e 215f 65bf b6f2 d6f0 2f92 5bbf
000001a0: dc61 6e08 7558 83bf 64ab 84cd c87c 6d3f
000001b0: 5917 4a70 66c1 72bf 3b45 abfd f314 73bf
000001c0: a507 2ba8 e3a2 903f 3b61 55e7 01e2 833f
000001d0: ba6a 7cdf 7182 89bf 23b3 c60a d8a1 583f
000001e0: 2fbc c6ff 8643 943f db4c cf1f 93cc 7cbf
000001f0: d4c3 36f0 a2a7 883f 8b16 7ab0 0bf7 873f
00000200: 3b58 1b75 5ca8 81bf dacb cba1 376b 7d3f
00000210: 5802 e628 c745 803f f6ee 2802 fcbe 8fbf
00000220: cfa7 db4b cdea 7cbf 8d71 1044 4460 653f
00000230: e7e9 e8c1 46a5 8e3f ffc3 6ef7 6cf7 6fbf
00000240: 659c 57ff a5a3 79bf fdbe a829 f034 82bf
00000250: ce82 8d10 9476 77bf a9cc a553 ddae 52bf
00000260: 4fb1 0dd8 510c 81bf 1a4d 4218 fdf0 733f
00000270: 97ee 1158 a3d8 8c3f 956c 41da c814 88bf
00000280: 19a0 f1c9 9800 853f 26e8 4176 8f6f 443f
00000290: 491b 1fe2 3033 813f b007 3dd9 ea73 863f
000002a0: a4b8 b0cc 43cd 533f 5cc1 65e3 faae 483f
000002b0: 7fc7 ff29 4b9f 93bf f81b dba8 e955 903f
000002c0: 5725 7a9b 02b2 7fbf 1c6f 9938 bca8 48bf
000002d0: 02ec 340b a779 943f d4f2 92ef 0408 67bf
000002e0: 99ad 5424 fa8f 4c3f a057 2307 7f18 483f
000002f0: 86d1 a5de bba6 583f 7c28 b367 411f 83bf
00000300: 4a57 0877 bf3e 3ebf 008a b7dd c3f0 53bf
00000310: 9755 8acd 6dee 80bf 2a75 f34b 5ddd 73bf
00000320: d06e cf0d 1b74 953f 1f08 e7a5 2ce0 623f
00000330: c5c5 0e18 9cdd 77bf d6a4 3f36 da48 5b3f
00000340: bd7c 1541 62c0 8b3f 3104 6a5d cdd3 313f
00000350: 7872 439b 3c58 69bf 3776 d829 9441 80bf
00000360: 5aec 46b2 f318 6e3f f37c 5d2c 4d3c 843f
00000370: 7649 41e9 12f0 4c3f 0d5d 9aea 4690 81bf
00000380: d892 7424 eddf 773f a070 3511 97c0 6cbf
00000390: 7fd1 3211 abb0 933f 14e6 aa41 3ecd 4b3f
000003a0: 013d 0849 5c50 89bf 53f1 a522 4e0d 783f
000003b0: 765a 244b 1257 613f 18d3 ee81 ce40 643f
000003c0: edf5 6133 9bea 813f 9d6d 8f7d bb07 7a3f
000003d0: 032a 965c a3bd 86bf 8d2c 0a7b 90f4 83bf
000003e0: a427 844f 7000 8b3f 5275 b91c 4965 8bbf
000003f0: 0632 e85b bc82 8a3f fd0e b73f 0f49 80bf
00000400: 8c08 3f66 e584 8bbf 1118 8cf7 1583 943f
00000410: c182 c561 2818 87bf e6d6 4eb4 2c72 7bbf
00000420: 6386 f7d2 e55c 6a3f e623 5dff 1622 913f
00000430: e98a 73f1 cbc4 53bf 5150 c6b6 d5ba 4bbf
00000440: 57d6 004d f87d 7fbf c438 0327 4ad7 22bf
00000450: 76e5 9ffb 9ea8 79bf 4e5c 91d4 6b4e 6cbf
00000460: 5330 9401 e1c5 863f 1dce 69ad f208 453f
00000470: 5140 779e 8264 75bf 7867 c33f 8e5f 80bf
00000480: 51e9 ec74 5e57 853f 99f4 9743 359a 823f
00000490: 18c5 8499 b95c 96bf 7c38 700f 43a8 743f
000004a0: 2c7a 8c82 7f68 703f 31fe a98c bbc4 72bf
000004b0: 503f 2c22 7285 803f 1055 6bb7 caae 6d3f
000004c0: 10fb c589 6649 74bf 05a0 7524 f3da 743f
000004d0: a1ac 18d9 5ff3 8fbf ff46 c204 1da1 753f
000004e0: ff12 b301 3b5f 63bf 2ac2 ed8c c429 83bf
000004f0: 7da0 886c a02e 7a3f 3354 0e77 e6dd 663f
00000500: 0351 0292 0f7e 823f 560a 3ea3 b781 823f
00000510: ebef ac67 749e 78bf a4c6 7d9a 2bdc 7c3f
00000520: 4e69 4169 976d 843f 614a 6842 c2a1 723f
00000530: 3ab1 a49d aebe 8dbf 20bd 8571 6e7a 6d3f
00000540: b463 835f 83e4 523f 2026 e66f 2a06 823f
00000550: cc1c ba7e cb7d 8dbf a52a 1040 376f 83bf
00000560: a5e1 fd62 3511 95bf f80a 8cc2 41ac 803f
00000570: 7e2d 8060 241f 773f ac3d 8469 c216 523f
00000580: babf f146 2cc5 903f e0dd 8467 1bc9 7dbf
00000590: 43eb 77ed 9fd6 703f 3d72 d916 ec02 3cbf
000005a0: 6041 dc38 51e3 643f b75c 9daa 1e13 373f
000005b0: a021 44a6 4fe7 5d3f 2e37 42b5 3bd3 a33f
000005c0: bb4d 7454 60c5 523f 9f73 b506 456f 89bf
000005d0: da5a 04f8 bf7a 6ebf bb45 018a 4107 22bf
000005e0: 6ba3 ef7a 5d28 79bf e666 4f36 d278 74bf
000005f0: c41a 984b 2bb2 45bf bdd8 c9da b019 763f
00000600: 5eb5 fb6f 55a4 75bf 1924 0a39 efe7 93bf
00000610: bdad f4d4 1da6 653f bb63 4403 6841 723f
00000620: 6b16 c6c4 ff74 353f 9259 ba88 2af1 853f
00000630: cd85 1769 c08f 943f 5946 e459 fb4f 7ebf
00000640: dc15 f1cf cce8 733f f039 3168 d365 83bf
00000650: 67e3 e697 be4e 843f 9343 9ec3 11b1 83bf
00000660: be13 74a2 1fe5 903f 7d61 cf04 60af 8fbf
00000670: a178 1fe6 64b4 62bf 39cb aec8 d300 88bf
00000680: 1993 8e5a 7609 94bf c640 86c5 d595 743f
00000690: f2b4 219c d776 7bbf 0b78 390f 2b34 8dbf
000006a0: 934d 8675 8aaa 823f 2135 36f3 0b4e 893f
000006b0: ce13 fe95 82b7 89bf 0e3f 1583 2eda 8bbf
000006c0: c832 5b33 1dbc 953f 7b22 cc7f 9d6c 5ebf
000006d0: ac76 f92a fe69 71bf 1f08 ed06 b205 23bf
000006e0: a942 e806 cc55 763f 959c 433b f94a 7e3f
000006f0: 02fd a2be 3622 78bf efbf 56e1 a824 69bf
00000700: 6709 8c55 5eef 553f 3153 1388 12f9 7ebf
00000710: 04f2 09c8 54d7 70bf 3808 7df7 91e7 833f
00000720: 1a81 99b3 0ec3 81bf 3b19 65b0 1ac8 72bf
00000730: 3089 a36b 38eb 813f 54c3 00af dc79 6ebf
00000740: c195 beaa bcb0 873f e124 cfb7 d9e2 7a3f
00000750: 1092 170f 5379 783f 50dd fb68 b815 89bf
00000760: 2b2f a0e9 4777 823f 7657 e3e2 69c5 713f
00000770: 111a 0cd8 2f47 62bf bcd5 edc7 3f7b 7cbf
00000780: 645b 8080 06e2 75bf db0c df88 95b4 91bf
00000790: 7680 362c c9ca 89bf 0b4f 7a71 942d 7b3f
000007a0: b78d c3e4 29ad 80bf 7c90 9836 f34d 77bf
000007b0: 8d48 a60b 432b 87bf 8df9 0dbb a694 773f
000007c0: d770 d7c3 d073 913f 323b 3dc1 2268 80bf
000007d0: 25ac 0f6a 01b0 63bf c584 b7b1 2f2d 97bf
000007e0: 7edf 5524 2b04 65bf 2ad2 ba56 68d9 913f
000007f0: ea23 d88c ef97 8fbf e6b2 862d 9207 7abf
