weights/w_10_1668.npy (npy, 133568 bytes, 1 tensors)

array f8 [10, 1668]
-0.011543237603575927 -0.002267143570020276 0.01344604108366816 0.0037056694886392926 0.0028539004678732973 0.010888039909928232 -0.021510311423332835 -0.06625064071749219
-0.014288311802588593 0.0033906571385142704 -0.037230935255240745 0.0008235241805385864 -0.02608524581848819 -0.027876837920362697 -0.009707811908659924 0.0420479629695312
0.03471133291819437 0.0027094357082133257 -0.0042494052936692586 0.03594092191819647 0.0246856852956087 -0.020246289257617494 -0.0007015851134688165 0.004687375465166539
-0.008631719403471416 -0.04043660065779276 0.018914898092872803 0.026480819568149443 0.02057170812531375 0.028269353615738287 0.027941780116781608 -0.03331286181887158
0.04355808299575112 -0.03283981676695152 0.04601574186955532 0.05097962588224024 0.039312667596628596 0.03508361601517081 0.02173519982560353 -0.03258877031437817
-0.001356257746846278 0.0020955663396803846 -0.05133479229787853 -0.021146673978338665 -0.033531456965003266 0.010598806927148622 -0.03772459437574095 0.005784802008999364
0.009868571518922233 0.027229098271840543 0.013653415471750634 -0.008289955245660625 0.005182519482777754 0.016433179776056937 0.011339165137387594 0.029182965191534564
0.01603999542951792 -0.004709665067788042 0.01112678073174311 -0.011517990456287585 0.003747610809129323 -0.014254959067747066 0.023441757652365582 -0.03184798844835186
-0.013625773042277363 -0.0041181660739842574 0.00022216699875445952 0.020248971722154167 0.026950350823751426 -0.0013973918759567607 0.010170332638850633 0.018660814901825834
0.01122898017742533 -0.012871148352205252 0.030918255676713555 -0.026958435824760763 0.0019965889391693587 -0.028912654223615254 0.002783538892602085 0.0516429657218439
0.02279466678574776 0.027067034285532515 -0.008528333758089462 -0.03194169801560699 0.009935506492306581 0.030952421573526397 -0.0425995235093184 0.023004752881486595
0.061123868911875885 0.012659763035500428 -0.000964161502700055 0.00043334917534678806 0.017585232037453533 -0.01698441494138211 0.020189962395450775 0.012803759644966063
-0.04644822068963605 -0.018066325461015494 0.01414228686288356 0.03700542774111917 0.018190628728081797 -0.03243645469316568 0.043499965350284005 0.011536901654907013
-0.007180633373060323 0.0137446972311805 -0.0483852615198414 -0.009491888873297308 -0.010936034779181895 -0.02877939228509677 0.058291927653375576 -0.04382787234517499
0.02920041176398241 0.001279010689738923 -0.03533869551090639 0.0003457108858987072 0.01288937150932065 0.01071815740450333 -0.017247483637867947 -0.010653352939437737
0.03545146968806217 0.0020501087308817177 0.017173011137860964 -0.025105796460469128 0.006661430245101842 -0.02764484159252835 -0.010570676022212162 0.01680020471715162
-0.025360866658445575 0.013586732310131466 0.012764536044577167 -0.02174465888805568 0.009153193962985862 -0.004628211091541305 0.017691756845162453 0.017909916308173488
0.015668412702063428 -0.020836099514604314 0.029573841009428833 0.0015517245118319084 0.03473953342549165 -0.018659535971871095 -0.026445225956464275 -0.015923499730111926
0.012180298320376036 0.024164179508655813 0.02412253753621648 -0.03869138256944385 -0.0007361465174312719 0.017031388765503027 0.011766349935924476 0.06277633363824794
-0.0231394571468696 0.03048206013212897 0.010372456699283817 0.027291218277378262 0.019907884121765165 -0.012749772925197475 -0.031425926384154895 0.0073781721105231155
-0.01001212308684212 -0.017467323538332247 0.006191389010623148 -0.06298029544158068 0.01040759515911629 -0.041803714315861766 -0.0003553764133825633 0.008656203415233817
-0.001365730454356958 0.023711737592000702 -0.01744255757626515 0.0014462531452183347 0.033784719686185946 -0.03168344505977326 -0.013183446652813055 -0.028531392938162682
-0.016851617137443105 0.012119504226707056 -0.048678314320564076 0.01976248882460657 -0.003495890938902567 0.0014833789921708054 -0.01679135543934401 0.010533612608631612
-0.017987675617175965 0.014302571510356703 0.012424996475188329 0.022041305397728094 0.055743315433250305 0.016911741600366643 0.02062388825133172 -0.04495861173607392
-0.04418341699963063 -0.0008922770105940436 0.02172793601960859 -0.0043186114842137845 0.016334933152963298 0.005285457407867997 -0.04686769557900304 0.007168362062568314
0.01390636337027735 -0.02035911633475824 -0.007264273398892059 -0.023461785858125958 0.015567757114798644 -0.0016985175681250959 0.01757492553760519 -0.026891245977317516
0.038401361132503434 -0.006966188372637803 0.018271128777044055 0.0320343286252693 0.008739223653149114 -0.015240501625601402 0.010865230010830383 0.03726861677026161
0.01882959938204859 -0.005749938214836975 0.006944256041558317 0.0189194927646234 0.032478723908772295 -0.0022593520621699108 0.03508794419542261 0.017833005025874146
-0.04213866613422746 -0.0009187558197094537 -0.022261438009947614 0.0012960667179118682 0.031559258573568304 0.01112529064358456 -0.011443243542413462 0.05270891383307954
0.009494012876201153 -0.042749764530429966 0.003957502632370875 -0.016297549243185216 -0.018826447160761196 0.01513984493436809 0.013145383813108235 -0.02737140073050163
-0.010386802487648712 0.038288023086468205 -0.01596180589305794 -0.029896233077559436 0.031199456476659712 0.03442042392944764 -0.003707948142462986 -0.011206942716752634
-0.03023423084703105 0.019720560477359296 -0.03983018225611143 -0.015703925978054763 -0.006752225244352863 0.013652173430016451 0.015135468263431786 0.024451156944556806
00000000: d280 fa1f fba3 87bf 7665 a26f 8b92 62bf
00000010: 2760 b815 9989 8b3f 4584 6e28 5a5b 6e3f
00000020: 5525 9e25 1061 673f f03d a5fa 774c 863f
00000030: 4526 5c90 cc06 96bf 277e 384f cdf5 b0bf
00000040: b9e1 41bf 3043 8dbf f623 b330 b9c6 6b3f
00000050: a939 a4e2 ee0f a3bf 5ee1 20b6 38fc 4a3f
00000060: cd4a cb36 17b6 9abf 4a43 bcec be8b 9cbf
00000070: d9ab 4e75 b0e1 83bf a496 a283 4f87 a53f
00000080: 2d51 5e0f afc5 a13f b38b 3c38 1932 663f
00000090: 165b 380c d367 71bf b717 7438 d966 a23f
000000a0: 2b90 184c 3447 993f 5b44 e878 71bb 94bf
000000b0: cb16 118f 52fd 46bf a13d 3bc5 1133 733f
000000c0: 4688 5ec4 81ad 81bf a1f4 c52a 1bb4 a4bf
000000d0: 373f dd52 6d5e 933f cbdf 10b8 c91d 9b3f
000000e0: 67fc 7bf6 bf10 953f efdc 0835 a4f2 9c3f
000000f0: 7fa5 2c1f c59c 9c3f 5cb0 1828 620e a1bf
00000100: bceb e2bb 3e4d a63f c797 0a66 61d0 a0bf
00000110: 49a1 dc14 608f a73f 0e63 da63 001a aa3f
00000120: 97c5 4a3b ca20 a43f 9a37 d2ce 7af6 a13f
00000130: d524 b191 c041 963f 0729 6fad 79af a0bf
00000140: fccc baaa 8e38 56bf 7825 a89c b82a 613f
00000150: 72f7 21cc 8d48 aabf d8e2 9f44 79a7 95bf
00000160: 5195 1afe 082b a1bf 2f9f 07c9 d3b4 853f
00000170: 4285 3256 a350 a3bf a26d 14f7 cdb1 773f
00000180: a1c0 743f f935 843f ecf9 4eda f1e1 9b3f
00000190: 5c5f 7067 52f6 8b3f a4c5 52f5 52fa 80bf
000001a0: 3bd6 07fb 433a 753f 996e d406 dcd3 903f
000001b0: a5a3 6efb fc38 873f 4e4c 64a4 23e2 9d3f
000001c0: 57ea 30df c96c 903f 116a 0f17 714a 73bf
000001d0: be1f d23a a3c9 863f d968 9a82 be96 87bf
000001e0: ed88 a03b 4fb3 6e3f aeab 0338 b431 8dbf
000001f0: c721 e9b9 1d01 983f 2a7a a829 614e a0bf
00000200: a45d cb4c d4e7 8bbf 5255 b7c9 35de 70bf
00000210: 5f93 e0fc af1e 2d3f 4e10 4c7d 25bc 943f
00000220: c46d 9d6d df98 9b3f b425 0b1a 16e5 56bf
00000230: da20 96f0 2ed4 843f 2855 e116 d21b 933f
00000240: b329 0935 38ff 863f f9a2 e049 305c 8abf
00000250: 3964 ec03 09a9 9f3f 00e9 df00 fe9a 9bbf
00000260: 5b2e 5086 265b 603f 6aed 5261 479b 9dbf
00000270: 110c 5910 81cd 663f 7002 b061 f270 aa3f
00000280: 0fd6 7831 7c57 973f 2b6b 39ec 75b7 9b3f
00000290: 7697 a494 4d77 81bf 9223 b688 a95a a0bf
000002a0: 8814 a11b 1159 843f ffaa 8fd9 fdb1 9f3f
000002b0: e16c 98d0 9acf a5bf 583b 1dd5 8e8e 973f
000002c0: e986 f6b3 a04b af3f 415f b3a1 5ced 893f
000002d0: 90e7 a20f f997 4fbf b451 2e89 6466 3c3f
000002e0: dc46 f9f1 dc01 923f 9716 dcca 5c64 91bf
000002f0: 1ca2 c870 adac 943f 471d 8787 db38 8a3f
00000300: 6f85 a3a9 0fc8 a7bf df49 0e94 fa7f 92bf
00000310: 88ac 889c a1f6 8c3f c45e d81b 60f2 a23f
00000320: 0e54 ec6d 90a0 923f 1eee 35d0 829b a0bf
00000330: 11fb 1ca1 a045 a63f a4a0 70ba a8a0 873f
00000340: 9e9e 0798 7069 7dbf 658c cf08 2e26 8c3f
00000350: b718 acf7 f3c5 a8bf f5fb 4dc2 7b70 83bf
00000360: 2fc9 cbbd a165 86bf c929 a752 5878 9dbf
00000370: 45ba c885 70d8 ad3f 7867 c05c 9b70 a6bf
00000380: 0f62 3976 b6e6 9d3f 61bc 5a45 8ff4 543f
00000390: ae5a 01db e917 a2bf 78f5 e4f2 10a8 363f
000003a0: 2fc8 c928 be65 8a3f c3ad 34bc 66f3 853f
000003b0: 34d9 a608 53a9 91bf 16b5 bdd3 6cd1 85bf
000003c0: a78b cfed b126 a23f cfe7 79be 63cb 603f
000003d0: 0105 d844 cd95 913f 1274 f37a 55b5 99bf
000003e0: 35bb c110 0449 7b3f c40a 2cea ed4e 9cbf
000003f0: 7700 7f1e 14a6 85bf 051a 4ea7 1234 913f
00000400: 15c0 95f3 32f8 99bf 60c1 7357 5cd3 8b3f
00000410: 7f6d e106 4b24 8a3f 87c2 255b 3b44 96bf
00000420: 80bc cce5 e8be 823f 6b39 6ff4 07f5 72bf
00000430: c32a 3cb4 c91d 923f b953 4523 fa56 923f
00000440: 00d9 8a60 610b 903f a438 f7f7 0e56 95bf
00000450: 7f76 cfdf 9a48 9e3f 644f f781 676c 593f
00000460: a3ae e14f 61c9 a13f 42e8 0743 7c1b 93bf
00000470: 452f 7912 7514 9bbf 9195 50fa 3f4e 90bf
00000480: 7f45 88f7 fbf1 883f 06bc e5a2 7ebe 983f
00000490: d621 4217 94b3 983f 94aa 8b5d 5bcf a3bf
000004a0: 84cc d49b 3e1f 48bf 5f60 0327 ad70 913f
000004b0: 2a3e 58c1 f418 883f 3666 f01b 1c12 b03f
000004c0: 5fa1 c5ae deb1 97bf 455f 876d b036 9f3f
000004d0: 9ab9 6b92 273e 853f e799 e0a7 3af2 9b3f
000004e0: 2731 f17c bb62 943f e510 f68d 8d1c 8abf
000004f0: 9405 221c 0f17 a0bf 4a0b b4fe 9238 7e3f
00000500: dba8 c569 3c81 84bf 4016 623d f4e2 91bf
00000510: 313c 1455 245c 793f 28c9 3605 7a1f b0bf
00000520: 8d11 b5c6 9350 853f 3708 ade3 4b67 a5bf
00000530: 9b5f c012 3a4a 37bf 1e8d 9bf4 57ba 813f
00000540: 234a bee8 4960 56bf 56b6 f4c5 e347 983f
00000550: 0a06 6539 76dc 91bf cd02 787d 06b2 573f
00000560: 763a 5014 3b4c a13f 0e72 b600 d038 a0bf
00000570: d875 c741 ecff 8abf aa9f 505e 5537 9dbf
00000580: c2ca f5e1 8c41 91bf 8628 6152 1cd2 883f
00000590: 88fd 0f30 5dec a8bf efca c12c 9e3c 943f
000005a0: fd52 1828 6aa3 6cbf a596 9210 be4d 583f
000005b0: cfb6 dec9 c031 91bf 3e6d 4d8d a592 853f
000005c0: c2fd 067a 5c6b 92bf 29e1 15a7 aa4a 8d3f
000005d0: f15c 1ccc 4672 893f e3a7 60f7 fe91 963f
000005e0: c349 8349 638a ac3f 552f 5ec4 4f51 913f
000005f0: 122b 39b6 6d1e 953f aaf5 28ae d004 a7bf
00000600: 78f0 1376 359f a6bf c234 2c4a f63c 4dbf
00000610: ce87 741a d93f 963f 25d7 6b71 64b0 71bf
00000620: de81 b2ce 1aba 903f f00c 612b 34a6 753f
00000630: fe5b 80e7 0aff a7bf 766f fe89 925c 7d3f
00000640: e595 0d7f f07a 8c3f 723e 552b 05d9 94bf
00000650: afcf d68a 24c1 7dbf 9c99 ddcb 5d06 98bf
00000660: c8e8 70fd fce1 8f3f b1a9 085a 19d4 5bbf
00000670: bd93 a749 29ff 913f e1c7 15f8 6089 9bbf
00000680: ca39 5fdc 57a9 a33f 4be4 cff3 9388 7cbf
00000690: 7dcf 3bb2 aab5 923f 5bf6 96b3 cd66 a03f
000006a0: e3fa 42be dee5 813f f5e6 7380 6936 8fbf
000006b0: 39f3 7a7c 8240 863f 800f 6444 df14 a33f
000006c0: 70b4 2b06 1148 933f 2d4f 6349 3f8d 77bf
000006d0: 5a27 7f89 9471 7c3f 2f4f b9aa a15f 933f
000006e0: 040b 0222 0da1 a03f 580e f366 3482 62bf
000006f0: c13e 9b09 0cf7 a13f bf8b 80b5 d042 923f
00000700: 911b e301 3393 a5bf c3bf 6d19 151b 4ebf
00000710: dece dbd0 b3cb 96bf c4ec ad0a 193c 553f
00000720: 6b41 ebfe 8828 a03f f211 c83b dbc8 863f
00000730: 8dd9 3226 8e6f 87bf 13d4 3daa a9fc aa3f
00000740: 1a1b 7dd6 9871 833f 9bc9 2311 4ce3 a5bf
00000750: 3bef 1306 be35 703f 5089 0404 4eb0 90bf
00000760: 9dde 6b7b 3d47 93bf 9c81 e096 a301 8f3f
00000770: 33ba 908c f7eb 8a3f eacf ee9b 3f07 9cbf
00000780: d7a8 f407 ad45 85bf 6541 f8dd 7c9a a33f
00000790: fbe1 2ea9 4a58 90bf 8be9 5d3d 1e9d 9ebf
000007a0: ac83 e114 c0f2 9f3f 5dd0 2ec6 8d9f a13f
000007b0: da82 3a80 2160 6ebf d41c a763 aaf3 86bf
000007c0: a6b2 d4e2 b8f5 9ebf 2a77 3c69 a031 943f
000007d0: 4c10 5e24 9f64 a4bf 526b faa1 b014 90bf
000007e0: 3675 98a9 38a8 7bbf bdbd 35b3 abf5 8b3f
000007f0: aed2 9b29 58ff 8e3f e376 b45d b909 993f
