weights/w_10_10.npy (npy, 928 bytes, 1 tensors)

array f8 [10, 10]
000000 b6 ea 05 12 52 bf b0 bf 20 23 0d 01 e4 8b d5 bf
       -0.065419320488142 -0.3366632471339006
000010 c2 76 de 84 cd e5 ba 3f 91 32 7b 06 f1 c2 a5 3f
       0.10506901258346615 0.042502910653273614
000020 6f 53 80 06 67 7e cb 3f 7c 81 9d ce a0 90 cd 3f
       0.21479499642796493 0.2309762009490547
000030 86 ac 07 19 cb 35 b1 bf 15 ba fe 87 66 ac a6 3f
       -0.06722707139094738 0.04428406152816337
000040 0b 86 eb bb 6b d7 d4 bf 25 3d 22 b6 af f2 e9 3f
       -0.3256482443958652 0.8108748013782231
000050 bb 8d d1 e3 c7 b9 c9 3f 9c 98 4f 97 99 33 b0 3f
       0.20098208068803367 0.06328735298265759
000060 ef d2 fc ce da 00 b3 bf e9 42 a0 2f 2a f7 da 3f
       -0.07423179200561568 0.42133574152926073
000070 cd 5d 6a c6 71 2b b8 bf 39 dc 42 7e f4 f0 ce 3f
       -0.09441290945175425 0.24172836461159067
000080 90 b9 78 fc ce 11 9b bf 56 a8 45 b3 bf 68 dd bf
       -0.02643512168850176 -0.459518361158762
000090 16 cc 1d ce cd 6a e6 bf 39 6d e1 2c 25 2a aa 3f
       -0.7005375886641356 0.05110279248102718
0000a0 3e 29 e7 48 58 ad d2 3f c2 ad 14 cf 35 7d cb bf
       0.2918301307623955 -0.21475861178747208
0000b0 09 fb 76 27 ec 4f b1 bf 79 f4 a3 44 1b 35 ba 3f
       -0.06762577022071183 0.10237284112732138
0000c0 84 71 3f 4b 4f ef c2 bf ae b5 1f 83 9e 60 ce bf
       -0.14792815374574897 -0.23732358362705724
0000d0 ff 59 48 70 1d 35 c7 bf e2 c0 b2 4d a2 78 b1 bf
       -0.18130844099569285 -0.06824697873048849
0000e0 ff 9d 35 cc 5a c9 da 3f 0f 46 a5 95 5c 01 e8 bf
       0.4185397142632325 -0.7501662180677061
0000f0 de 67 3c e3 31 47 ab 3f 97 67 f7 f7 5b 94 c5 3f
       0.05327754877926315 0.16859006507621352
000100 f9 19 1d 7d 7e 3e a5 bf ac d5 43 f0 f8 f0 c3 3f
       -0.04149241711870739 0.15579139453590807
000110 92 7c 26 e5 22 63 c0 bf af cb 9d 73 da 09 a6 3f
       -0.12802540005666124 0.043043924916580927
000120 6e ec 1c 55 ea 37 d2 bf bc 77 86 b5 cb d6 c4 3f
       -0.2846628028089019 0.16280504573381716
000130 8d 89 75 e1 e9 19 b8 bf 3c 99 c7 54 27 c4 ec 3f
       -0.09414541010258955 0.8989445358136332
000140 72 99 93 66 ad 76 cd 3f c3 2b 46 49 06 e6 a5 bf
       0.23018424519177533 -0.04277057308635037
000150 6e a9 4c 58 2c 99 dc 3f 2e 79 a6 b8 7f 13 d4 bf
       0.44684895155901116 -0.3136901190972762
000160 f4 cf ab 16 5a 3b be bf 4b 05 07 10 a7 d1 c3 bf
       -0.11809313825125384 -0.1548355892428311
000170 e8 96 17 ae 08 a9 e4 bf 6c 5e cb 5c d4 7b d0 3f
       -0.6456340217816576 0.2575579553790479
000180 04 0e 38 11 72 b0 d6 3f 1f c0 aa 82 42 84 92 bf
       0.35451938325442733 -0.018082656121521375
000190 12 17 16 a4 84 b1 d0 3f 1a bc 54 4c 3d 84 d0 3f
       0.260834846725957 0.25807125524710417
0001a0 71 45 f4 24 4c 38 93 3f 44 d2 2f a1 f6 97 a6 bf
       0.01876944518614238 -0.04412813871013957
0001b0 77 cd b6 c5 ab 80 cc bf 65 aa 86 8f 7f 27 e0 3f
       -0.22267672685630277 0.5048215678446694
0001c0 ff 9b 5b 51 b7 47 bc 3f f7 eb f3 98 12 5a e5 3f
       0.11046930061603176 0.6672451960906746
0001d0 d0 8f be 97 36 a2 d1 3f 23 49 cb 75 2d 5c c4 3f
       0.2755257112387399 0.15906303645767492
0001e0 a1 8a 09 a5 ce 9e c5 bf 6a 08 f0 f5 fd fc b0 3f
       -0.1689089113088658 0.06636035208069449
0001f0 31 b4 51 9c eb 06 c2 bf 30 3b 6b a3 ad 39 d1 bf
       -0.14083619244357373 -0.26914540251611907
000200 df b5 17 d4 d6 f7 d7 bf 2c 0e d9 21 d7 64 a6 3f
       -0.3745019026963216 0.043738100892849324
000210 1b 6d 68 03 6b 10 b4 bf b2 63 cd 0c 56 d2 d6 bf
       -0.07837551911545797 -0.35658789873337604
000220 b8 6b 14 bc e4 33 c0 3f a3 27 51 16 99 70 e8 3f
       0.12658366378385977 0.7637448726538775
000230 1d 45 c6 9c cf cc da bf cb f2 7a d2 76 01 e0 3f
       -0.4187506705284976 0.5001787291472167
000240 c8 23 af 92 1d 7a c8 bf 1b 6f 6a 5a 34 99 dc 3f
       -0.1912266699057723 0.44685086087859965
000250 ec 32 56 64 d8 74 bf 3f e9 75 64 b6 65 69 c8 bf
       0.1228766674959833 -0.19071647077446066
000260 5f a0 ca 3b 37 8c ca 3f 64 bf e3 f7 50 dd da bf
       0.2074040452910166 -0.41975807388279507
000270 87 bb de f8 2e 99 d0 bf 9c 32 ae 73 85 19 91 3f
       -0.2593495779391834 0.01669891851956838
000280 57 30 3c f6 08 45 b1 bf 7e 47 7d 5f 70 d2 d6 3f
       -0.06745964061355046 0.3565941746247673
000290 35 d7 fc 74 27 a9 c0 3f a5 3d 32 78 b4 88 cf bf
       0.13016217434204128 -0.2463594042678611
0002a0 17 b7 1c 89 87 68 9e bf 08 ec 2e 6b 0b 58 e4 3f
       -0.029695623153364794 0.6357476323531737
0002b0 d6 46 60 ec c3 5f b8 bf 6b 40 81 eb c8 11 d0 bf
       -0.09521126290226375 -0.25108550070309005
0002c0 2a 59 ba 6e 7f 36 de bf ae f3 ad e2 71 44 d3 bf
       -0.47207628072046026 -0.30105254303617357
0002d0 f4 e4 6e be d7 74 c4 bf 48 f6 1a 75 fd d8 cf 3f
       -0.15981575773711365 0.24880951135667062
0002e0 59 5c 98 67 8b f5 db bf 54 f1 d7 ab 7e 0c c1 bf
       -0.4368618499442554 -0.133193811328861
0002f0 8e b7 76 7d 88 47 dd bf 39 b1 be 55 2a 2c c9 bf
       -0.4574910378677196 -0.19666032015573778
000300 f9 5d c8 bc b9 e3 e3 3f 3b f1 f1 01 15 02 ca bf
       0.621548527446918 -0.20318853945708235
000310 ad 97 d1 91 51 67 b1 3f ca ce f9 9b 07 bb c3 bf
       0.06798276720073089 -0.15414519420629907
