weights/w_10_22.npy (npy, 1888 bytes, 1 tensors)

array f8 [10, 22]
00000000: 0ecc ac47 0146 d4bf 6a2e 3254 edd3 ce3f
00000010: af34 0d56 9fa4 bfbf 35f2 618e f615 b6bf
00000020: 803f 869f 3422 c0bf 3ab5 b78f 9592 c23f
00000030: 71ce 5ab0 dc56 ca3f edc0 a8da f753 d1bf
00000040: 0125 8a69 f48b babf 5f6a 5925 a307 cc3f
00000050: 5e7a 3e1c 6af0 d43f 3f8a 878c 6d0e dabf
00000060: 26c0 b127 7e6f c8bf 3e80 ac50 cd02 b73f
00000070: 0306 18bc 1679 c03f d105 366b fe3b 993f
00000080: 8aa2 a155 7b46 d3bf 4904 d20a a502 a13f
00000090: 13bb 86f1 bb04 d4bf 42ed e5e2 7ee9 bdbf
000000a0: 35f0 00b3 e39b a13f c479 8ad3 04c5 d0bf
000000b0: aca3 bce8 57d9 cebf 8bec d0d0 6c1a c03f
000000c0: 7fa3 d16a 1d4a cd3f 21b7 9abc f5d5 c0bf
000000d0: 20a0 df31 ae66 d4bf 28ad fdb2 3faa cd3f
000000e0: 4217 1691 c834 d3bf c384 b127 9c7f cbbf
000000f0: 46bd 243f e711 c7bf 4b94 d0c0 6f2d cabf
00000100: f0fa bdd2 3e1d c6bf 860a d1a0 da68 90bf
00000110: 6886 ee29 3050 73bf fb7a 5d70 510c e13f
00000120: 4a5b b65b 53a0 a93f 503f 3590 c838 ccbf
00000130: 3286 f160 0a11 a83f 2336 20c3 da6d d03f
00000140: 566e cf6f 06cd b1bf 6e21 d7bd fe17 923f
00000150: 6cce 0605 a44b c33f f9b3 a01e 34ff c53f
00000160: b6f4 89c8 c877 d8bf 60bf 738d 9130 d43f
00000170: 6181 f7ff 3b52 a33f c7c9 9cdc 9e5e d03f
00000180: c44d c33b d064 b6bf 9868 40e0 428b b23f
00000190: 7d9d 4eae 3443 c3bf 89b9 8239 66f9 b6bf
000001a0: ae7b 7111 277f ac3f d36b 96ea 80f2 d13f
000001b0: 3ac0 9fb3 2ada da3f fb93 6327 1c65 aabf
000001c0: 52c8 4477 7c87 d1bf 9302 51c2 21d3 a73f
000001d0: 036f 4705 4cf0 bc3f d5f7 bc56 343d 7dbf
000001e0: cf38 9781 0ad9 c53f 5119 7973 0af2 c1bf
000001f0: 9cd9 5259 b49f cfbf 3221 bd8c dbd3 afbf
00000200: 9c0f f708 8b85 b23f fc58 0241 3abc da3f
00000210: 3c1a 1286 b1f5 d03f 8a7c a148 0b31 acbf
00000220: 324f bdd4 34df b13f ea08 b730 4fb2 c03f
00000230: 5313 c833 4ecb c2bf f1b6 5240 abb5 a5bf
00000240: 94a1 a647 1cee d4bf 57aa ea19 9ad0 c13f
00000250: 0795 fba9 cbcf 973f f93d 2f5c 2f33 d63f
00000260: 178f 0c8c 7d71 ba3f 381a c51f d05b cc3f
00000270: 9129 2b18 61ff 8a3f 6b6d f3ca a316 c83f
00000280: eae3 bbb3 3901 c83f 6450 9106 59b1 cc3f
00000290: 572a 298a b4b8 d1bf e345 a78a f9c6 b73f
000002a0: 215b 39ad 0e9a ab3f 0725 9568 01ab cdbf
000002b0: 06e5 3152 ac67 e0bf a062 af63 5847 cc3f
000002c0: e95f a48b 512d b63f e2c8 0f88 c9a0 c93f
000002d0: bf70 2c19 2967 c83f f82e 8b11 5eb8 ae3f
000002e0: 1553 21cb 413a 5a3f f8fe 1be9 dd66 ab3f
000002f0: b7d7 dc78 e370 97bf c794 ef37 4292 d03f
00000300: db43 364a e598 debf b5c5 3b78 4a36 da3f
00000310: a3c2 c790 c5ab ca3f 6566 3e96 b29e d13f
00000320: 0fbc 9132 94c8 8f3f 9971 e13e cde0 e03f
00000330: 97e7 b0b5 80c0 b7bf ae8d 3c49 b2c8 a03f
00000340: 4833 03f4 9740 913f bbaf 6df4 ba4c c3bf
00000350: 611b 1687 0b49 b1bf d733 838c a90b ba3f
00000360: 6753 8828 e773 80bf aff8 0f8e 176b 94bf
00000370: 0cb6 2caa 6557 b83f 2775 d7f3 b7f6 95bf
00000380: 5d8f 3c41 076b 7cbf 11eb eeb9 f884 be3f
00000390: 39f8 e40d 1f08 cdbf 9e16 13c9 0255 cf3f
000003a0: f859 ecbd 1a77 debf 717e 000d 356c bbbf
000003b0: 036d dd9c 51aa cfbf 3fd4 e14a b1aa cd3f
000003c0: 2151 0050 67c9 c93f e138 f6d8 4e37 d83f
000003d0: 8857 2ed6 9d02 bc3f 74a0 8068 8c95 70bf
000003e0: 3ab8 9bea 5865 c13f e062 1a90 5a08 a9bf
000003f0: 29d8 00d5 da3e d03f b304 114b 5429 d8bf
00000400: 39ca 1e3d 26a1 a6bf 6ab5 9acc bbf9 98bf
00000410: 38b3 de7e 4866 d23f 9a7c 0edc 6ea6 acbf
00000420: 0458 71a2 eb7a aebf 760a 0564 2afc d33f
00000430: 7a9a 5791 aa68 cf3f 7b56 2d32 d3a7 b4bf
00000440: fa5a 587b 150a aebf 9983 b46c 7eef b83f
00000450: cc65 311b 0c65 d73f 09b1 e184 7d5b cdbf
00000460: d776 5241 b68f d13f 4864 f441 fbac cbbf
00000470: 9b96 954a 7623 9f3f ca94 255d 3ecd d53f
00000480: 4b32 9357 09d9 c2bf a13a 4d6a aa06 7f3f
00000490: 4100 7c59 43d7 cabf 6d8a c52d 6e2d d43f
000004a0: 9157 98f1 6ff6 bebf 81f5 bc04 56b9 b83f
000004b0: deaa 9c44 3537 d8bf 53e2 496c e6bd bcbf
000004c0: 76f0 7299 1611 a93f 50fd 6ccc eab2 cb3f
000004d0: f3da 47d7 8c42 b5bf 5986 cd1c 442f d43f
000004e0: dad0 abd9 ec29 ca3f ef01 1ade e406 ddbf
000004f0: 948b def7 a804 ab3f 6526 708f 8a27 db3f
00000500: 122b 8e93 5d1e d53f d349 6575 6c4b 9e3f
00000510: 026c c9d9 5421 96bf 33b4 4344 1023 d0bf
00000520: 796a 4283 3952 c1bf 4b2f 8ae7 30a9 b83f
00000530: 1562 2763 999a b2bf 49d1 1444 c9c4 c5bf
00000540: 9003 1a62 0c63 ccbf a4ca 49d0 eda4 bd3f
00000550: 1c11 48b1 0ccc c6bf 7e25 6a6c 15e2 a43f
00000560: 2d22 7874 775a bcbf ebbe 53a6 88df b9bf
00000570: 575b f783 cb6b b6bf 9b92 dc4a d566 d43f
00000580: dd95 6240 c43b b6bf a1c6 87ed b555 babf
00000590: 73f4 33be 351b be3f d918 3afb 0fbf cc3f
000005a0: 01e1 3abb bd79 c0bf c0ee 0b02 468b b53f
000005b0: d1e1 b1b6 1a27 ccbf 4fd0 dfdd 281e c3bf
000005c0: 416b b8fc d111 483f c6c5 c1f0 34de cd3f
000005d0: 0d5c 5688 61cf bcbf 4df2 e1ec b4f4 d4bf
000005e0: c640 a368 9a38 a8bf 3f72 8ca6 5138 82bf
000005f0: 9822 dd2d 1d78 b63f 5e5c 7a5e 60dc b8bf
00000600: 77c5 8480 949a cb3f c916 28b3 f973 e03f
00000610: 6dad 9717 d7c4 b7bf f901 8ab1 27d6 da3f
00000620: 2ed1 3c04 0192 cb3f 1354 0d67 56f6 d2bf
00000630: 822e a185 f78d b6bf 62bb 4254 24b0 a0bf
00000640: 4e5d a981 ad6c cdbf 8ee1 034c 7039 a9bf
00000650: 6f02 4c29 6d48 a0bf 012f df59 fdf3 c9bf
00000660: 3470 e8eb b153 b13f a9d6 7bfd 3884 c8bf
00000670: 761f 9527 a8d5 d6bf c587 93a1 1568 9c3f
00000680: 0c08 78fb 340c c83f 3f5e 033b b615 cf3f
00000690: 5728 9dbd a7b9 a9bf 9196 2c7e 00cf b43f
000006a0: 47f8 c60d cbfb ab3f 6c42 8822 2c7c e23f
000006b0: b135 8485 01d0 bebf 2f52 9d69 6c97 c13f
000006c0: b513 3114 176e c13f e938 efd6 32c6 d43f
000006d0: 095a ba07 ce7e d6bf 279d 27e2 bc76 ae3f
-0.31677276610861405 0.24084250079282593 -0.12360568858021524 -0.08627263046396012 -0.1260438708236471 0.1450983955141199 0.20577581988401364 -0.27075001100003143
-0.10369803978587201 0.21898307155318528 0.3271737361737105 -0.40713061069087425 -0.19090249002647502 0.08988650531364414 0.1286953371455156 0.024642920774118175
-0.30117686617317274 0.033223302431914244 -0.3127889498381801 -0.11684411086564686 0.03439246711829506 -0.2620250764684011 -0.24100779403786754 0.12580642887209978
0.22882430759207392 -0.13152953824231253 -0.3187671172186146 0.2317580818156355 -0.3000966469629597 -0.21483184755473958 -0.18023386557750082 -0.20451161303313578
-0.1727674988760195 -0.01602498632952145 -0.004715145244433928 0.5327536768562305 0.050051312394478645 -0.22048289338499183 0.04700500901595851 0.25670498900658084
-0.06953468541854 0.017669658982215557 0.15074587102354842 0.17185069556708735 -0.3823110540759659 0.3154643899315399 0.03773677348704286 0.2557751802843566
-0.087475790586999 0.0724374577988861 -0.15048845778549583 -0.08974303154056974 0.05565759742670849 0.28042624386733656 0.41956584493073346 -0.05155265789816351
-0.27389442107517425 0.046532683344144087 0.11304164055712466 -0.007138447235602603 0.17068606689139762 -0.14019899977047115 -0.24706129418855205 -0.06216322033884793
0.07235020607828208 0.41773849819709574 0.2649959382328324 -0.055061676612916235 0.06981210893473813 0.1304415691248047 -0.1468293907966208 -0.042401649095479395
-0.3270331096378183 0.13917852654897686 0.023253614664004576 0.3468740844955103 0.10329422635237183 0.22155190993562868 0.013182409811084013 0.1881909123393187
0.18753739620277027 0.22416222401318742 -0.2768985127665124 0.0928798640736868 0.05390973915625908 -0.23178117376873095 -0.5126554112786443 0.22092728488384683
0.08662900599699665 0.20021933692584698 0.1906482098501154 0.06000036205440823 0.0016008036150385087 0.05351918669293626 -0.022891573192474115 0.2589269205330535
-0.4780820107198999 0.4095636533885128 0.20836705750800374 0.27531113311997607 0.015519292634250474 0.52744161874175 -0.09278110919777159 0.03278119224549002
0.016847967403737202 -0.15077912268622903 -0.06752082870489808 0.10174045258027263 -0.008033567356542993 -0.019939773603248664 0.09508357433943376 -0.02144896913329322
-0.006938007678204486 0.11921648539911824 -0.22681034258306612 0.24478182619184435 -0.4760195593566148 -0.10711986129217067 -0.24738521727963567 0.23177162319521646
0.20145884901342817 0.3783757323043471 0.10941492537526021 -0.004048870534497085 0.13590537505609906 -0.048891859141070304 0.25383635331252435 -0.37752253847800005
-0.044198222123118254 -0.024390158045823375 0.28749287023201786 -0.05595728336560875 -0.05953155858939854 0.3122659661059183 0.24538166138446 -0.08068580603625179
-0.0586706841533466 0.09740438608106529 0.3655424371296163 -0.2293545626483893 0.2743964803611169 -0.21621647568170688 0.0304087145826971 0.34065207573287337
-0.14724842811701175 0.007574716267142152 -0.20969430798868596 0.315272850703116 -0.12094783447568448 0.09657800307919297 -0.3783696336783303 -0.11227264541401753
0.04895849822193636 0.21639761907315824 -0.08304672485233393 0.31538489163185585 0.2044044554564895 -0.45354577722176165 0.052769928224072477 0.42428840644479343
0.32997836503697997 0.029584593453657448 -0.021611524384166365 -0.25214010874225606 -0.13532179745819287 0.09633165028406869 -0.07267149611232811 -0.1700679380825341
-0.2217727164279748 0.11579786620294868 -0.17810209900211127 0.04078738163395722 -0.11075541108596872 -0.10106710491868014 -0.08758232089836092 0.3187764388151579
-0.08684946605588757 -0.10287034081536685 0.11760269063593558 0.22458076254787931 -0.12871524469461096 0.08415639448133572 -0.21994337006232326 -0.14935789903359128
0.0007345462158271158 0.23334371333798581 -0.11253938272999182 -0.3274357140833544 -0.047306847832830054 -0.0088964823676686 0.08777029390069868 -0.09711267763701545
0.21565490985225796 0.5141571520950602 -0.09284729314793135 0.4193209871082498 0.21539318758881038 -0.2962852484100164 -0.0881037427181415 -0.032593856130339174
-0.22987908202297053 -0.04926634719771804 -0.031802569666983575 -0.20275847328445454 0.0676833344409154 -0.19153511407028148 -0.3567905794666254 0.027740800844987996
0.18787252691987566 0.24285009271146582 -0.05024456205008281 0.08128359871315129 0.05465540450266864 0.5776577639063141 -0.12036141881636443 0.13743357808074694
0.13617218480990592 0.3245970820397717 -0.3514895511119965 0.059499647719173425
