weights/w_200_4364.npy (npy, 349248 bytes, 1 tensors)

array f8 [10, 4364]
00000000: 3fed 4d93 2f1c 923f 8382 9e25 95e8 a03f
00000010: 3cd3 12ba 622e 8ebf 01ec 420a 804f 933f
00000020: e4d2 3467 d099 733f 5648 8d53 897a 95bf
00000030: a15d 8e14 9867 793f 63e9 039c d665 9a3f
00000040: e4e5 d377 f520 853f 8a86 e1bc eaf2 81bf
00000050: 264a 3611 a4b4 8ebf bbbf f665 c909 47bf
00000060: 8d42 1d57 1cd6 9dbf 792d 4bef a413 753f
00000070: 1017 8720 0936 613f 4799 ff84 09ad 60bf
00000080: de0c 0452 538a 90bf c057 af64 4a24 72bf
00000090: 58e0 a65b 79e3 91bf 94d5 22d2 b4f4 963f
000000a0: cf46 7634 61e2 78bf 2ba9 303f 5362 99bf
000000b0: 545d 4f92 b4fd 893f 1eb3 5229 447d 723f
000000c0: bceb 0187 c31b 88bf f1f3 9ce5 8ac0 7dbf
000000d0: e790 2e19 0ff4 71bf e22a c54d 86ac 8abf
000000e0: 60b9 6b03 917d 783f 50ef 76f1 5d38 70bf
000000f0: d34e 4531 00a7 593f bd51 c81f c56c 933f
00000100: 49ad 6d21 33d3 873f 02f4 49f2 5d17 52bf
00000110: 38eb d599 3127 72bf d2bd 5092 d154 91bf
00000120: a5ee 1caf 5676 7dbf b7f5 6e3e c2e2 a2bf
00000130: a474 29bd 0fe1 7b3f aff9 5c93 1c06 823f
00000140: 8142 cb77 47b5 97bf 157e 0bee f1b0 823f
00000150: a470 0a0c 3fdf 943f 965d 236d 702d 943f
00000160: 6b7b b429 1996 8c3f 5410 d51d 96c7 6e3f
00000170: 8984 f2f5 e915 973f 772f a27f 86e0 70bf
00000180: be86 7e05 6ca9 96bf 50b3 ff9f b74b 88bf
00000190: 98f9 2bdc 3e46 97bf d380 bde0 5ac9 85bf
000001a0: c797 876a e90d 533f bef2 1b44 35be 64bf
000001b0: b046 8902 7345 90bf 4ac4 7d33 3588 823f
000001c0: e853 f606 0289 613f 121e 320f 4bd3 583f
000001d0: ab56 9f04 1a5a 823f 3b12 e72a 36c1 89bf
000001e0: 4de9 f7c0 d43c 8e3f 6976 052f f621 89bf
000001f0: b8c1 1602 c5bd 6ebf 1184 8ac2 b5a8 86bf
00000200: ae22 37ac 55ac 5cbf ef94 3513 0895 8dbf
00000210: 9ac9 c2cc 98ac 2c3f 0b18 0fff 8cff a03f
00000220: e24f 7349 9dd0 543f f420 cc27 7e82 813f
00000230: 25ad c8e8 7a47 873f fe46 8cae 3144 a13f
00000240: 201f 9b30 4ff3 533f d232 38ea d593 89bf
00000250: f220 3086 daca 90bf 8e7b c443 4adb 7f3f
00000260: b6cf 921f 06cc 903f dd59 992d 28bf 8abf
00000270: 8b28 72cb bcc0 9f3f e3a5 d9ba 7acf 7abf
00000280: e068 4e62 99f3 7bbf 934b 78ed 57d0 8cbf
00000290: 2872 24b8 aabc 82bf 3ac5 a08d 6ab9 8dbf
000002a0: ce16 072c f877 42bf e5a6 6595 de37 753f
000002b0: 1708 97ba 6fc7 72bf 6811 f8c6 c73b 913f
000002c0: 39ec 748c d44d 9b3f 626e 4aee 2b0e 73bf
000002d0: 7260 91b2 486c 7b3f a8cb 7290 3e99 6e3f
000002e0: a5ec b15f 8534 91bf 5a71 f794 2286 613f
000002f0: bd97 3a56 c08f 91bf 639b 5263 b8c9 8dbf
00000300: 50b3 7c2d 95fa 8fbf 87b5 9736 0de6 7f3f
00000310: 0fc1 1516 596a 903f 3fb9 5795 f1a9 813f
00000320: e65e c186 8794 a13f 46ef d173 eba6 8b3f
00000330: 5c46 6ac5 0a37 a0bf 26eb 8411 53ff 653f
00000340: b4da 709d ae37 81bf d27b a835 055c 9c3f
00000350: 35f1 ac02 89df 91bf 3050 a4d1 e127 80bf
00000360: fe73 e9ac 52b6 71bf faf6 5920 dba8 913f
00000370: b83d 4493 b998 463f 818b 7886 7a5e 933f
00000380: 12f4 f41a fade 83bf cddf fb8f c164 9fbf
00000390: 7866 8824 3aea 7cbf 0b61 ebc8 c251 5cbf
000003a0: b3ae 02be cf25 a3bf ee42 94e4 031c 78bf
000003b0: a6b3 7848 20d3 76bf f304 f726 e41f 7ebf
000003c0: f7e8 66bd d03d 9e3f e2d8 3c17 d52d 923f
000003d0: e247 1126 960a 53bf 07bf c3f7 e90d 85bf
000003e0: 10d0 6ade a5b1 8dbf d9bf 9a10 d9f4 58bf
000003f0: df0c d323 bd21 69bf c88c 4f66 1455 4a3f
00000400: 3634 1931 db25 83bf 7045 488f dde5 883f
00000410: 3ea4 e127 d915 80bf 20e3 f668 9b56 97bf
00000420: 139b 17f7 2a96 243f 5664 b09b f1e2 54bf
00000430: 4248 bbcb 1763 7fbf fc8a 4178 d3bf 493f
00000440: 69f1 c0ab da8e 793f 8392 7cf1 d288 573f
00000450: 1901 5ccb 2570 84bf 4a81 9e32 3d68 933f
00000460: 9a4a cfb2 3020 92bf 1ae6 5145 925d 6cbf
00000470: 742e c828 71fb 92bf 3bab 47ef 3629 82bf
00000480: 8d3b 246c eb35 5b3f 738d 1a54 848e 943f
00000490: f17a d129 abb4 523f 86d1 6e5e 4570 41bf
000004a0: 4e16 01b6 353a 9ebf 2f8a f70f 0346 85bf
000004b0: e39d af79 8b1c a0bf c7ec 2bc0 af55 90bf
000004c0: 37db b237 029b 723f 976e 6b12 f395 523f
000004d0: e19f cc4a b56d 63bf 14fe d63c c8dd 7ebf
000004e0: 207c 6bff fd8b 873f f2af 6f64 43e4 9b3f
000004f0: 74a8 8f07 08c2 843f 2d05 1190 0c0d 873f
00000500: 6126 3ede 7bf6 5a3f 4e89 2f16 e250 febe
00000510: 1fb3 f631 e022 73bf 4bc0 b46b eb45 a0bf
00000520: 3ee5 3f02 9e3d 60bf 4457 6150 3681 94bf
00000530: 2ec2 26a0 014c 92bf 2330 94f1 4ed7 903f
00000540: ab0d ff60 b088 9f3f f2ce aa3a e590 60bf
00000550: baf7 44a9 71a3 84bf ea3b 7cf1 9755 883f
00000560: 9f49 7d47 0fad 8b3f 80f4 f2a1 d638 7abf
00000570: 4749 2824 4101 663f d519 b3d1 4ed5 8b3f
00000580: bfee d407 3168 24bf a6da b470 b978 79bf
00000590: 98ab 58b5 8c29 783f f247 1485 60bb 673f
000005a0: 5440 62b5 2fc8 8fbf 96c5 dd70 7fa6 683f
000005b0: 4a9b 91ed 1760 663f 7207 3262 f7f4 7a3f
000005c0: ff5b 75c2 568b 843f bf81 8a17 c38e 9c3f
000005d0: c682 41ce e37b 77bf 6f24 f48f e93b 6dbf
000005e0: a751 7776 1495 11bf 943d 837e b058 963f
000005f0: 79d0 1d8f 8f93 8f3f 5ca5 1a22 f0f8 8b3f
00000600: 748d 52ad 2a95 6f3f fb5d 57bc 214b 7d3f
00000610: 7cd5 146d c92e 84bf d6b8 ba75 1185 913f
00000620: 439f e471 bffd 863f 2c7a a77b ec60 86bf
00000630: deb2 dce2 51ec 523f 7145 1509 e5f5 8c3f
00000640: 9ccd bfdb 174c 9bbf dcd3 7078 4c73 4dbf
00000650: 9ef2 6972 f0ea 9dbf cb73 9b3b 903b 94bf
00000660: 6969 ec92 6860 613f d001 7117 0259 90bf
00000670: 8d76 5cf3 8d6c 52bf 1333 8998 5b86 993f
00000680: f8bc 5087 6b5c 773f e37f c663 faf1 7dbf
00000690: 04d5 3bab 51dd 81bf 64ee 55b9 ea9a 52bf
000006a0: 41a9 8370 0367 8c3f f7e0 69c8 0fbb 86bf
000006b0: bc5e 0c1b 1f26 94bf 5003 39ec cd94 9bbf
000006c0: 1fad 835e 6cbe 7bbf 790f bd4f 36e9 9abf
000006d0: 49c0 a8d9 c4b4 87bf a2e7 017a 710c 543f
000006e0: 1a04 0ddb 5e1a 6fbf 68cd 79ea 528b 793f
000006f0: 8a3c 83bc 9960 5e3f fb6c a2a0 c1fb 833f
00000700: aa16 d594 3a35 83bf 65ef dfdb 92e1 89bf
00000710: 5176 a2fc 97f2 87bf 1a1a 032f 7b49 763f
00000720: f18f 6cd9 dfb9 8cbf 7810 96a9 bf72 7e3f
00000730: 6319 3c9f 32c5 533f 4021 5191 57d7 783f
00000740: dea3 ba26 3ec4 8cbf be44 14cb aed4 933f
00000750: 2dc4 488f 8921 44bf 1dad 153f 01f7 653f
00000760: e2e8 a6dc 5e77 963f ed52 1ee8 75fd 5cbf
00000770: f129 6bbd 16b8 783f a068 2e29 00b5 833f
00000780: 4270 1ac6 f183 9c3f 6b65 5575 4030 6bbf
00000790: 889e f4d7 7c3b 97bf f823 f556 a545 603f
000007a0: 71f7 a185 bf3a 963f a299 7fb7 345f 963f
000007b0: ef50 9144 8c27 763f 7d79 ec94 d811 7d3f
000007c0: 4f00 145d a614 aabf 9107 cd4a e951 8ebf
000007d0: 0e71 d974 7ea0 8c3f 9da7 412b 0094 8f3f
000007e0: b578 995f 3f24 5dbf 4c0b 408d 03df 82bf
000007f0: c0cb 1a17 da63 9e3f e34c 2a06 023f 7dbf
0.017685645452258255 0.03302446445673459 -0.014736911109460508 0.018857956529910073 0.00478536040764219 -0.0209752518888496 0.00620231062284607 0.02577910735360812
0.010316770285942085 -0.008764108552159717 -0.014992982650061281 -0.0007030709638708924 -0.029137080018076623 0.0051456873668017595 0.0021009615195194467 -0.002035635559866442
-0.016152669792984457 -0.004429140662031317 -0.01746930715464176 0.022417855573356585 -0.006075267512089601 -0.024789143306557165 0.012690935816790962 0.004513994460620533
-0.011771705205537823 -0.007263701025121514 -0.004383143404002455 -0.013024377106054034 0.005979124506423211 -0.0039600057274887385 0.001565694988205847 0.01896961218342751
0.011633300264029105 -0.001104203934260584 -0.004431909326167376 -0.016925119929678996 -0.007192934617531376 -0.03688628208281435 0.006806432228214341 0.008800719496886737
-0.02315246266045046 0.009126558377317054 0.0203828669642553 0.019704586659683075 0.013958164773212286 0.0037572795833132142 0.02254453242915536 -0.004120374093087401
-0.022130668483106623 -0.011863169260288992 -0.02272890299627192 -0.01063796041825108 0.00116298479599085 -0.0025321045258109567 -0.015889927892493716 0.009048858293427515
0.0021405257791209283 0.00151521997466542 0.008960917726578662 -0.012575553116115681 0.014764463557175 -0.012271807966210706 -0.003752598554193489 -0.011063976287291085
-0.001750072159540188 -0.014444411359998159 0.000218766834569073 0.03319969762337401 0.0012704406743084752 0.008549676503676974 0.011366806248665437 0.03372340446197873
0.0012176774347824673 -0.01248900528937594 -0.01639882511156627 0.00777749070792212 0.016403289486973192 -0.013059915439197428 0.031008672635416217 -0.006545524037940595
-0.006824111133847149 -0.014069258627420733 -0.009148916000918453 -0.014513809630531161 -0.0005636178757917 0.005180234400862215 -0.004584728661429358 0.016829606551270443
0.026664086411283903 -0.004652186970499269 0.006695064520577986 0.003735181995204912 -0.01680191418243439 0.0021391559055087663 -0.017149930251114876 -0.014544907122695688
-0.015614667368561236 0.007787753690974403 0.01603068539901736 0.00862492310531293 0.034336314391735276 0.013501967880294462 -0.03166993770458923 0.002685224764858235
-0.008406986407959983 0.02769477977755825 -0.01745428160505576 -0.007888569078694813 -0.004324267340590103 0.017245696878027218 0.0006895929459761951 0.018915094811869707
-0.009702638576181175 -0.03065779153163799 -0.007059313888498779 -0.0017284776874274012 -0.03739785379852147 -0.00588609238299463 -0.005572439294650266 -0.007354632587010845
0.029532681999378387 0.017752961676898667 -0.0011621919914159774 -0.010280444978405535 -0.01449899277699987 -0.001523220040706255 -0.003067845739310834 0.000803599320189718
-0.009349548755517838 0.012157183585290027 -0.00785417225798046 -0.022791317254561183 0.00015706324079119895 -0.0012748107390108307 -0.0076628617786856385 0.00078580690070526
0.0062397519905597965 0.0014364299767716533 -0.009979529636894345 0.018952327932880743 -0.017700920976333558 -0.0034625870562734586 -0.01853730021870921 -0.008867673089260833
0.0016608046576640251 0.020074908860477202 0.0011417075650325648 -0.0005321825709559281 -0.029518927796990994 -0.010387443470738137 -0.03146777973580208 -0.015951868156645312
0.004542359030145707 0.0011343835591820833 -0.0023716488707527937 -0.007535726717321296 0.01149748264054834 0.027237942700523328 0.01013571045946924 0.011255357882080286
0.0016456803941501607 -2.8911542710016468e-05 -0.004671931993851768 -0.0317834443070529 -0.001982506380951903 -0.02002415528871572 -0.017868066215387106 0.016446336264422833
0.03079486457842299 -0.0020222165233806317 -0.010077369669143955 0.011882006699606113 0.013513678902801028 -0.00640186158051137 0.002686145047172381 0.013590446257137604
-0.00015569304006556557 -0.006218647361768836 0.00589899982655142 0.002896965518297095 -0.015518543932813746 0.003009079845406058 0.0027313678115662753 0.006581274358838362
0.010031392869377596 0.027888344108420556 -0.005733384958234116 -0.003568607498554636 -6.707131762279679e-05 0.021822698327751036 0.015418168597286052 0.01365840534284029
0.003855307916255485 0.007151729374036626 -0.00985486377849542 0.017109177408820418 0.011226173079719742 -0.010927054904581977 0.0011549758596160402 0.014140881862348494
-0.02665746000998369 -0.0008987544432615918 -0.02921653459860584 -0.019758466375481547 0.002121166463792058 -0.01596453922343405 -0.0011245142208688192 0.024926596818022406
0.005703372987269299 -0.007310846409751523 -0.008722913778437043 -0.001135567877411336 0.013868357535518629 -0.011098979285848005 -0.01967667200651023 -0.026934831183328456
-0.006773398701834381 -0.026280258766987672 -0.011575258152419237 0.0012236698312606338 -0.003796754136061964 0.006236385240856769 0.0018540860492526645 0.009757530893969682
-0.009378869692805953 -0.01263727887634731 -0.011693179509445846 0.005441170869920709 -0.014026402304416737 0.007433651620321162 0.0012066835742544294 0.006064741192922718
-0.01404617839519234 0.019366007943123924 -0.0006143495252840574 0.002681257662222726 0.02193973752739787 -0.0017694140846959375 0.006034935787008853 0.009622575051072169
0.027847078052772874 -0.0033189066840974466 -0.02268786495292699 0.0019863347330653057 0.02170848134164011 0.021847556781631312 0.0054088095867721305 0.0070970974182088505
-0.05093879591186178 -0.014804670901529511 0.013977992955169796 0.01541900760658504 -0.001778661621208805 -0.009214427707780047 0.029677779827306017 -0.007140167147230178
